Results/XRP-USD/DeepRL; DATA_KIND(AutoPatternExtraction); BEGIN_DATE(None); END_DATE(None); SPLIT_POINT(2021-10-07); StateMode(5); WindowSize(75); BATCH_SIZE10; GAMMA0.7; REPLAY_MEMORY_SIZE20; TARGET_UPDATE5; N_STEP10/model.pkl (torch, 300277 bytes, 14 tensors)

policy_network.0.weight f4 [128, 300]
0	0x3d3aea02	0.045633323
1	0x3e8063d0	0.2507615
2	0x3db00cd5	0.085961975
3	0x3daad4df	0.08341383
4	0x3e2acfe2	0.16680863
5	0x3dc607c7	0.09669452
6	0x3dbd9201	0.09256364
7	0x3d0e99a1	0.03481448
8	0x3dbecc79	0.09316344
9	0x3dd03293	0.10165896
10	0x3ddd99ee	0.108203754
11	0x3dbb4c0c	0.09145364
12	0x3d28f542	0.04124952
13	0x3de41b6d	0.111380436
14	0x3c480b18	0.012209676
15	0x3b148bdf	0.0022666377
16	0x3d98ebdf	0.07466864
17	0x3da8e10a	0.08246048
18	0xbdab03aa	-0.08350308
19	0xbdb99b5a	-0.09062834
20	0xbde9b213	-0.11410918
21	0xbddc91da	-0.107700065
22	0xbe2a7ca6	-0.16649112
23	0xbe0a09f1	-0.13480355
24	0xbdfbe0ec	-0.1229876
25	0xbe5e4c50	-0.21708798
26	0xbe0c5591	-0.13704516
27	0xbdd33041	-0.10311938
28	0xbde9b99e	-0.11412357
29	0xbe1bc99b	-0.15213625
30	0x3dd180ff	0.10229682
31	0xbc9c427e	-0.019074675
32	0x3e046178	0.12927806
33	0x3e1d7eb6	0.15380368
34	0xbc96b0e7	-0.0183949
35	0x3cfab083	0.030601745
36	0x3d64e51d	0.055882562
37	0x3da0e4e2	0.07856156
38	0x3e0ce090	0.13757539
39	0x3e35fbca	0.17771831
40	0x3e781111	0.2422526
41	0x3e77db28	0.24204695
42	0x3ea29707	0.3175585
43	0x3eb3d4ac	0.35123193
44	0x3ea429e3	0.32063207
45	0x3eb22ffa	0.34802228
46	0x3ed862e8	0.4226296
47	0x3ed030e8	0.40662313
48	0x3ea5e4b0	0.32401037
49	0x3eaa42bc	0.3325404
50	0x3eae528f	0.34047362
51	0x3eaabf08	0.3334887
52	0x3e85535e	0.26040167
53	0x3e9f64ef	0.31131694
54	0x3e5d5d86	0.21617708
55	0x3e827f39	0.25487688
56	0x3e3dec68	0.18547213
57	0x3d10ec79	0.035381768
58	0x3db1cfe3	0.08682229
59	0x3d29959f	0.041402455
60	0xbd2793e2	-0.040912516
61	0xbb6c3087	-0.0036039667
62	0xbd908eef	-0.070585124
63	0xbda89e29	-0.08233292
64	0xbdce5867	-0.10075455
65	0xbdb5a447	-0.08869224
66	0xbdcc29d3	-0.09968915
67	0xbe28b70d	-0.16476078
68	0xbe188c29	-0.14897217
69	0xbc715b12	-0.0147311855
70	0xbdf0c4f7	-0.11756318
71	0xbd24da32	-0.04024715
72	0x3d04a5bb	0.032384615
73	0xbd3aa5a8	-0.04556814
74	0xbcf8c166	-0.030365657
75	0xbca1ae26	-0.01973636
76	0x3c657e4b	0.014007161
77	0xbd23cf92	-0.039992876
78	0x3d876e70	0.06612861
79	0xbd5c5216	-0.05378922
80	0xbc8569f9	-0.016285883
81	0xb8f70984	-0.0001177965
82	0xbe53c406	-0.20680246
83	0xbe44d6ca	-0.1922256
84	0xbe4adc2f	-0.19810556
85	0xbe271800	-0.16317749
86	0xbe528235	-0.20557483
87	0xbda65efe	-0.08123587
88	0xbe579775	-0.2105387
89	0xbe10eaa2	-0.14152005
90	0xbe5a84ca	-0.21339718
91	0xbe3d493b	-0.18484966
92	0xbe1dd46f	-0.15413068
93	0xbe96bd93	-0.2944151
94	0xbc3f2f05	-0.011668925
95	0xbd2c5d9c	-0.04208146
96	0xbe81a11e	-0.25318235
97	0xbd0383d9	-0.03210816
98	0xbc3d025b	-0.011536206
99	0xbd9bc13d	-0.07605217
100	0x3ddf5ad3	0.10905995
101	0x39b9de62	0.00035451638
102	0xbe03958f	-0.12850021
103	0xbcce1e66	-0.02516098
104	0xbc9583eb	-0.01825138
105	0xbd9e98ed	-0.07744012
106	0xbc4327d6	-0.011911353
107	0xbded6c9a	-0.1159298
108	0xbd154efc	-0.03645228
109	0x3d6e92f7	0.058245625
110	0x3c95766e	0.018244948
111	0xbd8496c8	-0.06474072
112	0x3df26a15	0.1183664
113	0x3d362478	0.044468373
114	0x3daa3cb5	0.0831236
115	0x3c3d43a4	0.011551771
116	0x3e51cb76	0.2048777
117	0x3db39bef	0.08769976
118	0xbb87a61c	-0.004139675
119	0x3c434b4a	0.011919806
120	0xbbc8dfde	-0.0061302027
121	0xbca595b9	-0.020212995
122	0xbdcf501a	-0.101227
123	0xbcd0fe4e	-0.025511887
124	0xbd26e1cb	-0.040742677
125	0xbc600f55	-0.01367553
126	0x3dd8b3e3	0.10581186
127	0x3d253967	0.040337946
128	0x3c82d9cb	0.015972992
129	0xbd15f053	-0.036606144
130	0xbd235225	-0.03987326
131	0xbe09ca09	-0.13455977
132	0xbd9c4ea6	-0.076321885
133	0xbdd2a99c	-0.10286257
134	0xbdb63940	-0.08897638
135	0xbde69b18	-0.112600505
136	0xbda6f288	-0.08151728
137	0x3c1ad651	0.009450511
138	0xbcad7024	-0.021171637
139	0xbe3cb9c4	-0.18430239
140	0xbdf2df5a	-0.11859007
141	0xbd451316	-0.048113905
142	0xbe4a6354	-0.19764453
143	0xbe397f43	-0.18114953
144	0xbe5b7a8a	-0.21433464
145	0xbe77f860	-0.24215841
146	0xbe6033fd	-0.21894832
147	0xbd123c65	-0.035702128
148	0xbe0a8eba	-0.13531008
149	0xbd64b4b2	-0.055836387
150	0x3d2fb47b	0.04289673
151	0x3dca6a03	0.098835014
152	0x3d44e65a	0.048071243
153	0x3c83fa2b	0.0161105
154	0x3e118686	0.14211473
155	0x3d8575e4	0.065166265
156	0x3b74c7f2	0.0037350622
157	0x3e2cadd3	0.16863184
158	0x3dcd08b1	0.100114234
159	0xbd25f6fa	-0.04051874
160	0x3e1104f9	0.14162053
161	0x3e0deb41	0.13859273
162	0xbc9a09e9	-0.018803554
163	0x3dce6aef	0.1007899
164	0x3d3c6caa	0.046002068
165	0xbbb52294	-0.0055278037
166	0x3d6491e9	0.055803213
167	0x3ca38844	0.019962437
168	0x3d9d9f87	0.07696443
169	0xbe27b260	-0.16376638
170	0xbdc5a738	-0.09651035
171	0xbccd104f	-0.02503219
172	0xbe3b7a0c	-0.18308276
173	0xbdd26df2	-0.10274877
174	0xbdbf09be	-0.0932803
175	0xbe9f6430	-0.31131124
176	0xbe8ab6fd	-0.27092734
177	0xbd142b14	-0.036173895
178	0xbea01530	-0.31266165
179	0xbe4e07d1	-0.20120169
180	0xbd533f8f	-0.051574286
181	0xbe206a6b	-0.15665595
182	0xbd95d597	-0.0731613
183	0xbcd3c31c	-0.025849871
184	0x3cc224ce	0.02369919
185	0x3d69be2d	0.05706613
186	0xbda07650	-0.07835066
187	0x3cb3d1a9	0.02195056
188	0x3cbee883	0.02330423
189	0xbd85b437	-0.06528514
190	0xbd930df7	-0.07180398
191	0xbd7e96af	-0.06215542
192	0xbe2af747	-0.16695891
193	0xbc050bd4	-0.008120496
194	0xbd6f0496	-0.058353983
195	0xbdf27b6f	-0.11839949
196	0xbc0eb119	-0.008709216
197	0xbdafa9a2	-0.08577277
198	0xbd9b892c	-0.07594523
199	0x3d8d3b72	0.06896104
200	0x3d572a4f	0.052530583
201	0xbcd1c3dd	-0.02560609
202	0x3e05c907	0.13064967
203	0xba1cd8ca	-0.0005983232
204	0x3ca619bc	0.020275943
205	0x3da706d0	0.08155596
206	0xbc812d1e	-0.015768584
207	0xbd069990	-0.032861292
208	0x3c30f7db	0.010801281
209	0x3d724db8	0.05915615
210	0xbca045a3	-0.019564455
211	0xbdd24ad5	-0.10268179
212	0xbc47e7b7	-0.012201241
213	0xbcb41cbd	-0.02198636
214	0xbdfee692	-0.124463215
215	0xbd1e0bff	-0.03858566
216	0xbd1330ce	-0.035935216
217	0xbdea5fa9	-0.11444027
218	0xbdb3c0b7	-0.08776992
219	0xbe3c149c	-0.18367237
220	0xbe4acfa5	-0.19805773
221	0xbe722f42	-0.2365084
222	0xbe750435	-0.23927386
223	0xbe900f6d	-0.2813677
224	0xbe6707e2	-0.22561601
225	0xbe919ff5	-0.2844235
226	0xbe1ed04c	-0.15509146
227	0xbe66fbdf	-0.22557019
228	0xbe9919d1	-0.2990251
229	0xbe6bd246	-0.23029432
230	0xbeb0c112	-0.345223
231	0xbe3a1c26	-0.181748
232	0xbeaf3118	-0.34217143
233	0xbe1b2c72	-0.15153673
234	0xbddf74e4	-0.10910967
235	0xbe5a6028	-0.21325743
236	0xbe8ec4c8	-0.27884507
237	0xbeb38871	-0.35065034
238	0xbdcb2d3b	-0.099207364
239	0xbe45bc9c	-0.1931023
240	0xbe3f03ea	-0.18653837
241	0xbeb0004b	-0.34375224
242	0xbe618bbb	-0.22025959
243	0xbec318a5	-0.3810474
244	0xbec21117	-0.37903664
245	0xbed81016	-0.42199773
246	0xbf044af2	-0.5167686
247	0xbefa5136	-0.48890084
248	0xbf09e7f7	-0.53869575
249	0xbf0609ed	-0.52358896
250	0xbf03add1	-0.514371
251	0xbf305f34	-0.6889527
252	0xbf36dba5	-0.714289
253	0xbf238c15	-0.63885623
254	0xbf32ce37	-0.6984591
255	0xbf00d360	-0.5032253

policy_network.0.bias f4 [128]
0	0xbe94f811	-0.2909551
1	0xbe8009a3	-0.25007352
2	0x3cc8f81c	0.02453237
3	0x3e852bfd	0.26010123
4	0xbd4c47b7	-0.04987308
5	0x3dc25c44	0.094902545
6	0xbc8edc49	-0.017439025
7	0x3e16a6f3	0.14712124
8	0xbcea35d3	-0.028590119
9	0xbce81efd	-0.028335089
10	0x3d20fee2	0.039305575
11	0xbe2243db	-0.15846197
12	0xbe5926fe	-0.2120628
13	0x3deb66f6	0.114942476
14	0xbe2e4acd	-0.17020722
15	0xbddd0c97	-0.10793417
16	0xbf01e8c6	-0.5074581
17	0xbe54a782	-0.20767024
18	0xbdd93327	-0.1060546
19	0x3cf117e1	0.029430332
20	0xbd3daf7c	-0.046309933
21	0x3dc325b0	0.09528673
22	0x3dc6d8e2	0.09709336
23	0xbe1d02a6	-0.15333042
24	0x3e325f31	0.17419125
25	0x3d4f30ff	0.050583836
26	0x3d90c2cb	0.07068404
27	0xbe65643c	-0.22401518
28	0x3ea8f186	0.32996768
29	0x3d97fe1f	0.074215166
30	0x3e4d03de	0.20021006
31	0x3df91081	0.12161351
32	0xbdfd03e7	-0.1235426
33	0x3ce043b2	0.02737603
34	0x3e35b670	0.17745376
35	0xbdf776b8	-0.12083191
36	0x3e218f03	0.15777211
37	0xbe181b72	-0.1485422
38	0x3d3a3de5	0.045469183
39	0x3ed21c8f	0.41037413
40	0x3c6481fd	0.013947007
41	0x3e141d91	0.14464404
42	0xbe5b3661	-0.21407463
43	0x3e741e13	0.23839597
44	0xbde0b488	-0.109719336
45	0x3e11553b	0.14192669
46	0xbc6c0c86	-0.014407283
47	0xbe7f3229	-0.24921478
48	0xbb819dd8	-0.003955584
49	0xbe51790a	-0.20456329
50	0xbd23da0d	-0.04000287
51	0x3aab220a	0.0013056409
52	0xbeae767f	-0.3407478
53	0x3d03efdc	0.03221117
54	0xbe3ce0fb	-0.18445198
55	0x3d79ab90	0.06095463
56	0x3d7cbddd	0.061704505
57	0x3e82288c	0.2542156
58	0xbc130b5f	-0.008974879
59	0x3e44a31c	0.19202846
60	0xbc7a256f	-0.015267714
61	0x3eadfbec	0.33981264
62	0x3e133f0a	0.14379516
63	0xbd3d3f7c	-0.04620312
64	0xbd050bb5	-0.032481868
65	0xbd9dcf10	-0.0770551
66	0xbd97157a	-0.07377143
67	0xbd8cdbec	-0.06877884
68	0x3cd59426	0.02607162
69	0x3c10bcf4	0.008834112
70	0x3d9f9f03	0.07794001
71	0x3d6eb678	0.058279485
72	0xbd78fada	-0.060786106
73	0x3d30db8e	0.043178134
74	0xbda9f5d8	-0.08298844
75	0x3da2575a	0.07926817
76	0x3ec02b2c	0.37532938
77	0x3ca7d4c1	0.020487191
78	0x3d886427	0.066597275
79	0xbc2d807a	-0.010589713
80	0x3df30d11	0.118677266
81	0x3dc309f5	0.095233835
82	0x3bed3120	0.007238522
83	0x3ec4f08f	0.38464782
84	0x3d263d83	0.040586006
85	0xbe1afcf1	-0.15135552
86	0x3e267bf0	0.16258216
87	0x3eaa849b	0.33304295
88	0x3dda2dc2	0.10653259
89	0x3d1c2cd7	0.0381287
90	0xbdf53a93	-0.11974063
91	0xbecd885f	-0.40143105
92	0xbdfcf4fa	-0.12351413
93	0x3e168564	0.14699322
94	0xbe6176ec	-0.22018021
95	0xbe13fad1	-0.14451148
96	0xbe234c9c	-0.15947193
97	0xbe3e2f8e	-0.18572828
98	0x3dfd70b1	0.1237501
99	0x3de05d45	0.1095529
100	0xbc8bae4d	-0.017050887
101	0x3e4ba09e	0.1988549
102	0x3e64b5cf	0.2233498
103	0xbe340766	-0.17580947
104	0x3e962acc	0.29329526
105	0x3e2f6b05	0.17130668
106	0x3e295cf5	0.16539367
107	0xbedabfe6	-0.42724532
108	0x3e46a31a	0.19398156
109	0x3e83eb31	0.25765374
110	0x3dc0fa50	0.09422743
111	0xbdbc7b0f	-0.09203159
112	0x3e1abcae	0.15111038
113	0x3e958e19	0.29209974
114	0xbdcdb002	-0.100433365
115	0x3d7ae3b2	0.061252303
116	0x3e6483b9	0.22315873
117	0x3dbcb463	0.092140935
118	0xbe79e05d	-0.24401994
119	0x3e4fc4f4	0.20289975
120	0x3dae2b34	0.08504334
121	0xb95c7caa	-0.00021027276
122	0xbe3c7f6b	-0.18407981
123	0xbd8b4670	-0.06800544
124	0x3e9ccae9	0.30623558
125	0x3e1fa7d5	0.15591367
126	0xbe61e347	-0.22059356
127	0x3ea229f4	0.31672633

policy_network.1.weight f4 [128]
0	0x3f773e86	0.9657978
1	0x3f2e55ba	0.6809956
2	0x3fa3bd36	1.2792118
3	0x3f61e956	0.8824667
4	0x3f901f04	1.1259465
5	0x3f4b0a73	0.7931282
6	0x3f8960d3	1.0732673
7	0x3f893168	1.0718203
8	0x3f708344	0.93950295
9	0x3f8dc99b	1.107715
10	0x3f831d36	1.024329
11	0x3f8a92f7	1.08261
12	0x3f362cdd	0.71162206
13	0x3fbee46f	1.4913462
14	0x3f3c549d	0.7356661
15	0x3faf42d6	1.3692272
16	0x3f9cb8ac	1.2243857
17	0x3f7cceef	0.98753256
18	0x3fa8ab0d	1.31772
19	0x3f44d905	0.76893646
20	0x3fb13476	1.3844135
21	0x3fae86a4	1.3634839
22	0x3f7a1e32	0.97702324
23	0x3f7930cc	0.97340083
24	0x3fb9cc50	1.4515476
25	0x3f80a0b5	1.0049044
26	0x3f8b2d36	1.0873172
27	0x3fad92d4	1.3560433
28	0x3f6a533b	0.9153325
29	0x3f60a9e2	0.8775922
30	0x3f6f9bc0	0.9359703
31	0x3f8ba759	1.0910445
32	0x3f954427	1.1661423
33	0x3f2b992c	0.67030597
34	0x3fb54942	1.4162982
35	0x3f90f193	1.1323723
36	0x3f978915	1.1838709
37	0x3f465bea	0.77484
38	0x3f8b31c4	1.0874562
39	0x3f889a6d	1.0672127
40	0x3f3c7b04	0.73625207
41	0x3f7b65c5	0.98202163
42	0x3f7d9a1e	0.9906329
43	0x3f454bde	0.7706889
44	0x3f480aa8	0.7814126
45	0x3f64cf18	0.893785
46	0x3f7db4a3	0.99103755
47	0x3f49a2be	0.7876395
48	0x3f7773c7	0.9666104
49	0x3f89f5d0	1.0778141
50	0x3f8a1c0c	1.0789809
51	0x3f822ff9	1.017089
52	0x3f9bd1a1	1.2173349
53	0x3f4ec475	0.8076852
54	0x3f9df855	1.234141
55	0x3f86bfc2	1.052727
56	0x3f7e1ca3	0.99262446
57	0x3fc21428	1.5162401
58	0x3f96eb5f	1.179058
59	0x3f7613a0	0.96123695
60	0x3f638102	0.88868725
61	0x3f928c16	1.1449001
62	0x3f7e0994	0.99233365
63	0x3f6ca79c	0.9244325
64	0x3f773a9d	0.9657381
65	0x3f51d05b	0.8195855
66	0x3f9c0c91	1.2191335
67	0x3f4201e3	0.7578413
68	0x3fa8a59e	1.3175542
69	0x3fa245b1	1.2677518
70	0x3f8c4ed1	1.0961553
71	0x3ee57520	0.44815922
72	0x3f5b91cc	0.85769343
73	0x3f509a55	0.8148549
74	0x3f1f4a76	0.62222993
75	0x3f8c32b2	1.0952971
76	0x3fa58764	1.2931943
77	0x3f65de19	0.8979202
78	0x3f63945d	0.8889826
79	0x3f8a67f8	1.0812979
80	0x3f7959a0	0.9740238
81	0x3f2db506	0.67854345
82	0x3f9ab006	1.2084968
83	0x3f8ad11c	1.0845065
84	0x3f78936f	0.97099966
85	0x3f611813	0.8792736
86	0x3f648abb	0.89274186
87	0x3f87ef50	1.0619907
88	0x3f1ef977	0.62099403
89	0x3f55a7f9	0.8345943
90	0x3f74fcfa	0.9569851
91	0x3f8879ca	1.0662167
92	0x3f56822f	0.83792394
93	0x3f8dfdfb	1.1093134
94	0x3f0ce9d1	0.55044276
95	0x3f2067f8	0.62658644
96	0x3f89fdf4	1.0780625
97	0x3f9e3a82	1.2361605
98	0x3f822862	1.0168574
99	0x3f8cdbe1	1.1004602
100	0x3f877500	1.058258
101	0x3f8e6cbc	1.1126933
102	0x3f81ae8e	1.0131395
103	0x3f5a33f6	0.85235536
104	0x3f9fb9af	1.2478541
105	0x3f5ed523	0.8704397
106	0x3f684eb2	0.9074508
107	0x3f85180d	1.0397965
108	0x3f8ca115	1.0986658
109	0x3f50afc4	0.815182
110	0x3f865ae6	1.049649
111	0x3facc477	1.3497456
112	0x3fa498c4	1.285912
113	0x3f82d04e	1.021982
114	0x3f88fb29	1.0701648
115	0x3f45973c	0.7718389
116	0x3f88599e	1.0652349
117	0x3faa4b93	1.3304313
118	0x3f7b915c	0.98268676
119	0x3f5d673b	0.8648564
120	0x3f59d533	0.8509094
121	0x3f69c133	0.91310424
122	0x3f512fb2	0.817134
123	0x3f51db4b	0.8197524
124	0x3f4e956e	0.8069676
125	0x3f984b1e	1.1897924
126	0x3f40c282	0.75296795
127	0x3f86a7ac	1.0519919

policy_network.1.bias f4 [128]
0	0x3e335c81	0.17515756
1	0x3da748fb	0.08168217
2	0xbdf2343d	-0.1182637
3	0x3e1c0766	0.15237197
4	0xbc10d8c6	-0.008840745
5	0xbe5865eb	-0.21132629
6	0xbd783581	-0.0605979
7	0xbb2d637a	-0.0026456998
8	0xbc8143d3	-0.015779411
9	0xbe1266f8	-0.14297092
10	0x3d0b2f83	0.033980858
11	0x3e400868	0.18753207
12	0xbcfac8b9	-0.03061329
13	0xbc157252	-0.009121494
14	0x3d5140bf	0.051087137
15	0x3d31a708	0.043372184
16	0x3d9adb04	0.07561305
17	0x3c7f2025	0.015571629
18	0x3d3bdc29	0.045864258
19	0xbe157023	-0.14593558
20	0x3e3fb0c0	0.18719769
21	0x3e0581dd	0.1303782
22	0x3b4b3a10	0.003100995
23	0xbe3ba38d	-0.18324108
24	0x3e51da3b	0.20493405
25	0x3c8e292b	0.017353615
26	0x3c917e16	0.017760318
27	0x3e135dac	0.14391202
28	0x3bc5ba69	0.0060341847
29	0xbe49e879	-0.19717588
30	0xbd1d43e7	-0.038394835
31	0xbe556b50	-0.20841718
32	0xbda49838	-0.08036846
33	0x3c499560	0.01230368
34	0xbda007a6	-0.07813959
35	0x3d0f56f7	0.034995046
36	0x3e052906	0.1300393
37	0x3d77487c	0.06037186
38	0xbd630151	-0.055421177
39	0xbe596f05	-0.21233757
40	0xbd2646b0	-0.040594757
41	0xbdc35284	-0.09537223
42	0x3cd34690	0.025790483
43	0x3e2959c0	0.16538143
44	0xbd3fb82a	-0.046806492
45	0xbced341f	-0.028955517
46	0xbe0f9b1e	-0.14024016
47	0x3d937383	0.071997665
48	0xbd6f9f56	-0.058501564
49	0x3db07f82	0.0861807
50	0xbcf1ac22	-0.029501025
51	0xbbd865f1	-0.0066039492
52	0x3c5cc029	0.013473549
53	0xbe75fa7d	-0.24021335
54	0x3d0efcb3	0.03490896
55	0xbd3bcee1	-0.045851592
56	0xbdcf37c1	-0.10118056
57	0x3e37e306	0.17957696
58	0xbe182661	-0.1485839
59	0xbe0380bc	-0.12842077
60	0xbde82e09	-0.113369055
61	0xbe58918a	-0.21149269
62	0x3e1996c0	0.14998913
63	0xbc23ba09	-0.009993085
64	0xbcf0a350	-0.029374748
65	0x3b9c4cbc	0.0047698896
66	0x3cf623db	0.030046394
67	0x3ddb1526	0.10697393
68	0x3cb6f250	0.02233234
69	0x3d881a51	0.066456445
70	0xbe801ed2	-0.25023514
71	0xbe00d632	-0.12581709
72	0x3c4cdb27	0.012503422
73	0xbc96e23b	-0.018418422
74	0xbdc1ece1	-0.09469009
75	0xbd29efdb	-0.04148851
76	0xbe376f23	-0.17913489
77	0xbcba6698	-0.022753999
78	0xbe321c7c	-0.17393678
79	0x3c2bba2a	0.010481397
80	0xbc336202	-0.01094866
81	0x3e3c9759	0.1841711
82	0x3da3af08	0.07992369
83	0xbe671e68	-0.22570193
84	0x3e543f0b	0.20727174
85	0x3cf69af9	0.030103194
86	0x3dc45393	0.09586253
87	0x3d9b0a1b	0.07570287
88	0xbe739afc	-0.2378959
89	0xbd927405	-0.07151035
90	0xbe93921e	-0.28822416
91	0xbdd23ceb	-0.102655254
92	0x3d9891d6	0.07449691
93	0xbe5ad5e8	-0.21370661
94	0x3e0a9989	0.13535132
95	0x3cca50aa	0.024696667
96	0xbea35d0f	-0.31906936
97	0xbd026177	-0.03183123
98	0x3dd56063	0.10418775
99	0x3e123ac8	0.14280236
100	0x3e3eaddb	0.18621008
101	0x3e0e9d3b	0.13927166
102	0xbd2cf1a9	-0.042222653
103	0x3e804ee2	0.25060183
104	0x3cd8e59f	0.02647668
105	0x3dff1ef2	0.12457074
106	0xbd2fb96b	-0.042901438
107	0x3e04d48c	0.12971705
108	0x3cf28b18	0.02960734
109	0xbe82144b	-0.25406107
110	0xbd28fd2b	-0.041257065
111	0xbe2dd3c9	-0.16975321
112	0x3dae5667	0.08512574
113	0x3d0d241d	0.03445827
114	0x3e37b1b3	0.1793888
115	0x3c9285cd	0.017886067
116	0xbe21bacd	-0.15793915
117	0x3da267ee	0.07929979
118	0x3d7a6ce9	0.06113902
119	0xbe06d308	-0.1316644
120	0x3d6e705a	0.058212616
121	0xbdae68d9	-0.08516092
122	0x3e2479db	0.16062109
123	0xbdb5416a	-0.08850367
124	0x3c623a45	0.013807838
125	0xbdb3b46e	-0.087746486
126	0xbdd78a51	-0.10524429
127	0xbe4e03ce	-0.20118639

policy_network.1.running_mean f4 [128]
0	0xc146311f	-12.386992
1	0xc0a4c6a1	-5.1492467
2	0x3f9ddc6d	1.2332894
3	0xbf694868	-0.9112611
4	0xbff5a809	-1.9191905
5	0x40be281a	5.942395
6	0x4128cf0d	10.5505495
7	0xc0ba24c3	-5.8169875
8	0xc0efb26d	-7.4905305
9	0x4127a329	10.477334
10	0x4139f897	11.623191
11	0xc1224c62	-10.143648
12	0xc0daaa08	-6.833256
13	0xc0d90543	-6.7818923
14	0xc0353932	-2.831616
15	0x407a0d4d	3.9070618
16	0xbfb193f1	-1.3873273
17	0xc12ed913	-10.927997
18	0xc0daa8bb	-6.833097
19	0x411f7bc0	9.967712
20	0xbe134d29	-0.14384903
21	0xc082d41b	-4.088392
22	0xc099c803	-4.8056655
23	0x4149a67c	12.603146
24	0x40b96d5c	5.7945995
25	0x40ec553a	7.3854036
26	0xc0c0d582	-6.026063
27	0xc00ac90a	-2.1685205
28	0xbe5d9d27	-0.2164198
29	0x4094a6b2	4.6453485
30	0x409807e1	4.750962
31	0x40f37873	7.6084533
32	0x40d646e5	6.696154
33	0x41004a6d	8.01817
34	0xc12d8421	-10.844758
35	0xc002c471	-2.0432398
36	0xc07afc9e	-3.9216685
37	0xc0129183	-2.2901313
38	0xc020c8a1	-2.5122454
39	0x407f4c6e	3.98904
40	0x411a0427	9.626014
41	0x40e78a49	7.2356305
42	0x40824032	4.0703363
43	0x40ab64a0	5.3560333
44	0xc0250a20	-2.578743
45	0xc08aaf76	-4.3339186
46	0x40180d19	2.3757994
47	0xc0f1414e	-7.539222
48	0x407c6515	3.9436696
49	0xc10b80c7	-8.71894
50	0x3f9a326b	1.2046636
51	0x40ecfb04	7.4056416
52	0xc1548cdd	-13.28439
53	0x40c60260	6.18779
54	0xc12159bc	-10.084408
55	0xc0e51328	-7.1585884
56	0xbf91b96e	-1.1384714
57	0xc1230c01	-10.190431
58	0x41080361	8.500825
59	0x4115be3f	9.358947
60	0x414ab24e	12.668531
61	0x4148022e	12.500532
62	0x4082860e	4.078864
63	0x3e996d75	0.29966322
64	0x40c38d2c	6.110983
65	0x40ed9ee1	7.4256444
66	0xc03b78cf	-2.9292486
67	0xc1065d34	-8.397755
68	0x4096062a	4.6882524
69	0xc14538e7	-12.326392
70	0xbf7359a4	-0.95058656
71	0xbf98b1ea	-1.1929295
72	0x4082365d	4.069136
73	0x411270f7	9.152579
74	0xc00229b0	-2.0337944
75	0xc0cba635	-6.364039
76	0x40d9e545	6.809237
77	0x3f23f8a9	0.640513
78	0x40a2508e	5.0723333
79	0xc0e0a978	-7.020687
80	0xc0d7ddde	-6.7458334
81	0xc12524dc	-10.321499
82	0xc112f9a7	-9.18595
83	0x40592cec	3.3933668
84	0xc0914843	-4.540071
85	0xc007e29c	-2.1232061
86	0x3e338c6e	0.17534038
87	0x40a3d872	5.1201715
88	0xbf83ea82	-1.0305941
89	0xc0ba8bc2	-5.8295603
90	0x40c520e6	6.160266
91	0x4096d60b	4.7136283
92	0xc07e74f1	-3.9758875
93	0xc0a6adaa	-5.208699
94	0xc0dc2f33	-6.8807616
95	0xc0ef7472	-7.4829645
96	0x4023a354	2.5568438
97	0xc10015c6	-8.005316
98	0xc0260cb7	-2.594526
99	0x4120e12b	10.054973
100	0x40d74dd0	6.7282486
101	0x40fbdb37	7.8705096
102	0x40f232c6	7.568698
103	0x3ff41ccc	1.9071288
104	0x4114ade5	9.292455
105	0xc07f35dd	-3.9876626
106	0x40be0480	5.9380493
107	0xc06049e7	-3.5045106
108	0xc0f1c544	-7.5553303
109	0xbd92be1a	-0.07165165
110	0x405287bc	3.2895346
111	0x41525ff8	13.14843
112	0x40d562c0	6.6683044
113	0x405de405	3.4670422
114	0xbee2a2a2	-0.44264704
115	0xc0f4dd83	-7.65204
116	0x40f3eddb	7.622785
117	0xc06109d0	-3.516224
118	0xc0ec5284	-7.3850727
119	0x408c9dbc	4.3942547
120	0x408cb1aa	4.3966875
121	0x4045ee4f	3.0926702
122	0xc112568f	-9.146132
123	0xc0af3b1a	-5.4759645
124	0xc11f533f	-9.957824
125	0xc08d68f1	-4.41906
126	0x410c6eff	8.777099
127	0x40ba243a	5.816922

policy_network.1.running_var f4 [128]
0	0x3f6f295e	0.93422496
1	0x3f2a1ad9	0.66447216
2	0x3fee795f	1.863079
3	0x3f1be174	0.6089089
4	0x3e24ee09	0.16106428
5	0x3e996a77	0.2996404
6	0x3e7b4465	0.24537809
7	0x3f07ff18	0.5312362
8	0x3e92b5e3	0.28654394
9	0x3ee4a78e	0.44659084
10	0x3ede9f97	0.43481132
11	0x3e81dd87	0.25364324
12	0x3e58fa87	0.21189319
13	0x3eb7ae1c	0.35875022
14	0x3ec8e1ab	0.3923467
15	0x3f196ffe	0.5993651
16	0x402f9c2f	2.7439077
17	0x3e9409ff	0.28913876
18	0x3eec33ba	0.46133214
19	0x3f817e82	1.0116732
20	0x3e44a45b	0.19203322
21	0x3eeb1a20	0.4591837
22	0x3f76c668	0.96396494
23	0x3eb12c72	0.34604222
24	0x3ff44c66	1.9085815
25	0x3e632f4e	0.22186014
26	0x3f2df705	0.67955047
27	0x3eb4f492	0.35342842
28	0x4011f45b	2.2805393
29	0x3f558fae	0.8342236
30	0x3e62d141	0.22150137
31	0x3ec27b91	0.379849
32	0x3f497a15	0.7870191
33	0x3f3f0a28	0.7462487
34	0x3ed55c40	0.41671944
35	0x3f1dca50	0.6163683
36	0x401896a9	2.3841956
37	0x3ecff2c0	0.4061489
38	0x3eab6bb7	0.33480617
39	0x3f08832d	0.5332516
40	0x3f15c9b9	0.5851093
41	0x3f37accc	0.7174804
42	0x3e179de3	0.14806323
43	0x3eba1a6a	0.36348277
44	0x3e49ea8a	0.19718376
45	0x3efbc8e0	0.49176693
46	0x3ed2e24b	0.41188273
47	0x3f8a4f7f	1.080551
48	0x3ef6b293	0.48183116
49	0x3f8c5ef8	1.0966482
50	0x3fe1b9aa	1.7634785
51	0x3ef013e2	0.4689017
52	0x3ec8df82	0.39233023
53	0x3ebacd13	0.36484584
54	0x3e97c512	0.2964254
55	0x3ec6bc5f	0.3881559
56	0x3f9a7913	1.2068199
57	0x401cdc8e	2.4509616
58	0x3f0ca69c	0.54941726
59	0x3dba7f77	0.09106343
60	0x3e9c0ed3	0.3048006
61	0x3ea39eb9	0.31957033
62	0x3e5c7ea8	0.2153269
63	0x3e4f0ee9	0.20220532
64	0x3e4a630d	0.19764347
65	0x3f450f3a	0.7697636
66	0x3f3ad188	0.7297597
67	0x3f048ebc	0.51780295
68	0x3f93ae7a	1.1537621
69	0x3eef4b62	0.467372
70	0x3fa6d822	1.3034708
71	0x3ef5a9ad	0.47981015
72	0x3f484971	0.7823706
73	0x3faec608	1.3654184
74	0x3eb603ec	0.35549867
75	0x3e255474	0.16145498
76	0x40240e0e	2.5633578
77	0x3f2a6fe9	0.6657701
78	0x3e88f550	0.2674966
79	0x3e84f76b	0.25970015
80	0x3eb84a63	0.35994253
81	0x3eb80f86	0.35949343
82	0x3f87a191	1.0596181
83	0x3ee59694	0.44841444
84	0x3ef46a21	0.4773722
85	0x3e5357e5	0.20638998
86	0x3eb20daa	0.3477605
87	0x3ef83477	0.48477527
88	0x3ed23fb4	0.41064227
89	0x3ea993e9	0.3312066
90	0x3df67dfc	0.12035748
91	0x3f4cb047	0.7995648
92	0x3ee5c66d	0.4487795
93	0x3e9ad9f0	0.30244398
94	0x3f5fdbc3	0.87444705
95	0x3ea45392	0.3209501
96	0x3f27df47	0.6557507
97	0x3e811f0e	0.25219005
98	0x3f014db8	0.50509214
99	0x3e2f52cb	0.17121427
100	0x3eea8426	0.45803946
101	0x3e7b9e3f	0.24572085
102	0x3f09f556	0.5388998
103	0x3e96e108	0.2946856
104	0x3e195e27	0.14977323
105	0x3e78f1e0	0.24311018
106	0x3fa03b77	1.2518147
107	0x3e757123	0.2396894
108	0x3f374372	0.7158729
109	0x3eeb6102	0.4597245
110	0x3f42c8ab	0.76087445
111	0x3e2cfe3f	0.16893862
112	0x3f4bc2b3	0.7959396
113	0x3f27be98	0.655252
114	0x3fa30db4	1.2738557
115	0x3eaafa5b	0.3339413
116	0x3d945172	0.07242097
117	0x3e9a1dd6	0.30100888
118	0x3fa09c62	1.2547724
119	0x3f054b03	0.52067584
120	0x3f4a8613	0.7911083
121	0x3e610338	0.21973884
122	0x3e605a26	0.21909389
123	0x3fbde57d	1.4835659
124	0x3f207f0f	0.62693876
125	0x3f86be4a	1.0526822
126	0x3fbb3068	1.4624147
127	0x3fb79416	1.4342067

policy_network.2.weight f4 [256, 128]
0	0xbe875db3	-0.26438674
1	0x3e7a7a96	0.24460825
2	0x3e18d4b6	0.14924893
3	0xbdb7bdbf	-0.08971738
4	0xbe58df58	-0.21178949
5	0x3df46730	0.11933744
6	0xbdd2d78e	-0.1029502
7	0x3f126942	0.5719186
8	0x3e5e42fd	0.21705242
9	0xbee421ac	-0.4455694
10	0xbe7d9937	-0.24765478
11	0x3bc7cffd	0.006097792
12	0x3cb7f60f	0.022456197
13	0xbeb79fd3	-0.35864124
14	0xbd5da30b	-0.054110568
15	0x3dde42cc	0.10852584
16	0x3ee0322d	0.4378828
17	0x3e46dd39	0.19420327
18	0x3ea146a8	0.3149922
19	0x3e6432ea	0.22285047
20	0xbdfc0cf6	-0.123071596
21	0x3e9c32a5	0.3050739
22	0xbd1e9e79	-0.03872535
23	0x3d5c922f	0.05385035
24	0x3e817836	0.25287026
25	0xbca98aff	-0.020696161
26	0xbc5a62e3	-0.0133292405
27	0xbe228168	-0.15869677
28	0xbe69b83c	-0.22824186
29	0xbe1831be	-0.14862725
30	0x3e2a9023	0.16656546
31	0x3e59e242	0.21277717
32	0x3e87c7d1	0.26519635
33	0xbe0ea3e1	-0.13929702
34	0x3e92dbcc	0.28683317
35	0x3cdbc2cf	0.02682629
36	0xbec2259a	-0.37919313
37	0xbe0f6d97	-0.14006649
38	0xbdc4ee3d	-0.09615753
39	0x3e42b55a	0.19014493
40	0x3cd7d362	0.026345912
41	0x3f0db69c	0.55356765
42	0x3e0a8b9e	0.13529822
43	0xbda62cac	-0.08113989
44	0x3da37c7a	0.079827264
45	0x3e8d1c64	0.27560723
46	0xbe93a610	-0.28837633
47	0x3e78a35a	0.24281064
48	0xbe76fc0a	-0.24119583
49	0xbe8ad0bf	-0.27112386
50	0xbef0f3c3	-0.47060975
51	0x3d74ccfe	0.05976581
52	0x3e2e4977	0.17020212
53	0xbe8ab0c9	-0.27088
54	0x3e47ea9d	0.19523092
55	0x3e9c107d	0.3048133
56	0xbe52cc2d	-0.205857
57	0x3ee60c5d	0.44931307
58	0xbd0337b6	-0.032035552
59	0xbe3c5dd0	-0.18395162
60	0xbe8dda66	-0.27705687
61	0xbdfe617b	-0.12420937
62	0xbed8dcaa	-0.42355853
63	0xbcd77b8a	-0.026304025
64	0xbe52d938	-0.20590675
65	0x3e84f39c	0.2596711
66	0x3c25f9f0	0.0101303905
67	0x3e13c284	0.1442967
68	0x3e0944c7	0.13405143
69	0x3e7450eb	0.23858993
70	0x3e2e1776	0.17001137
71	0x3d70706e	0.05870097
72	0xbe730da8	-0.23735678
73	0x3e2b6c07	0.16740428
74	0x3cb03b22	0.021512572
75	0x3eca92c5	0.395651
76	0x3e7b7521	0.245564
77	0x3d582148	0.052766114
78	0x3e58ee11	0.21184565
79	0x3e005bb7	0.12534986
80	0x3dc78ab2	0.09743251
81	0xbcd9bf06	-0.026580345
82	0x3bbd98cd	0.0057860375
83	0x3e0c5d2b	0.13707416
84	0x3eae7624	0.3407451
85	0x3cf2ae9d	0.029624278
86	0xbe2182d8	-0.15772569
87	0xbe997c20	-0.29977512
88	0x3debd4e7	0.11515217
89	0x3d2a1db3	0.04153223
90	0x3e2ba94e	0.16763803
91	0x3e58431b	0.21119349
92	0x3e4b72c8	0.19868004
93	0x3e8a3779	0.26995447
94	0x3d91048b	0.07080945
95	0x3e77a3f6	0.2418364
96	0xbdf36742	-0.11884929
97	0x3e52c4c2	0.2058287
98	0x3d75cf03	0.060011875
99	0xbdae9e11	-0.085262425
100	0xbddc5fb0	-0.107604384
101	0xbe351570	-0.17683959
102	0xbe2b962b	-0.16756503
103	0xbd0234f5	-0.031788785
104	0x3e8f0d92	0.2794004
105	0x3e46ef72	0.19427279
106	0xbe863192	-0.26209694
107	0xbd9da879	-0.07698149
108	0x3e9657d7	0.2936389
109	0xbdd15618	-0.10221499
110	0xbe7e5a97	-0.24839245
111	0xbcd19028	-0.025581434
112	0xbeb1a4bd	-0.34695998
113	0xbea6dec7	-0.3259184
114	0xbe260933	-0.16214447
115	0xbcc5fc4b	-0.024168154
116	0xbe0ecfe1	-0.13946487
117	0xbd672f95	-0.056441862
118	0xbd9482e2	-0.072515264
119	0xbe65aec6	-0.22429952
120	0xbdabe1f8	-0.083927095
121	0x3bb32abb	0.0054677404
122	0x3c6f087a	0.014589423
123	0xbd717e38	-0.058958262
124	0x3e52df8e	0.20593092
125	0x3e631b53	0.22178392
126	0x3e9d9cf8	0.3078382
127	0x3dcc0eb5	0.09963743
128	0x3e46bdff	0.19408415
129	0xbc0754bb	-0.008259947
130	0xbdc9c89b	-0.098527156
131	0x3e6af4b6	0.22944912
132	0x3d04215e	0.032258384
133	0xbe01b9d9	-0.12668552
134	0x3e3eedd7	0.18645416
135	0xbc51ce57	-0.012805543
136	0x3da5205e	0.08062814
137	0x3dc6c3c8	0.09705311
138	0x3dfb26ab	0.12263235
139	0x3c06135d	0.0081833275
140	0x3c04c8ac	0.0081044845
141	0xbf2c2971	-0.67250735
142	0x3cd3c2c6	0.025849711
143	0x3eccf7b8	0.40032744
144	0x3e94faa8	0.29097486
145	0xbe2fbb1c	-0.1716122
146	0xbda81129	-0.08206398
147	0xbe0206e7	-0.12697946
148	0xbd045c98	-0.032314867
149	0xbd4607a7	-0.04834714
150	0x3e7ded49	0.24797548
151	0xbdc4d915	-0.096117176
152	0xbdeaa04e	-0.11456357
153	0xbea62a6d	-0.32454243
154	0xbeb19af6	-0.34688538
155	0x3e1f65d0	0.15566182
156	0xbd650a4a	-0.055918016
157	0xbe275fe3	-0.16345172
158	0xbc4f1116	-0.012638351
159	0xbe30b9a0	-0.1725831
160	0xbef02ddd	-0.4690999
161	0x3e2bdc56	0.1678327
162	0xbf200a07	-0.625153
163	0x3e4ab07e	0.19793889
164	0xbb7a17ef	-0.0038161238
165	0x3e80c92f	0.2515349
166	0xbeb0c5f6	-0.34526032
167	0xbe8b1882	-0.27167135
168	0xbe92afe8	-0.2864983
169	0xbe119f7c	-0.14220995
170	0xbe32cac1	-0.17460157
171	0xbccb5a3b	-0.024823299
172	0x3efe102f	0.49621722
173	0xbbb530cf	-0.0055295
174	0xbdc1db3e	-0.09465645
175	0x3e5b0406	0.21388254
176	0x3dd86379	0.10565848
177	0xbddd4f18	-0.108061016
178	0xbed900b2	-0.42383343
179	0x3c882454	0.016618885
180	0x3e3b149c	0.1826958
181	0xbe888c22	-0.26669413
182	0x3c96a3ce	0.018388655
183	0x3e1a1cef	0.150501
184	0xbe8f007f	-0.27930066
185	0x3ed13781	0.4086266
186	0x3db76fe7	0.089568906
187	0xbde804d3	-0.11329045
188	0x3e0c668e	0.13710997
189	0xbe038466	-0.12843475
190	0x3d22765f	0.03966367
191	0xbb41a93f	-0.0029550341
192	0xbe2cf5f7	-0.16890703
193	0xbc8ecc01	-0.017431261
194	0x3e8937cf	0.2680039
195	0xbe9fb2c3	-0.31191072
196	0xbd096b7e	-0.03354978
197	0x3ec951da	0.3932026
198	0xbf03e6c6	-0.5152401
199	0xbdd8f93d	-0.105944134
200	0x3db49400	0.08817291
201	0x3ddc1a5d	0.10747216
202	0x3d928ee1	0.07156158
203	0x3e187aa3	0.14890532
204	0x3d874d7f	0.06606578
205	0x3e8c4373	0.2739521
206	0xbe470d16	-0.19438586
207	0xbec3bd53	-0.3823038
208	0x3c8eb7d7	0.017421646
209	0xbeaf0626	-0.34184378
210	0xbe8f6c10	-0.28012133
211	0xbe8ee068	-0.27905583
212	0xbe256fdc	-0.16155952
213	0x3e36380e	0.1779482
214	0x3d718256	0.05896219
215	0xbe0539fd	-0.13010402
216	0xbe1572ec	-0.1459462
217	0x3da01512	0.07816519
218	0xbeb8f35b	-0.36123165
219	0x3ec1cd32	0.37851864
220	0x3e97c209	0.29640225
221	0xbd0f04f7	-0.034916844
222	0xbca8e726	-0.020618033
223	0xbcbc8ad3	-0.023015415
224	0xbecd003b	-0.40039238
225	0x3e53f0d3	0.20697336
226	0xbecb1a7a	-0.39668638
227	0x3e3a6a96	0.18204722
228	0x3e9a9c6e	0.3019747
229	0xbd6f9ac0	-0.05849719
230	0xbe418550	-0.18898511
231	0x3df56b01	0.119833
232	0x3e8db295	0.2767531
233	0x3ce5f493	0.028070724
234	0xbd8cb3a2	-0.068702
235	0x3e57e62b	0.21083896
236	0x3e3d579f	0.18490456
237	0xbe691bbf	-0.2276449
238	0xbeaad256	-0.333636
239	0x3eb59ceb	0.3547128
240	0x3c8b97a2	0.017040078
241	0xbee27139	-0.44227007
242	0x3e30409d	0.17212148
243	0x3ec2e1ec	0.3806299
244	0xbeb81adc	-0.35957992
245	0xbf06d8fd	-0.5267485
246	0x3e8d5ff5	0.27612272
247	0xbed44412	-0.41458184
248	0xbea9ca91	-0.33162358
249	0xbe4da7b5	-0.20083506
250	0x3e6eb57e	0.23311421
251	0x3e51106b	0.20416419
252	0xbdd05ee2	-0.101743475
253	0x3e8ee35d	0.2790784
254	0x3e2d63c3	0.16932587
255	0xbe6b1711	-0.22958018

policy_network.2.bias f4 [256]
0	0x3bedcf63	0.0072573884
1	0xbdc6505f	-0.09683298
2	0xbd81cc4a	-0.06337793
3	0x3c17fdf8	0.009276859
4	0x3b3421ca	0.002748596
5	0x3d08777e	0.03331708
6	0x3adbc0d5	0.0016765842
7	0x3d03d32d	0.032183815
8	0xbc8669d5	-0.016407887
9	0xbd05d76c	-0.032676145
10	0xbce200a0	-0.027588189
11	0x3da01e33	0.0781826
12	0xbdc9ed5a	-0.09859724
13	0x3d44fd2b	0.048093002
14	0xbd53ce31	-0.05171031
15	0x3d46ad06	0.04850485
16	0xbdc15e6a	-0.09441836
17	0x3dad0352	0.08447899
18	0xbd5c4c93	-0.053783964
19	0x3d42ff36	0.04760667
20	0xbdde6891	-0.10859788
21	0xbd1cdb6e	-0.038295202
22	0x3d6b4740	0.057440996
23	0xbca6b442	-0.020349625
24	0xbd943e75	-0.07238475
25	0xbc0e90d5	-0.008701523
26	0x3db67cb0	0.08910501
27	0x3d90283f	0.07038926
28	0xbd33e825	-0.043922562
29	0x3d947557	0.07248943
30	0x3bfee133	0.0077783107
31	0x3dae1393	0.08499827
32	0x3d722dab	0.059125584
33	0xbcf67485	-0.030084858
34	0xbd8acb5a	-0.067770675
35	0xbd20617f	-0.03915548
36	0x3cdbbe61	0.026824178
37	0xbd95359f	-0.07285618
38	0x3d71805b	0.0589603
39	0xbd26d499	-0.040730093
40	0xbd471e46	-0.048612855
41	0xbd02dbde	-0.031947963
42	0xbd42ceee	-0.047560625
43	0x3d838bdc	0.064231604
44	0xbdb8f341	-0.09030772
45	0x3c875c00	0.016523361
46	0x3ce3e474	0.027818896
47	0xbc4ae58d	-0.012383831
48	0xbd43ddff	-0.047819134
49	0x3d865791	0.06559671
50	0x3d36248d	0.04446845
51	0x3d38ee44	0.045149103
52	0xbc933f8e	-0.017974641
53	0xbd711721	-0.058859948
54	0xbd3192b2	-0.04335279
55	0x3c877d11	0.016539128
56	0x3debde25	0.1151698
57	0xbca60875	-0.020267705
58	0x3b4d707b	0.003134756
59	0xbb9b9f6a	-0.0047492282
60	0xbd9cbb3b	-0.07652899
61	0xbcbe3f1c	-0.023223452
62	0x3d48fffe	0.04907226
63	0x3c8fdfe0	0.017562807
64	0xbcd80480	-0.026369333
65	0xbd90a2c4	-0.07062295
66	0x3bf9d0a8	0.0076237507
67	0xbb740781	-0.0037235918
68	0x3c60445b	0.013688172
69	0xbd6da7f1	-0.05802149
70	0x3c230448	0.009949751
71	0x3c30f6d5	0.010801037
72	0xbd383d68	-0.044980437
73	0x3d03b97a	0.032159306
74	0xbd3a76e7	-0.04552355
75	0xbd2ca551	-0.042149846
76	0xbd8c9a6a	-0.0686539
77	0xbdcd760d	-0.10032282
78	0x3b4f92e9	0.0031673259
79	0xbd9e0fa2	-0.077178255
80	0xbdb7856b	-0.08960994
81	0xbc765074	-0.01503383
82	0xbd4773bd	-0.04869436
83	0x3d9afc51	0.07567657
84	0x3db8df51	0.09026969
85	0x3d4a615d	0.04940926
86	0x3da04148	0.078249514
87	0xbda8761b	-0.08225652
88	0xbd9330e0	-0.071870565
89	0xbd3c28c0	-0.0459373
90	0xbd10e182	-0.03537131
91	0xbd7df083	-0.061996948
92	0xbd0554bd	-0.032551516
93	0x3ce0d086	0.027443182
94	0x3cfb7ce2	0.030699197
95	0xbcbad6e0	-0.022807539
96	0x3d60c232	0.0548727
97	0xbd931625	-0.07181958
98	0xbdb6ac27	-0.08919554
99	0x3dc17060	0.09445262
100	0x3d96e387	0.07367616
101	0x3cc953c7	0.024576081
102	0xbe18fbfe	-0.14939877
103	0x3d9ada3b	0.075611554
104	0x3d63a559	0.05557761
105	0xbde2789f	-0.11058163
106	0x3cc39d3c	0.023878686
107	0x3d094045	0.033508558
108	0xbda9e1a6	-0.08294992
109	0x3dd45dc7	0.10369449
110	0xbd2821bf	-0.041047808
111	0x3cc31124	0.023811884
112	0x3dcd71b0	0.1003145
113	0xbd7e2822	-0.062049992
114	0xbdb75966	-0.08952598
115	0x3d9da276	0.076970026
116	0x3da02e30	0.078213096
117	0xbd913d01	-0.07091714
118	0xbda25652	-0.079266205
119	0x3d031f6d	0.03201239
120	0x3b59e20a	0.0033246302
121	0xbd4b5010	-0.0496369
122	0xbcb5c646	-0.02218927
123	0x3cd1c6a5	0.025607416
124	0xbdb02a2d	-0.086017944
125	0x3d3c37f3	0.045951795
126	0xbaabae4e	-0.0013098211
127	0xbd400406	-0.046878837
128	0x3d18683e	0.037208788
129	0xbdc547e1	-0.096328504
130	0x3c4dde6d	0.0125652375
131	0xbd4ca88d	-0.04996543
132	0xbca4b008	-0.02010347
133	0x3cb76aca	0.022389788
134	0xbd49fbd4	-0.049312428
135	0x3c4cad57	0.012492499
136	0xbc80358a	-0.01565053
137	0x3d0b4b6b	0.03400747
138	0xbd55ef1c	-0.052229986
139	0xbd3d7eb0	-0.046263397
140	0x3d6a21a1	0.057160977
141	0xbdcde3d4	-0.100532204
142	0x3d2cac79	0.04215667
143	0xbd3b154c	-0.045674607
144	0xbd8a7c74	-0.06762019
145	0xbd6627ce	-0.056190304
146	0x3d41fb32	0.0473587
147	0x3d986ec2	0.074430004
148	0xbd4e3945	-0.050347585
149	0x3d679809	0.056541476
150	0xbc2cfffa	-0.010559076
151	0x3d3f43d5	0.04669555
152	0xbdda96c1	-0.10673285
153	0xbd2179da	-0.039422847
154	0x3d2650a6	0.040604256
155	0xbd53870d	-0.051642466
156	0x3dc10007	0.09423833
157	0xbd84b4fa	-0.06479831
158	0x3cd4c6f5	0.025973776
159	0x3cdf4114	0.027252711
160	0xbd5af4af	-0.053456005
161	0x3d17eb78	0.037089795
162	0xbc834df6	-0.016028386
163	0x3c807eff	0.015685556
164	0xbdaa5ffc	-0.08319089
165	0xbd89f9fc	-0.06737134
166	0xbcbc8a12	-0.023015056
167	0x3b668542	0.0035174643
168	0x3d90542a	0.07047303
169	0x3c4e4cf6	0.012591591
170	0xbd271b6c	-0.040797636
171	0xbc9cf958	-0.019161865
172	0xbce5d798	-0.028056905
173	0x3dbf8c85	0.09352974
174	0x3db8c3aa	0.09021695
175	0x3d689271	0.056780282
176	0xbc541789	-0.012945064
177	0x3d27bf43	0.040953886
178	0x3cc1ed4e	0.023672726
179	0x3d48c202	0.049013145
180	0xbca0b193	-0.019615924
181	0xbd7b4a75	-0.061350305
182	0x3d3819b9	0.044946406
183	0xbd2bbe14	-0.04192932
184	0x3d4e3110	0.05033976
185	0x3d8f1071	0.06985558
186	0x3d330e60	0.04371488
187	0x3dd1d218	0.1024515
188	0x3db9145d	0.09037087
189	0x3dd5b1d0	0.10434306
190	0x3d4ce8ec	0.05002682
191	0x3c12b919	0.0089552635
192	0x3dc744fe	0.09729956
193	0xbd0ece36	-0.034864627
194	0xbd3458ac	-0.044029877
195	0x3d3022fb	0.04300211
196	0x3c34263d	0.010995445
197	0x3d851345	0.06497816
198	0x3dd2a5d7	0.10285538
199	0x3d5bec8d	0.05369239
200	0xbadacd3f	-0.0016693248
201	0xbcb47d16	-0.022032302
202	0x3db3bce1	0.0877626
203	0x3c863f10	0.016387492
204	0xbd60cef7	-0.054884877
205	0x3dfe4121	0.12414766
206	0xbc721b1d	-0.014776972
207	0x3d09a619	0.03360567
208	0x3d9f48d6	0.07777564
209	0xbc9fbbd1	-0.019498738
210	0x3cb7d870	0.022442073
211	0x3d0c019f	0.034181233
212	0xbb931fda	-0.004489881
213	0x3c85a2a7	0.01631291
214	0xbd436189	-0.04770044
215	0xbdab0ac1	-0.083516605
216	0xbd13d5fc	-0.036092743
217	0xbcb2c55e	-0.021822628
218	0x3e0313ac	0.12800473
219	0xbb42af58	-0.0029706564
220	0x3d540996	0.051766954
221	0x3d6c07c1	0.057624582
222	0xbe03d11f	-0.12872742
223	0xbc3b9f42	-0.011451544
224	0x3c9fa477	0.019487603
225	0xbcd3e163	-0.025864309
226	0x3ded8653	0.11597886
227	0x3dd283e8	0.10279065
228	0xbdd9bdd3	-0.10631909
229	0x3b1b8b98	0.0023734327
230	0xbc1e9522	-0.009679111
231	0xbc63b500	-0.013898134
232	0x3d6c23ce	0.057651334
233	0xbce5c445	-0.02804769
234	0xbc2a2c80	-0.010386586
235	0xbd620785	-0.055182952
236	0x3cf1c79f	0.029514132
237	0x3d9bab02	0.076009765
238	0x3e2705b5	0.16310771
239	0xbd84753a	-0.06467672
240	0x3da05166	0.078280255
241	0xbd8c705c	-0.06857368
242	0x3db0c991	0.08632196
243	0x3d675707	0.05647948
244	0x3c8d3062	0.017234985
245	0x3d637a0b	0.05553631
246	0x3d66cb80	0.056346416
247	0xbcb0e515	-0.02159361
248	0x3c411d4c	0.01178677
249	0x3b3742da	0.002796343
250	0x3d90d5cf	0.07072031
251	0x3b8e14f4	0.004335994
252	0xbd655bd9	-0.055995796
253	0xbd47f891	-0.048821036
254	0xbc5c153f	-0.0134328
255	0xbc57f6c3	-0.013181391

policy_network.3.weight f4 [256]
0	0x3f81f9b0	1.0154324
1	0x3f912487	1.1339272
2	0x3f6117f7	0.8792719
3	0x3f506b1c	0.81413436
4	0x3f875042	1.0571368
5	0x3f557261	0.83377653
6	0x3f8755a2	1.0573008
7	0x3fb0df5e	1.3818166
8	0x3f9d177f	1.2272795
9	0x3f75b7b6	0.95983446
10	0x3f5e2270	0.867713
11	0x3fa04d58	1.2523603
12	0x3f597f8c	0.84960246
13	0x3f49dfe4	0.78857255
14	0x3f27d9df	0.6556682
15	0x3fa38678	1.2775412
16	0x3f6e6075	0.9311593
17	0x3f44fcae	0.7694806
18	0x3f834525	1.0255476
19	0x3fa15297	1.260333
20	0x3f83bb4e	1.0291536
21	0x3f655f34	0.89598393
22	0x3f960399	1.1719848
23	0x3f36cd32	0.71406853
24	0x3f031cb6	0.51215684
25	0x3fad5785	1.3542334
26	0x3ef72c29	0.4827588
27	0x3f926402	1.143677
28	0x3f3e80ab	0.7441508
29	0x3f9020e0	1.1260033
30	0x3f6bf18d	0.9216545
31	0x3f4c590b	0.7982337
32	0x3f9d6de4	1.2299161
33	0x3fa4bba4	1.2869763
34	0x3f9f761f	1.2457923
35	0x3f789b44	0.97111917
36	0x3f4c1dc1	0.797329
37	0x3f2c8431	0.6738921
38	0x3f87a4fd	1.0597225
39	0x3f529878	0.822639
40	0x3f2d9870	0.67810726
41	0x3f6ed569	0.9329439
42	0x3f797399	0.97442013
43	0x3f4807b8	0.7813678
44	0x3f533ab3	0.8251144
45	0x3f993880	1.1970367
46	0x3f96181f	1.1726111
47	0x3f1adfa7	0.60497516
48	0x3f51e529	0.81990296
49	0x3fa81767	1.3132142
50	0x3f874c56	1.0570171
51	0x3f955f93	1.1669792
52	0x3f3a4560	0.7276211
53	0x3f9f5fc9	1.2451106
54	0x3f870a7b	1.0550073
55	0x3fa86ca6	1.3158157
56	0x3f93cf8f	1.1547717
57	0x3f2a61e4	0.6655562
58	0x3f22b67f	0.63559717
59	0x3fc0be32	1.5058043
60	0x3f8cb4cc	1.0992675
61	0x3f7a822f	0.97854894
62	0x3f8304c5	1.023583
63	0x3f3a6f2b	0.7282588
64	0x3f8ecfb6	1.1157138
65	0x3f9f3384	1.2437596
66	0x3f5b8fa3	0.8576605
67	0x3f16493c	0.58705497
68	0x3f84c91c	1.0373874
69	0x3f826bb9	1.0189124
70	0x3f207ff6	0.6269525
71	0x3f43be18	0.76461935
72	0x3f2990ee	0.6623677
73	0x3f21ebcc	0.6325042
74	0x3f7cb4b0	0.9871321
75	0x3f6af8d4	0.9178593
76	0x3f45e225	0.77298194
77	0x3f90299c	1.1262698
78	0x3f8a795a	1.0818284
79	0x3f838e56	1.0277812
80	0x3f88e34d	1.0694367
81	0x3fb0505a	1.3774521
82	0x3f87d87f	1.0612944
83	0x3f9e1f22	1.2353251
84	0x3fa00e41	1.250435
85	0x3f681474	0.9065621
86	0x3f795f3c	0.9741094
87	0x3f8635d2	1.0485175
88	0x3f9e8c28	1.2386522
89	0x3f6d52ac	0.9270427
90	0x3f616774	0.8804848
91	0x3f760f3a	0.96116984
92	0x3f7e329b	0.9929597
93	0x3f787356	0.9705099
94	0x3f8ce3f1	1.1007062
95	0x3f892f0f	1.0717486
96	0x3f7dbdfe	0.9911803
97	0x3f80bb14	1.0057092
98	0x3f39e165	0.7260955
99	0x3f5c897f	0.861473
100	0x3f8d8743	1.1056904
101	0x3f7d7e0a	0.99020445
102	0x3fada0db	1.3564714
103	0x3f6e5509	0.93098503
104	0x3f900f63	1.1254696
105	0x3fa8df7d	1.3193203
106	0x3f769417	0.9631972
107	0x3f512bd9	0.8170753
108	0x3f5bea8c	0.85904765
109	0x3f91573f	1.135475
110	0x3f4bb73a	0.79576457
111	0x3f9f3cba	1.2440407
112	0x3fa4ac4b	1.286508
113	0x3fa4c31d	1.2872044
114	0x3f865713	1.0495323
115	0x3f38a4a6	0.72126234
116	0x3f998d4d	1.1996247
117	0x3f74307e	0.95386493
118	0x3f777020	0.96655464
119	0x3f3639d3	0.7118198
120	0x3f918dce	1.13714
121	0x3f9b690b	1.2141432
122	0x3fb5b4ba	1.4195778
123	0x3f981026	1.1879928
124	0x3f9ff05d	1.2495228
125	0x3f78748c	0.97052836
126	0x3f9e80fd	1.2383114
127	0x3f7f1eef	0.99656576
128	0x3f5b98dc	0.8578012
129	0x3f855264	1.0415769
130	0x3fbbacb1	1.4662076
131	0x3f70602c	0.93896747
132	0x3fa2a82c	1.2707572
133	0x3f92a256	1.1455791
134	0x3f866777	1.0500325
135	0x3ecc7958	0.39936328
136	0x3f5cbad6	0.8622259
137	0x3f69ac44	0.9127848
138	0x3fb8770a	1.4411328
139	0x3f2c3045	0.67261153
140	0x3f731610	0.9495554
141	0x3fa38131	1.2773801
142	0x3f621129	0.88307434
143	0x3f8d14d6	1.1021984
144	0x3f8485f6	1.0353382
145	0x3f590f27	0.84788746
146	0x3f37db64	0.7181914
147	0x3f6cc6e9	0.9249101
148	0x3f0be876	0.5465158
149	0x3f093839	0.53601414
150	0x3f8804b2	1.0626433
151	0x3f91f1db	1.1401933
152	0x3f96016f	1.1719187
153	0x3fa670f6	1.3003223
154	0x3f75614a	0.95851576
155	0x3f843373	1.0328201
156	0x3fa82d30	1.313879
157	0x3f6d8a6e	0.9278935
158	0x3f44e796	0.7691587
159	0x3f8314d3	1.024073
160	0x3f64a6e8	0.8931718
161	0x3f9d6fb3	1.2299713
162	0x3f882464	1.0636106
163	0x3f918e3b	1.137153
164	0x3f20e028	0.62842035
165	0x3fadab0a	1.3567822
166	0x3f283544	0.65706277
167	0x3f3cbc2b	0.7372462
168	0x3ef93554	0.486735
169	0x3f80c74e	1.0060823
170	0x3f1146b9	0.5674854
171	0x3f9c0cdb	1.2191423
172	0x3e8cfdef	0.27537486
173	0x3f95c9f0	1.1702251
174	0x3f483bd0	0.78216267
175	0x3f7aa891	0.9791346
176	0x3f292f67	0.66087955
177	0x3f6cd84c	0.9251754
178	0x3f2f5427	0.6848778
179	0x3f9737f5	1.1813952
180	0x3f99af2e	1.2006586
181	0x3fa120e1	1.2588159
182	0x3f797c24	0.9745505
183	0x3f8aa0cd	1.0830323
184	0x3fc4f5be	1.5387495
185	0x3f4f316f	0.80934805
186	0x3f857259	1.0425521
187	0x3f788090	0.9707117
188	0x3e1f5206	0.15558633
189	0x3f8fb0ea	1.1225865
190	0x3f559389	0.83428246
191	0x3f584afa	0.84489405
192	0x3f647e67	0.89255375
193	0x3fbed236	1.4907901
194	0x3f83e168	1.0303164
195	0x3f842a3e	1.0325391
196	0x3f9aee28	1.210393
197	0x3f882dcf	1.063898
198	0x3fa89cc9	1.3172847
199	0x3f3cf935	0.7381776
200	0x3f8cd46b	1.1002325
201	0x3f82fa78	1.0232687
202	0x3f614f5a	0.88011706
203	0x3fc2c989	1.5217754
204	0x3f808b8a	1.0042584
205	0x3f9b68fb	1.2141412
206	0x3f58dbf4	0.8471062
207	0x3f8d39aa	1.1033223
208	0x3ebcba74	0.36861002
209	0x3f5074a0	0.81427956
210	0x3f737e62	0.9511472
211	0x3dfb1275	0.1225938
212	0x3f2bc7e4	0.67101884
213	0x3fab3438	1.3375311
214	0x3f85bd9f	1.0448493
215	0x3f3db73f	0.74107736
216	0x3f74ceaa	0.95627844
217	0x3f8bc0a3	1.0918163
218	0x3f9a7b1d	1.2068821
219	0x3f7aacd7	0.9791998
220	0x3f5b45c0	0.85653305
221	0x3f5365a4	0.82576966
222	0x3fa2dee4	1.2724271
223	0x3f77abd0	0.9674654
224	0x3f2d29c1	0.67641836
225	0x3f8edb4f	1.1160678
226	0x3fa32c9e	1.2747991
227	0x3f927560	1.144207
228	0x3f973d82	1.1815646
229	0x3fb58120	1.4180031
230	0x3f85c1c1	1.0449754
231	0x3f2d71b9	0.6775165
232	0x3f84a5d3	1.0363106
233	0x3f262641	0.6490212
234	0x3f84fcb5	1.038962
235	0x3f82b9e0	1.0212975
236	0x3f8c6128	1.096715
237	0x3fa66d51	1.3002111
238	0x3fa7b492	1.3101981
239	0x3f805aad	1.0027672
240	0x3f4ebf17	0.8076033
241	0x3f683be4	0.90716386
242	0x3f6a0d13	0.914262
243	0x3f99a273	1.20027
244	0x3f72af7a	0.94799006
245	0x3f638b17	0.8888411
246	0x3f697008	0.9118657
247	0x3f785eb0	0.9701948
248	0x3f0e512e	0.5559262
249	0x3f91a395	1.1378046
250	0x3f7718ea	0.9652239
251	0x3faeffa7	1.3671769
252	0x3f957785	1.16771
253	0x3fab903c	1.3403392
254	0x3f437514	0.7635052
255	0x3f3f9dde	0.7485026

policy_network.3.bias f4 [256]
0	0xbe8c395b	-0.2738751
1	0xbf0af870	-0.54285336
2	0xbaf7f5c8	-0.0018917853
3	0x3ce46110	0.027878314
4	0x3ed8f55b	0.4237469
5	0xbe028693	-0.12746648
6	0xbbe4a9cf	-0.0069782506
7	0xbeed29e3	-0.4632102
8	0xbcfd78f5	-0.030941466
9	0xbd9b8b8b	-0.07594975
10	0xbd994a5d	-0.07484887
11	0xbcb18aee	-0.021672692
12	0x3e3c2b95	0.18376
13	0xbedb00ba	-0.42773992
14	0xbd65e317	-0.056124773
15	0x3e2ae159	0.16687526
16	0x3e2d3ca0	0.16917658
17	0x3e732346	0.23743924
18	0x3e60b551	0.21944167
19	0x3d84e574	0.06489077
20	0x3ec6d279	0.38832453
21	0xbd6cf317	-0.057849016
22	0xbe615992	-0.22006825
23	0x3d83db2c	0.06438288
24	0x3d8b6d91	0.068080075
25	0x3e421436	0.18953022
26	0xbdcce16e	-0.10003935
27	0xbdcbf878	-0.09959501
28	0xbd277098	-0.040878862
29	0xbe0a7600	-0.13521576
30	0xbe9857af	-0.29754397
31	0xbeb0d46e	-0.3453707
32	0x3ccd7789	0.025081413
33	0x3d490b4d	0.049083043
34	0xbe1c1732	-0.15243223
35	0x3dc11e83	0.09429648
36	0xbce1c856	-0.027561348
37	0x3e88f692	0.26750618
38	0xbdc868c9	-0.09785611
39	0x3dc2f9de	0.09520315
40	0x3d78f4ea	0.060780443
41	0x3dbec2ba	0.09314485
42	0x3e3654cf	0.1780579
43	0xbe17a85e	-0.1481032
44	0x3d24f0c6	0.040268682
45	0xbc8cbf05	-0.017180929
46	0x3e1009b3	0.140662
47	0x3bc4bbe7	0.006003845
48	0x3e531fd2	0.20617607
49	0x3e876d4d	0.26450577
50	0x3ebee080	0.37280655
51	0x3e26e023	0.16296439
52	0xbce64d43	-0.028113013
53	0x3d42f508	0.04759696
54	0x3e8ed589	0.2789729
55	0xbe9c82b8	-0.3056848
56	0xbea116e5	-0.3146278
57	0xbed1ce8d	-0.40977898
58	0x3ba222b6	0.0049479855
59	0x3ec5cded	0.3863367
60	0x3e58845b	0.2114424
61	0x3ddca933	0.1077446
62	0x3e5fe4e0	0.21864653
63	0x3e1cc252	0.15308502
64	0xbda805c9	-0.082042284
65	0x3e9cf40f	0.30654952
66	0xbdb07e73	-0.08617868
67	0x3b41fbd3	0.0029599562
68	0xbb716628	-0.0036834572
69	0x3cbd666c	0.023120128
70	0x3c4bd4c4	0.012440864
71	0xbd9843b4	-0.07434788
72	0xbdd3e497	-0.103463344
73	0x3e392bba	0.18083087
74	0x3d98b20f	0.07455837
75	0x3d455b08	0.048182517
76	0x3d51ea53	0.05124886
77	0x3d01f528	0.03172794
78	0x3e469f83	0.19396786
79	0xbd6fb58d	-0.05852275
80	0xbd9ab6aa	-0.07554372
81	0xbe10a902	-0.14126971
82	0xbe1753d0	-0.14778066
83	0xbdbb1b61	-0.091360815
84	0xbeb7d825	-0.35907093
85	0x3da8f394	0.08249584
86	0x3d67e4cd	0.056614686
87	0xbe0cc580	-0.13747215
88	0x3ec5597f	0.38544843
89	0xbd287555	-0.04112752
90	0xbc5ffe04	-0.013671402
91	0x3dddecdf	0.10836195
92	0x3c74d8a9	0.014944234
93	0xbe1359ce	-0.14389727
94	0x3e46e84a	0.19424549
95	0x3e293f29	0.16528
96	0x3dc4a9df	0.09602713
97	0x3dc18d2d	0.09450755
98	0x3e2d1e09	0.16905989
99	0x3ca41408	0.020029083
100	0xbd0e5ba3	-0.03475536
101	0x3ca2f129	0.019890385
102	0x3ec211b2	0.37904125
103	0x3e5a3aee	0.21311542
104	0xbdedec69	-0.11617357
105	0x3eb799a1	0.35859397
106	0x3e2197a5	0.15780504
107	0xbcdbe01f	-0.026840268
108	0xbd2eda72	-0.042688794
109	0xbe33dcd7	-0.17564712
110	0x3cd09f12	0.025466476
111	0xbede363f	-0.4340076
112	0xbe6966f3	-0.22793178
113	0x3e8896d3	0.2667757
114	0x3b8989c5	0.0041973316
115	0x3e1aebe6	0.1512905
116	0xbe98f42b	-0.29873785
117	0x3dcdaa4e	0.10042249
118	0x3e10cc87	0.14140521
119	0xbdf89b4d	-0.12138996
120	0xbd83d530	-0.06437147
121	0x3da47fe7	0.08032208
122	0x3e43c965	0.19119795
123	0x3e34b43c	0.17646879
124	0x3d2fa443	0.04288126
125	0x3e7dd08f	0.2478659
126	0xbc8d2056	-0.017227333
127	0xbec44c97	-0.38339683
128	0x3dd61cd1	0.10454715
129	0xbe029a27	-0.12754117
130	0xbebb7269	-0.36610726
131	0xbec71631	-0.38884118
132	0xbf0735d6	-0.5281652
133	0x3d57455c	0.05255638
134	0x3e831a18	0.25605845
135	0x3cd89422	0.026437823
136	0xbc3877a1	-0.0112589905
137	0xbea64c95	-0.32480302
138	0xbe86b4b7	-0.2630975
139	0x3e2b82b7	0.16749083
140	0x3e963e05	0.29344192
141	0x3ef8744c	0.48526227
142	0xbc92d9cb	-0.017926117
143	0x3e2fee05	0.17180641
144	0x3e1c4b65	0.15263136
145	0xbc47f229	-0.012203732
146	0x3ea13965	0.314891
147	0xbcac8445	-0.021059165
148	0x3e82d28b	0.25551257
149	0x3d32812f	0.04358023
150	0xbe7096ba	-0.23494998
151	0x3dec2e7b	0.11532303
152	0x3ddc8753	0.107679985
153	0xbdc5e5dc	-0.09662983
154	0x3d256759	0.040381763
155	0x3e1a431c	0.15064663
156	0xbe50f82f	-0.20407175
157	0xbe0f8423	-0.1401525
158	0x3e63800b	0.22216813
159	0xbd22c7ec	-0.03974144
160	0x3d3a72e6	0.045519732
161	0xbe7f9a6e	-0.24961254
162	0x3dcb8a33	0.09938469
163	0x3e91ff79	0.28515223
164	0xbe801db2	-0.25022656
165	0x3edc5c04	0.43038952
166	0xbd3a2f06	-0.045455
167	0xb9493da4	-0.00019191817
168	0xbc0a48ec	-0.0084402375
169	0xbe441f9a	-0.1915268
170	0x3ce78c7d	0.028265232
171	0x3e3d85c6	0.18508062
172	0xbd1978aa	-0.03746859
173	0xbe3bbe4e	-0.18334314
174	0xbda2bb73	-0.07945909
175	0xbdd7c82f	-0.10536229
176	0x3e5ed656	0.2176145
177	0xbe008b6a	-0.12553182
178	0xbd83cf01	-0.06435967
179	0x3e5007ab	0.20315425
180	0x3ebe2ecb	0.37145075
181	0x3e9f4ba5	0.311124
182	0xbee4c3eb	-0.44680724
183	0x3d49fb84	0.04931213
184	0xbeb6fd30	-0.35740042
185	0xbdca8c06	-0.098899886
186	0xbe23ad35	-0.15984042
187	0xbe116a43	-0.14200692
188	0x3cf585df	0.029971061
189	0xbddb938f	-0.10721504
190	0xbe69d627	-0.22835599
191	0x3dd4e9a4	0.10396126
192	0xbcfe09cd	-0.031010533
193	0xbe084f13	-0.13311414
194	0xbe33bc7d	-0.17552371
195	0xbe81686f	-0.2527499
196	0xbe645aa0	-0.22300196
197	0x3d689716	0.05678471
198	0xbd2d2801	-0.04227448
199	0x3d3ed234	0.046587184
200	0xbe29071e	-0.16506621
201	0x3d326437	0.043552604
202	0xbe1251c6	-0.14289007
203	0x3e0fc798	0.14040983
204	0x3d55b727	0.05217662
205	0x3dd2e465	0.10297469
206	0xbe0200ce	-0.1269562
207	0xbeafe402	-0.34353644
208	0xbcdc3c57	-0.026884241
209	0xbe043b8f	-0.12913345
210	0x3d77da62	0.060511
211	0x3d0cce63	0.034376513
212	0x3da1cf87	0.07900911
213	0x3e7c29c5	0.24625309
214	0xbed8726c	-0.42274797
215	0x3cef0b4d	0.029180193
216	0x3c84d60e	0.01621535
217	0xbcd4d284	-0.025979288
218	0x3d206c04	0.03916551
219	0x3ef3adc7	0.4759352
220	0xbf17486f	-0.590949
221	0xbdc75049	-0.0973211
222	0x3eb533f7	0.3539121
223	0x3e6ed89a	0.23324814
224	0xbd092f6a	-0.033492483
225	0x3d86e3d5	0.06586424
226	0xbebe9c21	-0.37228492
227	0xbce8f532	-0.02843723
228	0xbc3a44c2	-0.011368932
229	0x3e2c3de4	0.16820484
230	0xbdaccfd9	-0.08438081
231	0xbd05e44f	-0.032688435
232	0x3d8bb627	0.06821852
233	0xbe444147	-0.19165526
234	0x3d845b83	0.06462767
235	0x3bb8fc21	0.0056452905
236	0xbee58ea2	-0.44835383
237	0xbe0ba424	-0.13636833
238	0xbeab82a6	-0.33498114
239	0x3d837a24	0.06419781
240	0xbe2ac92f	-0.16678308
241	0x3ef92790	0.48662996
242	0xbd865edb	-0.06561061
243	0xbdd7adce	-0.105311975
244	0xbd9f0b2a	-0.07765801
245	0x3ef26e9a	0.47350007
246	0x3d7616d6	0.06008037
247	0x3e2e88f0	0.17044425
248	0xbd32f692	-0.04369218
249	0x3e61ae30	0.22039104
250	0xbd7e405e	-0.062073104
251	0xbe073d30	-0.13206935
252	0x3e902afe	0.281578
253	0xbb950776	-0.0045480086
254	0xbed4351d	-0.41446772
255	0x3c8f5f7c	0.017501585
