Results/ETH-USD/DeepRL; DATA_KIND(AutoPatternExtraction); BEGIN_DATE(None); END_DATE(None); SPLIT_POINT(2021-10-07); StateMode(5); WindowSize(50); BATCH_SIZE10; GAMMA0.7; REPLAY_MEMORY_SIZE20; TARGET_UPDATE5; N_STEP10/model.pkl (torch, 249013 bytes, 14 tensors)

policy_network.0.weight f4 [128, 200]
00000000: bc1b 583d bdc5 97bc cbb8 67bc aa4c 0a3e
00000010: ca8b 2d3d 8784 ffbc b66c 6f3d 163f dd3d
00000020: 9923 ca3c cc81 643d 10b9 533d e2cd 81bd
00000030: d3e1 753c ed15 84bd bf3c efbc 9e2a b5bc
00000040: 0694 de3c 8d68 573c 3094 d43c caa0 07bc
00000050: 0981 a6bc a673 11be 8cbc e2bd d909 7fbd
00000060: d0c1 91bd c3d8 77bd 0dca 79bd 88f5 8abc
00000070: 9698 76bd deec d2bd bbad 8dbd c8fd 59bd
00000080: 2347 20bd b526 3f3d 6614 3f3c 81c6 dc3c
00000090: 36e8 e03c b640 513d 4c6b 8cbb ce89 523d
000000a0: da27 633d 753a 433b 9512 8ebc ed91 a53a
000000b0: 2fb3 d8ba dd99 9c3d 6ca9 903d 41e8 75bd
000000c0: 6340 95bc 1944 abbb bf59 2a3c 0f02 b53d
000000d0: 6134 153c ae73 9c3d a295 6f3d a701 ac3d
000000e0: 3972 de3c ec1d 073d 9452 d63d cf5e 073d
000000f0: 7311 2ebd 766c 3fbc a15c 713c ce0e b63d
00000100: f0e2 ee3c 9941 a2bc 33ae f7bc a418 f43d
00000110: bfae c53d 532d 30bd 70c5 5a3c 1981 a0bc
00000120: bde9 1bbd 7a8f 693d 3f4c e33c 5cdc f73c
00000130: ee9c 493d fa28 eabc 6134 78bd e64f b93c
00000140: 4a77 f9bc 8ab9 37bd 419d d8bd eb98 32bd
00000150: b23e 55bd bd6b 60bd 2bc7 19bc afae a6bd
00000160: a0aa 28bd 4b2e c2bc d7c8 bbbd ec91 6abd
00000170: f98d a0bd 2ebc 7ebd 0101 9fbd ec98 3dbd
00000180: 4a0e a5bd 7e3b 23be 0ca3 c4bd c7d5 59bd
00000190: fa0f fabd 7296 cfbd 9d3f babd b33b 5cbd
000001a0: cc9e b2bc 9940 443c 9da9 cabc 5d75 143d
000001b0: 6e7c 4cbb c7ef fd3c b505 d13d adcf 1e3d
000001c0: 3795 f9bc 1c19 933d 1831 333d 7fff 453c
000001d0: 7299 933c 59b6 8b3c 8774 bbbc 3ca4 16bc
000001e0: ae94 f13c 7b29 b93d 4f61 01bd 1cb2 943d
000001f0: 7bb1 6bbc f15e 4f3d 45b5 9dbd 2e27 113c
00000200: 8ff1 033d b421 983d 3662 f2bb 37a0 3cbd
00000210: 44db ad3d dfc9 503d 12a1 83bd dd41 8d3d
00000220: a453 5ebd bbe2 823d 823e 83bd 7f5b 95bc
00000230: 64f1 913d c30d 9d3d a24b f8bb addf b3bc
00000240: 67a5 f63c 56a5 f03c dbfc 21bd 0f59 85bd
00000250: 2335 fdbd 02c0 0dbe f8b1 673d 60bb 893b
00000260: c276 cbbb 6350 6dbd 65d1 d3bc 3bb0 debd
00000270: 3554 18bd a1fd 70bd 587c 54bc 81e1 9dbd
00000280: 4d9b aabc d152 cd3c 7589 3cbd e0b2 dfbd
00000290: 47b5 da3a f19a a2bd ee5d 9d3d 03ea 883d
000002a0: 2244 313c aefb b93b 4f8d 86bc 3100 52bc
000002b0: bed6 f53c ca2f c23d 9eb7 873d 2513 343d
000002c0: 8a4b 89bd 0c4b 3bbd 67d8 6fbd 08f7 d3bb
000002d0: 2e6c 6cbd af11 a5bd b8c5 babc 14b2 983c
000002e0: d1e9 60bd 8406 873c 3f7c f1ba 6072 07bd
000002f0: dfa5 abbd 553a cebc 4fdc 94bd 50bb 6cbc
00000300: 370d 69bd 9b59 2d3d 316e 993c 6cba 8d3c
00000310: 7b07 84bd 18e2 58bd ea8e 68bd 47a7 c8bd
00000320: 2879 dd3b c8a6 aa3c e400 27ba e9d9 493d
00000330: efeb 3ebd 0bd4 613b f0c8 ce3c 8bb7 f03c
00000340: 56bd a4bd 80dc f1bc 9e2c 773b 87df 08be
00000350: 3915 c13c b4c9 d8bd 7b14 10be 88d0 cdbd
00000360: 7d7e 67bd ba75 96bd 3910 6ebd bd59 5ebd
00000370: 2434 d8bd 33bf b8bc 2a9e 55bd c2b7 92bd
00000380: 9721 f6bc 8a7a 123c 5479 80bd 9be1 803d
00000390: ee5e 44bc dee2 743d 4c6d d73c 5bd6 4dbd
000003a0: f6f5 b23d 1eb3 35bb a44a 243b 5ba4 c33c
000003b0: 7892 193c 7138 8d3d af1e 09bd c79d 61bc
000003c0: a57c 0d3d e3f3 8bbd 821e 883c e22b a4bc
000003d0: b708 953c d5f5 36bd fc42 a83c 478c 133d
000003e0: 6a66 373d acbf 05bd 4c39 acbd 668e 68bd
000003f0: 66f7 2e3c ce21 cf3c bbfe 02bc 2ccc 95bc
0.052760825 -0.018526906 -0.014143179 0.13505808 0.04236964 -0.031191124 0.058453284 0.10803048
0.024675177 0.055787846 0.05169016 -0.06338097 0.015007454 -0.064494945 -0.02920377 -0.022115048
0.027170192 0.013147485 0.025949568 -0.008278081 -0.0203252 -0.14204273 -0.11071119 -0.06226525
-0.07117045 -0.060509454 -0.060983706 -0.016962782 -0.06020411 -0.10299085 -0.06917902 -0.05322054
-0.03913034 0.046667773 0.011662578 0.026950123 0.027454477 0.051087104 -0.0042852517 0.051400952
0.055457927 0.0029789482 -0.017342845 0.001263199 -0.0016532893 0.076465346 0.07063565 -0.060035948
-0.018219179 -0.0052266237 0.010397374 0.08838283 0.009106726 0.07639252 0.05849231 0.08398753
0.027154075 0.03298752 0.10464969 0.0330494 -0.04249711 -0.011683574 0.014731557 0.088895425
0.029160947 -0.01980667 -0.030234432 0.11918762 0.09652471 -0.043011975 0.013352737 -0.019592809
-0.038064707 0.057021596 0.027746318 0.030256443 0.049221925 -0.028583992 -0.060596827 0.022621106
-0.03045239 -0.04485468 -0.10576869 -0.043602865 -0.052061744 -0.054790247 -0.009385864 -0.08138787
-0.041178346 -0.023703715 -0.091691665 -0.05726807 -0.07839579 -0.06219118 -0.07763863 -0.046288416
-0.08059366 -0.15940663 -0.09601411 -0.05318239 -0.122100785 -0.10136117 -0.090941645 -0.05376787
-0.021804236 0.011978292 -0.024739081 0.03624474 -0.0031202096 0.030998124 0.10206167 0.038772274
-0.030466659 0.071825236 0.04374799 0.012084841 0.018017504 0.017054724 -0.022882713 -0.00919443
0.029489841 0.09041115 -0.03158694 0.07260534 -0.014385576 0.050627653 -0.0770059 0.008859439
0.03221279 0.07428303 -0.0073969616 -0.04605123 0.08489087 0.05097377 -0.06427206 0.06897328
-0.054278985 0.06390902 -0.06408407 -0.018232105 0.0712612 0.076686405 -0.0075773755 -0.021957243
0.030108167 0.029375713 -0.039547782 -0.06511127 -0.12363651 -0.13842776 0.05656621 0.004203245
-0.0062092254 -0.05793799 -0.025856683 -0.10873457 -0.03718968 -0.05883563 -0.012969099 -0.07709027
-0.020826006 0.025063904 -0.046029527 -0.109227896 0.0016686105 -0.07939709 0.07683931 0.06685259
0.010819467 0.0056757545 -0.016424803 -0.012817428 0.030009624 0.09481771 0.06626819 0.04396357
-0.06703861 -0.045725867 -0.058555987 -0.0064686574 -0.057720356 -0.080600135 -0.022799358 0.018639602
-0.054910485 0.0164826 -0.0018423869 -0.03306806 -0.08381247 -0.0251743 -0.07268583 -0.014448956
-0.05689737 0.042321783 0.018729301 0.017300807 -0.06446739 -0.052949995 -0.05677692 -0.097975306
0.0067588277 0.02083148 -0.0006370677 0.04928008 -0.046611723 0.0034458663 0.025242299 0.029384395
-0.080439255 -0.029524088 0.0037715803 -0.13366519 0.02356969 -0.10585347 -0.14070313 -0.1004954
-0.056517113 -0.07346673 -0.05812094 -0.0542848 -0.1055682 -0.022552108 -0.05215279 -0.07163955
-0.030045314 0.008940348 -0.062731415 0.06293031 -0.011985524 0.05978667 0.026297234 -0.050253253
0.087383196 -0.002772517 0.0025068903 0.023882082 0.0093733 0.06895531 -0.033476528 -0.013770527
0.0345427 -0.06833627 0.01661611 -0.020040456 0.018192632 -0.044668037 0.020539753 0.03602245
0.044775404 -0.032653496 -0.08409366 -0.056776427 0.010679102 0.025284674 -0.007995303 -0.018285833

policy_network.0.bias f4 [128]
00000000: 3af6 013c 0343 82ba 8baf a5bc 1936 83bd
00000010: 36de 2abd 3e99 b13c c129 c5bc a621 3b3d
00000020: 63c0 01bd 2571 28bd 9976 d93c 4d81 92bb
00000030: d9fd 8fbd c773 b53d fdb0 ecbc 6311 953c
00000040: 3cb1 133d 4d35 73bd a731 70bd 840e acbd
00000050: 3be6 93bd cf01 e63b c9a6 983d 4d99 793d
00000060: ded0 fdbb a47c fcbc 7ae6 2d3d c672 96bb
00000070: 3c1e 59bd 1f37 243c d37b 15bd d981 27bc
00000080: 304c 023d 50bb f23b bc40 9d3d 4085 67bd
00000090: c312 9e3d 6eb5 273d 66bf 423d 88bc d8bc
000000a0: 9dc0 2c3d 5c71 e93c 741a 0bbb 5772 493c
000000b0: 246d 5c3c 1c38 223d 4b37 6ebd 46a4 843c
000000c0: 118e 40bd e18e 3e3d ae11 433c 1788 a1bd
000000d0: 5566 f339 1128 403d 7198 4c3d 9c56 8dbc
000000e0: cf35 0f3d 3850 1a3d cfd6 983d d27e bfbc
000000f0: b0f8 d2bc ebd7 043d c764 5bbd 76b3 8c3c
00000100: a016 b63c 5c8a b9bc 13f1 783d 53e5 423d
00000110: 0094 863d cc84 953d e5be 1cbd 5cb9 8bbd
00000120: 04ad e8bc f10e 85bd 2d5a 4a3d 5006 3e3d
00000130: 8f75 60bd d89a 763c 5f3c 69bc 93a7 3e3d
00000140: fb1c f43c be1b 063c 2d7e 553d e9b3 85bd
00000150: ec8d a43d f84a cf3b 9e3d 82bd 87eb 46bd
00000160: b23f ccbb c509 383c e696 d3bc d2b2 03bd
00000170: bf4c 563d 2f3a 9cbd b97f 22bb 8a71 633c
00000180: 71d1 b73c 58de e7bc 7679 013d 483e a53d
00000190: 3b03 373d 4d82 a83c 11d1 a8bb 7031 4cbd
000001a0: 636b e9bc 2114 663b ac04 b9bc f397 533d
000001b0: 15a7 903d b6ef 243c 675d 8d3d 2eca 4dbd
000001c0: 0b75 16bc 5063 17bd 0fdf 29bb 2569 023c
000001d0: 4f50 6a3c e1ce 11bd 71d4 45bd c5fa 563d
000001e0: 8826 28bc dbb8 2b3c c50e 5436 0951 8abd
000001f0: 3a4e 2c3d e015 183d 1b62 3dba ecfd 273d
0.00793224 -0.0009938184 -0.020225307 -0.06406803 -0.041715823 0.021679517 -0.024067761 0.045686387
-0.031677615 -0.041123528 0.02654581 -0.0044709803 -0.070308395 0.088599734 -0.028892988 0.018196767
0.036057696 -0.059377003 -0.058641102 -0.08401206 -0.07221647 0.0070192586 0.07453687 0.060937215
-0.007745846 -0.030821152 0.042456128 -0.004591319 -0.05300735 0.0100229075 -0.03649504 -0.010223829
0.03181094 0.0074075833 0.07678363 -0.05652356 0.07718422 0.04094451 0.047545813 -0.026457086
0.042175878 0.028496437 -0.0021225484 0.012295327 0.0134537555 0.03960429 -0.0581582 0.016191613
-0.047010485 0.04652298 0.011906071 -0.07887285 0.00046424815 0.04691321 0.049950067 -0.017253213
0.034963425 0.03767416 0.074628465 -0.023375902 -0.025753349 0.032432478 -0.053562906 0.017175417
0.022227585 -0.022648983 0.06077678 0.047581982 0.065711975 0.073007196 -0.03826799 -0.06822464
-0.028402813 -0.064969905 0.049402405 0.04639274 -0.054799613 0.015051566 -0.014235585 0.04654653
0.029798975 0.008185325 0.052122284 -0.06528456 0.08034882 0.0063260756 -0.06359409 -0.04856446
-0.006233179 0.011232798 -0.02582879 -0.03215296 0.052319285 -0.07628285 -0.0024795367 0.01388205
0.022438737 -0.028304264 0.031609975 0.0806852 0.044680815 0.020569945 -0.005151876 -0.049851835
-0.028493589 0.0035107213 -0.022585236 0.051658582 0.07063118 0.010066917 0.06902581 -0.05024164
-0.009183179 -0.036959946 -0.0025920307 0.007959639 0.014301374 -0.035597686 -0.048298303 0.052485246
-0.010263093 0.010481085 3.1599059e-06 -0.067537375 0.04206679 0.037130237 -0.00072243967 0.041013643

policy_network.1.weight f4 [128]
00000000: 2f6c 863f ca8b 843f ba75 853f 3074 7a3f
00000010: 9378 8b3f d1f9 833f d81b 7a3f 2d6b 7e3f
00000020: 28e6 7a3f 29d3 853f 7ef3 743f bdfe 713f
00000030: 5467 7a3f b8e8 743f 1199 813f ddd6 7d3f
00000040: c01d 843f 9b11 853f 90ad 813f c676 793f
00000050: 8ef4 763f 41e2 7e3f f575 813f e615 7e3f
00000060: 7f94 833f c52d 833f f83e 733f 1cf9 843f
00000070: bebb 7c3f 407e 763f 7339 783f 8909 7d3f
00000080: 2fbb 773f f56b 7f3f d13f 7b3f c9ca 6c3f
00000090: 03ee 823f 3076 853f 2a91 883f c622 783f
000000a0: 28ae 783f 79b9 853f f1e8 7b3f 3726 873f
000000b0: e1ff 6c3f f4a3 753f c4cc 7d3f b2b5 843f
000000c0: bf92 733f 9f33 703f af53 8c3f 6797 733f
000000d0: 95c8 7b3f ca76 8b3f 30d9 763f df02 843f
000000e0: c285 843f 35a3 823f e899 873f fb11 863f
000000f0: 745b 843f e601 7a3f fa3d 873f c412 813f
00000100: a57c 7c3f 1e7f 883f 8725 813f 7aa3 7a3f
00000110: 996c 7b3f 82ff 773f 3727 833f 4b6b 8c3f
00000120: feb3 833f a093 7e3f ef44 863f cbfb 7b3f
00000130: e5a9 743f 0d64 783f 0127 7d3f bf4c 833f
00000140: 69b1 823f ea09 7f3f 77fe 793f 6de8 833f
00000150: 171a 813f def4 7a3f 4b6a 873f 74ba 843f
00000160: cbfc 7c3f 6a2b 7d3f 45a0 813f d4f0 843f
00000170: 8556 6e3f 4406 813f 4310 783f 6790 853f
00000180: 8778 773f 71c3 833f 3c02 803f d0d0 8a3f
00000190: 6419 783f de16 833f dd29 793f b6c4 773f
000001a0: 1bb4 7e3f 307c 7a3f 615c 793f d228 7c3f
000001b0: f76b 813f 73c7 883f 7d7e 803f 374f 773f
000001c0: e76f 763f a836 743f abca 843f 3822 793f
000001d0: e14d 823f 5d4b 793f 1af9 813f 31ae 783f
000001e0: 6622 813f c7d5 783f 962b 813f eee6 8a3f
000001f0: a962 843f 944b 7e3f 1ff2 7e3f 39d8 833f
1.0501765 1.035516 1.0426552 0.9783354 1.0896171 1.0310613 0.97698736 0.9938229
0.9800744 1.0455066 0.9568404 0.94529325 0.97813916 0.956676 1.0124837 0.9915598
1.0321579 1.0395998 1.0131092 0.9744686 0.9646691 0.99563986 1.0114123 0.99252164
1.0279692 1.0248343 0.9501796 1.0388522 0.9872397 0.9628639 0.9696266 0.98842674
0.96769994 0.99774104 0.9814425 0.92496926 1.0228885 1.0426693 1.06693 0.9692806
0.9714074 1.0447227 0.98402315 1.0558537 0.9257794 0.959533 0.9914057 1.0367949
0.9514579 0.9382877 1.0963038 0.95152897 0.9835294 1.0895627 0.9642515 1.0313376
1.035332 1.0206057 1.0593843 1.0474237 1.0340409 0.97659147 1.0565789 1.0083852
0.9862769 1.0663793 1.0089577 0.97905695 0.9821258 0.9687425 1.0246342 1.0970243
1.0289304 0.9944401 1.0489787 0.9843108 0.9557174 0.97027665 0.9888764 1.0257796
1.0210391 0.996245 0.9765391 1.0305306 1.0086087 0.9802989 1.0579313 1.0369401
0.9882323 0.9889437 1.0127035 1.0385995 0.9310077 1.0080037 0.96899813 1.0434693
0.96668285 1.0294019 1.0000682 1.0844975 0.96913743 1.0241354 0.97329503 0.9678453
0.9949357 0.97845745 0.97406584 0.98499787 1.0111073 1.0685867 1.0038601 0.9660525
0.962645 0.953959 1.0374349 0.9731784 1.0180017 0.9738062 1.0154145 0.97140795
1.0088623 0.972012 1.0091426 1.0851724 1.0342609 0.99334073 0.995882 1.0300361

policy_network.1.bias f4 [128]
00000000: 6afd feb9 d1c5 153a b09a b53c 1031 67bb
00000010: efaa 293c 6a90 f2ba f45f da3b 40ba 17bc
00000020: 56a9 8bbb 869f 86bb 7b5a 143c fd54 073c
00000030: 96ac 783b 0c5d 35ba 9040 c4bb af45 e7bb
00000040: af15 a6bb 7c66 b439 5a0a a13c 5969 59bc
00000050: dc81 bcbb 623a 1fbc 2bf7 f9bb 3a12 9abb
00000060: 9f85 8b3c 71db 6c3c ff6a 02ba b76c 863b
00000070: 57f5 853c b021 153b 1719 2fbb c3b1 da3b
00000080: a265 08bb 0f9c 4a3b 5ca9 42bc d6c9 f0ba
00000090: 455f b239 bc15 31bb 9d37 dcbb dc38 aabb
000000a0: 117d f13a e6d2 333c 4f79 113c 1d7f 6cbc
000000b0: 7592 f6bb 29c6 8e3c 7d03 5a3c c03f 8f3c
000000c0: cb8b 68bb 0c1f 1abc db50 e7bb 62e0 49bc
000000d0: 4970 1fbb e077 213b 63e3 49bc ba48 893c
000000e0: c7c0 bf3c 1cdb 9abb ce3d beb9 4f88 c23b
000000f0: 21f4 bfbb 5c87 34bc b0f6 183a 004e 283b
00000100: 32dc e6bb a126 fc3b c6ce 14bc 4eba cdbb
00000110: 6efc a7bb 5ae9 903b 040f 753c 12d4 703b
00000120: 3211 0eba f043 e83b 51ca 87bb 3d08 323c
00000130: 3204 c33b 61fd 5d3b f02b f93b ba61 363b
00000140: 700e 71bc 51fe b73b b26e bb3b 94df d1bb
00000150: 0066 883b 4944 e53a 89b6 ffbb 9744 1e3d
00000160: ef56 a4bc ca57 623b ab16 dcbb 0a12 283c
00000170: 45b9 b63b 1f66 ab3c 9887 a2b8 4d7a 0ebc
00000180: ec76 d7bb afbe 46bc 889a 82ba 9a0d 453c
00000190: 5d5c 05bd 3213 c33b f189 a03c 43f5 013b
000001a0: feef fe3b 9c1f ca3c bf16 293c 424d 10bc
000001b0: 67f1 663c bdee 073b 7aaa 653c 9c7b b939
000001c0: a9b3 793b 83fc 12bb 6037 083b 9909 a83c
000001d0: 3514 3d3c 47c6 343c 155b 00bd a869 f7ba
000001e0: e49f af3b 48e5 6cbc fe03 563c 3884 6e3c
000001f0: d043 583c 08d7 d8bb 0b4b c2bb b3eb 99bb
-0.00048635463 0.0005713376 0.022168487 -0.0035277046 0.010355695 -0.0018506174 0.0066642705 -0.009260714
-0.00426213 -0.004108372 0.009054775 0.008260009 0.0037944666 -0.0006918467 -0.0059891418 -0.0070578675
-0.005068503 0.00034408632 0.019658256 -0.013269746 -0.005752785 -0.009718509 -0.0076283417 -0.00470188
0.017031489 0.014456616 -0.000497505 0.0041023153 0.016352339 0.0022755675 -0.0026717836 0.006674023
-0.002081253 0.0030915772 -0.011881199 -0.0018370699 0.00034021787 -0.0027021011 -0.006720497 -0.0051947664
0.0018424114 0.010975575 0.00887902 -0.014434603 -0.0075247833 0.017428475 0.013306496 0.017486453
-0.0035483714 -0.009406816 -0.0070591993 -0.012321563 -0.0024328402 0.0024638101 -0.01232228 0.016758312
0.023407353 -0.004725827 -0.00036285672 0.0059366594 -0.00585796 -0.0110186 0.0005835099 0.0025681257
-0.0070452923 0.0076950346 -0.009082502 -0.0062783128 -0.0051265275 0.004422349 0.014957193 0.0036747498
-0.00054194324 0.007088177 -0.004143991 0.010866222 0.005951428 0.003387295 0.0076041147 0.0027829246
-0.014712915 0.0056150337 0.005719983 -0.0064048264 0.00416255 0.0017491664 -0.0078037423 0.03863963
-0.020060984 0.003453719 -0.0067165694 0.010258207 0.005576285 0.020922719 -7.750018e-05 -0.008696151
-0.006575456 -0.012130423 -0.0009964267 0.012027169 -0.032558788 0.005953216 0.019597026 0.0019830025
0.007780074 0.024673276 0.0103203645 -0.008807482 0.014095641 0.0020741664 0.014017696 0.00035378046
0.003810147 -0.002242834 0.002078496 0.020512389 0.011540462 0.011033601 -0.031336863 -0.0018876093
0.0053596366 -0.014458962 0.013062475 0.014557891 0.0131997615 -0.0066174306 -0.005929356 -0.004697287

policy_network.1.running_mean f4 [128]
00000000: 7a64 a4bf 59bf 05be e9dc b43f 732e a8bf
00000010: feca b73f ea6f 01be e8cc 6a3f b065 41bf
00000020: f14d 3b3f b2b4 1c40 e922 cfbf bb4b 0c3d
00000030: 11c0 05c0 4da6 c33e ab7e bd3f 9cff afbf
00000040: 14ea e7be e7d4 18c0 090f ba3f 35d4 953e
00000050: 373b c0bf 8755 963f 3670 94bf 1aca 423f
00000060: 6eb5 a23f 5697 903f 4c6c edbf c695 85bf
00000070: 5899 09be a5a3 97bf 2cab 9cbe 09b8 a53f
00000080: aa31 18c0 14e5 05bf ce22 bd3f 9bd8 823f
00000090: 5184 11c0 2d1c 00c0 7888 45bf 93a2 44bf
000000a0: 1405 71bf 4685 043f 7976 ee3e cefa a2be
000000b0: 5cbe 03c0 b2b3 8dbf 3a23 50be 5fb8 923f
000000c0: 6836 1abd c28a e7bf 5ae6 683c 95a2 8f3f
000000d0: 60e6 e4be e253 e23d eef9 063e 1c23 f93f
000000e0: 918b 0240 3117 aebe ab29 d3bf 6088 9cbf
000000f0: d576 333f 5cfb dcbf 4da4 d53e 6d0c 37bd
00000100: 8900 933f f8d2 4a3e 3f9e d6bf e750 df3f
00000110: e4b0 6a3e cf50 1b3f 8cd7 49c0 5d74 25be
00000120: 6111 77bf 483c 9dbe df6b 1ebf 6c74 ef3f
00000130: f8b0 7b3f 377a 8b3f 8519 31bf 3533 c3bf
00000140: 6e25 3b3f e419 f9bf 3edf 0b40 3e28 4ac0
00000150: bd16 42bd 1eb7 e73e 22f5 e8bf 6a55 91be
00000160: 0fd7 f03f bab4 40be 8af5 36c0 d4c7 a73f
00000170: a908 5abd 4471 a13f bd6f debe 501b 813f
00000180: e6f1 b73c cd85 a53f 0df8 dabf 6be5 1340
00000190: c522 233f e030 833f c278 803f afc7 e7bd
000001a0: dbaf 253f d588 0640 7ddd c9bf 0e7d d73f
000001b0: 6e30 5f3f 25f7 d13f 34d1 d73f 6381 9dbd
000001c0: ab1c a1bf 9d9b f23f 4f6c ec3e 1c65 e83e
000001d0: 262d d5bf bd4e 963e 0e29 b8be db92 fa3f
000001e0: 7c7c f23f 0318 1140 94bd 12c0 843c 12c0
000001f0: 8be1 bf3e 0823 b2be 3ec6 aa3f 2aed bdbf
-1.2843163 -0.13061275 1.4129916 -1.3139175 1.4358823 -0.12640348 0.9171891 -0.7554579
0.73165804 2.4485288 -1.6182529 0.03425191 -2.0898478 0.38212815 1.4804281 -1.3749881
-0.45295775 -2.3879945 1.4535838 0.29263464 -1.5018071 1.1744851 -1.1596744 0.7608963
1.2711618 1.1296184 -1.8548675 -1.0436332 -0.13437402 -1.1846815 -0.30599344 1.2946788
-2.3780313 -0.5230267 1.4776247 1.0222353 -2.273701 -2.0017197 -0.7716136 -0.7681057
-0.94148374 0.5176586 0.46574762 -0.31831974 -2.0584936 -1.1070464 -0.20325938 1.1462516
-0.037649542 -1.808922 0.014215076 1.1221491 -0.44707012 0.110511556 0.13181278 1.946384
2.0397685 -0.3400207 -1.6497091 -1.2229118 0.701032 -1.7264209 0.41726914 -0.044689585
1.1484538 0.1980704 -1.6767043 1.7446564 0.22919041 0.6067018 -3.153781 -0.1615767
-0.96510893 -0.30710053 -0.6188335 1.8707404 0.9831691 1.0896672 -0.69179565 -1.5250002
0.7310399 -1.9461026 2.1855006 -3.1587062 -0.047384966 0.45256895 -1.8199809 -0.28385478
1.8815631 -0.18818942 -2.8587365 1.3107858 -0.053230915 1.2612691 -0.43444625 1.008646
0.022454213 1.2931458 -1.7106949 2.3108776 0.6372493 1.024929 1.0036852 -0.113173835
0.6472146 2.1021016 -1.5770718 1.6835039 0.8718327 1.6403548 1.6860719 -0.07690694
-1.2586874 1.895374 0.46176383 0.4538964 -1.6654403 0.29356948 -0.35968822 1.9576067
1.894424 2.2670906 -2.292821 -2.2849436 0.37476763 -0.34792352 1.3341749 -1.4838002

policy_network.1.running_var f4 [128]
00000000: e84b bd3b 8e84 343c 7655 9b3b 1f7c 803b
00000010: b3b4 863c d30e cd3b 6e7b 283c e6ba a73b
00000020: 1058 843c 1678 083c 99a8 9b3b 1d98 903b
00000030: 43e1 853c 80ad 103c 55b0 663c cc32 c63b
00000040: ee46 4d3c 2ae0 be3b dd8d 0e3c 1b74 653c
00000050: 0e60 963b f89e 9c3b 990e 4a3c ebdd 543c
00000060: c2e1 923b fd4c 883b 5f48 883b 2ecc af3b
00000070: 2b0a 913b 8f10 743b ecd7 4e3c f918 3e3c
00000080: eb93 cc3b caa5 c83b 239a 093c e73e 953c
00000090: 65c0 433c 6187 873c e1e3 b63b 6c7f 933b
000000a0: 2a99 403b b45c 533c 291e e63b 226a 1c3c
000000b0: a32d 203c cb7a 203c f832 fd3b e36b f03b
000000c0: 23a7 5f3c 399d d73b 343c 2b3c 2eb3 7a3b
000000d0: 0309 ca3b 02b6 133d 0af4 d13b f633 dc3b
000000e0: d8eb b93b e4bd 193c f257 d43c 000b 753b
000000f0: 59a4 853b 7b1b ef3b 4f17 3b3c 9d72 6b3c
00000100: 88e1 9f3b cc39 963c 30bf 983c ec38 b13b
00000110: d78b 453c 2a03 363b 24b6 773c 244f 263d
00000120: 3e17 8c3c 4fbd 9a3b 0942 d33b 7492 ca3b
00000130: bc6d 6b3b b670 0a3c 4d76 473c 2610 093c
00000140: d379 063c ec2e 0d3c 1e54 943b cf65 583c
00000150: 22e3 623c a853 ef3b 4f3f 083d 23bb 6f3c
00000160: 5d0a d33b 95b6 463c 8286 553c e2b6 f03b
00000170: 62cc 603c 36af 743c 0431 623b 4adb 243c
00000180: 9352 133c 9fbb 8b3b 3472 923c b6a6 243c
00000190: 5cf6 d73b ce02 323c 3738 3b3b 1efb 673b
000001a0: 200a 913b 9f68 6b3c 9062 ad3c bbb4 123c
000001b0: bbc2 4d3c 2560 7a3c 1722 923c 8e93 cf3b
000001c0: e9c0 a43b cff9 cd3c d11f 1e3c a8f8 c03b
000001d0: 4d0b b03b 093d 093c 7863 d73b a443 2f3c
000001e0: 212c b03b b1d7 ef3c 8789 403c 9835 f13b
000001f0: 740d 393c cbed 383c e5d3 103c 5fcd 1b3c
0.005776871 0.011017932 0.0047404123 0.0039210464 0.016443586 0.0062578707 0.010283334 0.0051187156
0.016155273 0.008329412 0.004750323 0.0044126646 0.016342765 0.008830428 0.014080127 0.006048536
0.012529118 0.0058250623 0.008700815 0.0140047325 0.0045890873 0.0047796927 0.012332582 0.0129923625
0.004482479 0.0041595683 0.004159018 0.0053649163 0.004426261 0.0037241315 0.012624722 0.011602634
0.006243219 0.006123279 0.008398565 0.01821847 0.011947726 0.016544046 0.0055813645 0.004501274
0.0029388168 0.01290052 0.0070226383 0.009546788 0.009776506 0.009794901 0.007727023 0.00733708
0.013650688 0.0065800217 0.010451365 0.0038253772 0.006165625 0.036062248 0.0064072656 0.0067200614
0.0056738667 0.009383652 0.025920842 0.003739059 0.0040784297 0.007296977 0.011419131 0.014370588
0.0048791803 0.018338107 0.018645853 0.005408397 0.012057266 0.0027772882 0.015119109 0.040602818
0.017100926 0.0047222744 0.006447081 0.0061820094 0.003592356 0.008449724 0.012174201 0.0083656665
0.008207756 0.008617144 0.004526629 0.013207867 0.013848098 0.007303674 0.0332635 0.014632019
0.0064404444 0.012128492 0.013032557 0.00734602 0.013720604 0.014934352 0.003451408 0.010062048
0.008991855 0.0042643095 0.017876722 0.010049513 0.0065906476 0.0108649265 0.0028567442 0.003539748
0.004426256 0.014368205 0.021165162 0.008954222 0.012558634 0.015281712 0.01783852 0.0063347286
0.0050278795 0.025143532 0.00965114 0.005889017 0.005372441 0.008376368 0.006573137 0.010697279
0.0053763543 0.029277654 0.011751539 0.007361125 0.011294711 0.011287163 0.008839582 0.0095094135

policy_network.2.weight f4 [256, 128]
00000000: 3fc7 013c a3b1 dfbd c15b 9b3d 26cf 453d
00000010: 3f9b 083e 7813 b03c 5727 8bbd 9f98 a0bd
00000020: 4dae 35bd 0585 e2bc 9691 6a3d e775 1d3d
00000030: 6be8 303d ce1f 323d 61cd 8f3d f473 983b
00000040: 3ca9 80bd 8463 3abd d20e b83d 22f3 063d
00000050: 40e7 f4bd c6ef ea3c 8c4d 39bd 911b a03d
00000060: 9866 f63d 5dfd b1bd b350 a03c 0d45 e8bd
00000070: 4331 6bbd 0122 2abd 10be 3e3d 387f a03c
00000080: e1fe 663d 5e68 dc3c e924 b13c e043 8abd
00000090: d31e 653d d132 c33c a423 5cbd 6fc9 003d
000000a0: dbc4 3bbd 5d42 ee3d 75c9 cbbc f289 4dbd
000000b0: ae3f 7abd 3822 73bd 2c73 8ebc 3c18 1e3d
000000c0: 20b9 f4bc 7b59 e4bd 00e9 023c 84d2 6dbc
000000d0: abd8 863d 95fe 88bd 6bc2 9ebc 0b5a 693d
000000e0: 4554 da3d d7ac 1c3d 2824 fdbd b54c 33bd
000000f0: c47e 543d fd21 3cbd 6779 04bd f1cd 8d3c
00000100: e90d bebc d8f7 453d 7b3b 8a3d f2f4 143d
00000110: c08a f93c 285c f1bc 5ca7 273d 9195 d63d
00000120: 6202 5d3d 50f0 3bbd 705d 223d 78e8 9ebd
00000130: b06d 03bd 3096 653d d6af 65bd 7dbc 49bd
00000140: d26f e23c 2d7c db3c bd56 9fbd 26f2 c1bd
00000150: 24cc cbbd da7b dbbc 728f 15bd 43e8 683d
00000160: b8bd 29bc 10ac d5bc 7d8c 013d 1dc0 9f3d
00000170: f2dd 82bd d367 e13d f341 03bc b778 4c3d
00000180: df22 b8bd a6cf 463d 0ec0 303d cdc3 913c
00000190: 639a 63bc 4d60 303d 6c55 6d3d 6a62 d9bd
000001a0: 640f 183d 2859 e83b 99d9 1abd cca4 e63c
000001b0: 33c2 1ebd 3f72 2cbd 9404 80b9 86dd 9dbd
000001c0: 42d9 c53c c346 8a3c a7f7 7c3d edab 0bbc
000001d0: d326 52bd f0b0 b8bd 2bad 953c 3e0b 01bd
000001e0: b993 bd3c b103 72bd 8b49 95bc bda0 f2bd
000001f0: 4f26 87bc 2b1a b5bc d080 8a3d 81b8 bbbc
00000200: ec52 96bd d331 dabc 7323 f0bc 6adc 8f3d
00000210: cd54 d83c f6cf 573d 0c48 193d c528 703d
00000220: c827 afbd ff47 92bd 5958 41bd e595 713d
00000230: 6d7a 0cbd 5586 83bc cd1a a4bd 1f59 40bc
00000240: 2e02 8a3d b0a6 43bd 4fce 60bc 0e10 813d
00000250: 24d7 8abc 748f 0b3e a540 413d 8346 28bc
00000260: 6cdb 5d3d 777e 983d a43b 8eba a116 963c
00000270: fa1d 893d ebfb 2e3c 5e0b 4c3d 2fe7 36bd
00000280: 1546 8d3d f54d 993d b3e1 0dbe 85ab dbbd
00000290: 6b77 633d d111 ee3d 89d9 89bd e47c 3ebd
000002a0: 34fd 8f3c cacc cd3b f987 66bd a547 233d
000002b0: f829 b83c f835 643d fc84 a43d 4238 f0bc
000002c0: ec2d f73c 952f f438 f259 b43d 112f 6fbd
000002d0: 9783 893d 03be 41bd f63f 81bd bc4b 203d
000002e0: 39dd 8a3d aa7b b23d c36b 82bc 2e1a 22bd
000002f0: 2f47 83bb f8ca b13c e614 cebd ffaa 303d
00000300: 6bc7 46bb b88d f93b 9138 063e e1d2 803d
00000310: 4dfc d23d 55df f6bc c545 23bc e464 b43c
00000320: a6e7 593b 158b 223d e49b 84bd 0caa 3cbd
00000330: a169 ec3c 8019 f9bd 0f0a c83d b55f 613d
00000340: b239 7bbd 1f99 403d 68d0 f7bc 718b 4fbd
00000350: 4416 103c 29d1 243d 3121 2d3d 9d8e 00bd
00000360: f183 94bd 590d ac3d c12f d1bc b0a9 37bc
00000370: 621e 7a3d 7953 c3bd dd2d 353d 876f aabd
00000380: a0dc 3a3d 96fd cabc 6c34 963c f8fd 8c3d
00000390: 360a 42bb 0bae a5bc 1494 a6bc ef45 803d
000003a0: eb8c 01bc e91c 9fba 69bb 30bc ac6b c33d
000003b0: f4d7 a43c c7f1 a33c d7b5 61bd f60b 0bbd
000003c0: 0d89 e9bc c374 6bbd 4774 e5bd 0473 363c
000003d0: 7a00 afbd 0fcf 223d 4293 6dbc 5903 18bd
000003e0: a38e 9abc 177c b1bb 4f3c b9bd e231 9a3b
000003f0: 670f 643d a556 a0bc 74d7 5e3d b028 91bd
0.007921039 -0.109225534 0.0758586 0.048293255 0.13340472 0.021493658 -0.06794613 -0.0784161
-0.04435568 -0.02765132 0.057267748 0.03844252 0.0431904 0.043487363 0.07021595 0.0046524946
-0.06282279 -0.04550506 0.08987202 0.032946713 -0.1195817 0.028678786 -0.04523997 0.07817758
0.12031287 -0.08690903 0.01956973 -0.113412954 -0.057420027 -0.041536335 0.046567976 0.019591913
0.056395415 0.026905235 0.021624045 -0.067512274 0.0559376 0.023827942 -0.053744927 0.031442102
-0.045842033 0.116337515 -0.024876336 -0.050180383 -0.061095886 -0.059358805 -0.017388903 0.03859733
-0.02987343 -0.111498795 0.007990122 -0.014515523 0.06584295 -0.06689183 -0.019379815 0.056970637
0.106606044 0.03825077 -0.12360412 -0.043774325 0.051878706 -0.04593085 -0.03234234 0.017310115
-0.023199992 0.048332065 0.06749626 0.03636641 0.030461669 -0.029462889 0.04093109 0.10477746
0.05395735 -0.045883477 0.03963989 -0.07759184 -0.032087028 0.056051433 -0.056075893 -0.049252022
0.02764121 0.02679261 -0.07780216 -0.09470014 -0.09951046 -0.026792455 -0.036513753 0.056862127
-0.010360174 -0.026083022 0.03162812 0.078003146 -0.06389989 0.11006131 -0.008011329 0.04991981
-0.08991026 0.048537873 0.043151908 0.01779356 -0.013891789 0.04306059 0.057942793 -0.10614474
0.037124053 0.0070907064 -0.037805174 0.028154753 -0.03875942 -0.04210114 -0.00024417473 -0.07708268
0.024151448 0.016879445 0.061759617 -0.008524877 -0.051306557 -0.09018123 0.01827105 -0.031504862
0.023141729 -0.05908555 -0.018223545 -0.11847065 -0.01649776 -0.022107204 0.0676285 -0.022915127
-0.07340035 -0.026635086 -0.029313779 0.070244625 0.026407624 0.05268856 0.037422225 0.05863263
-0.085525095 -0.071426384 -0.047203396 0.05898084 -0.03429644 -0.016055265 -0.08012924 -0.011739998
0.06738697 -0.047766387 -0.013721063 0.0630189 -0.01694829 0.13628942 0.04718079 -0.010270718
0.054164335 0.07445996 -0.0010851515 0.018321337 0.06695171 0.010680179 0.049815528 -0.044654068
0.06898133 0.07485572 -0.13855629 -0.10726074 0.055533808 0.11624492 -0.06730945 -0.046505824
0.017576791 0.0062805163 -0.056282017 0.039863247 0.02248095 0.05571553 0.08033177 -0.0293237
0.030173264 0.000116436895 0.08806218 -0.058394495 0.06714552 -0.04730035 -0.06311028 0.039134726
0.06780476 0.08714993 -0.015920525 -0.03957575 -0.0040062885 0.021703228 -0.1006258 0.043131825
-0.0030331265 0.007615771 0.13107516 0.06290222 0.10302029 -0.03013579 -0.009965365 0.022020765
0.0033249645 0.03968342 -0.06475046 -0.046060607 0.028858962 -0.12163067 0.097675435 0.055022914
-0.06133432 0.047021028 -0.030250743 -0.05067009 0.008794371 0.040238533 0.042267982 -0.031386007
-0.07251728 0.08400983 -0.025535466 -0.01120989 0.06106413 -0.095374055 0.04423319 -0.083220534
0.04562056 -0.024779122 0.018335544 0.06884378 -0.0029608137 -0.020224592 -0.020334281 0.06263339
-0.007907133 -0.0012139353 -0.01078687 0.09542021 0.020122506 0.02001275 -0.055105057 -0.033946954
-0.028507734 -0.0574844 -0.11203819 0.01113582 -0.08545013 0.039748248 -0.014500441 -0.037112568
-0.018866843 -0.005416404 -0.09044706 0.0047056535 0.05567875 -0.019572565 0.05440469 -0.07087839

policy_network.2.bias f4 [256]
00000000: 15be 0ebc c333 41bd 391e 24bd 7520 7abd
00000010: a534 1e3d 3633 2b3d 2b16 44bd bb5d 3f3d
00000020: 88f8 a9bd c0e8 2dbd 0d95 8fbd 06a2 48bc
00000030: f205 92bc e9ab 703d f3ae d53c 4821 dab8
00000040: ac70 43bd 0ff9 8fbd 1010 90bd 01a7 963d
00000050: 25d1 8dbd 66ec 70bc eb8b 1c3d 0a2a ae3d
00000060: 33cf 5b3c e84a 913d 37f1 853d dd5d a8bd
00000070: bc4f aa3d 1515 41bd e9cb 93bd 1d98 c5bc
00000080: 9ebd 93bd 0d44 cb3c 4f51 9c3d 21c0 823d
00000090: b5fb 41bd 5abe c33d 15c6 233d 35d9 43bd
000000a0: 1bfd 733d 3cfa 983c 0d0d 24bd 600b 423d
000000b0: e3a8 62bd d06f a6bd 5f83 85bd fb35 a3bd
000000c0: 1f6a fa3c fbdf 963c 6b55 74bc 8fe2 dd3c
000000d0: b9ff 1fbc 696f 703d 7a8c 9fbd 0352 9f3d
000000e0: 6c39 a5bd 8740 b4bd 4066 adbd 9118 2cbd
000000f0: 9999 853d 049d b3bd 9c60 0cbd 52dc 9c3c
00000100: edf9 ab3d faa5 1ebd 24a8 453d 39f2 93bd
00000110: 8012 84bd 2179 d73a 64a8 8f3c d6c5 133d
00000120: a04d 20bc 914d b3bc 06a7 863c 3aac c5ba
00000130: 7e3e ba3d b11b 5bbc a141 893d 2057 caba
00000140: 1c77 8a3d 2278 c6bd 31eb 423d d438 9ebc
00000150: 3180 a63c 8c4e a3bd a384 133d 3d92 723d
00000160: c363 9fbd ebf3 293b d00b aabc 1d59 b53d
00000170: 7a3d 8ebb 4ce7 25bd 3253 c8bd e384 5d3d
00000180: b16b a9bd 17a4 8a3d 0f5e a1bc 2d44 a33d
00000190: 8cf1 a7bc d251 773d 6691 9dbd 1a2c 643d
000001a0: 3d40 9abd 08e7 98bd efa8 5dbc d73b 14bd
000001b0: 0f38 083c e962 77bc 47fa 20bd 764f 00bd
000001c0: 7804 adbd 8945 abbb f21c 8e3d f5aa b5bc
000001d0: 12bb 673d f378 aabc 95de 143d edf7 293d
000001e0: 7052 e23c 4201 b83a 39fd 0e3d 379b 453d
000001f0: 7508 8bbd ebdf ea3b 0706 febc 58eb 263d
00000200: 7f78 9d3d f729 9ebd 7c36 633d 432a 48bc
00000210: 82c2 50bd 69b0 57bd d6bd 393d aaf6 64bc
00000220: 1438 ad3d a3f0 f23b cd54 d03b ff0d d9bc
00000230: 8c99 bc3a 83ef 6c3d c399 78bd 7ea5 4c3c
00000240: 9f3d 693d 62f4 343b ff4d 983d cb9f 3c3d
00000250: aadf 22bd 0766 713c 2d84 423d e00e c43b
00000260: c59b 80bd 24ed 833d 7a77 a3bd 38a3 76bb
00000270: 9629 93bd 1030 b23d 51c5 29bd f776 bd3d
00000280: 657a ae3d 221f 0a3d d14c d43c d6f8 45bc
00000290: 0bf0 53bd 8b60 953d ca34 8cbd 7756 5fbd
000002a0: 0a2a c13d 6235 f1bc 0be4 053d dd52 eebb
000002b0: 9f70 aabd 16e2 8e3b c2a9 a0bd ccda 673d
000002c0: dc5d 2cbd 235b 943c ef66 abbc fb5b 09b9
000002d0: a09b 6ebd 2060 d7bc 79a5 32bd cc01 0cbc
000002e0: df52 5f3c 9168 9d3d ff02 483d 56fa b4bd
000002f0: 999b bcbd b8b9 933d 68ff b03d 9284 943d
00000300: 9eb1 19bc 7056 48bd 2a21 86bd e608 dd3c
00000310: 9bf9 efbc 6de1 7b3d 3697 513d 6d59 e0bc
00000320: da60 a13d b792 7cbc 884f 05bd 61db 833c
00000330: f41f 5abd 3f86 103d e656 1fbd 1337 09bd
00000340: 3f9f 1b3d a88f 933d ddab 363c b33d 7c3d
00000350: e699 93bd 1fd3 f73c 9839 fc3c 574d efbc
00000360: db8f 643d 9d22 423d 5bd0 12bd 9883 afbb
00000370: d196 a2bd 0233 aa3c 9183 3d3d 692a 603d
00000380: 835c 983d 9816 1e3d 683d 0cbb 4d76 d63c
00000390: faaf 003d 6e28 97bd 3a6b e83c ffa6 2a3d
000003a0: 7a51 a63d f8ba 29bd eaf0 54bd f1fd 29bd
000003b0: 8b2d 38bc 8adc abbc 9021 66bd d93d 943a
000003c0: e890 7c3d 9c68 883d 80c3 45bd fd53 013d
000003d0: 9b96 9dbd 3b01 8a3d ae13 cfbc b69a 01bd
000003e0: 117e 433d 6c31 163d 560c 5d3d ffa7 84bc
000003f0: e324 54bd 260d a43d a128 433d d05c 113d
-0.008712311 -0.047168504 -0.040067885 -0.06106611 0.038624424 0.041796885 -0.047872704 0.046720248
-0.08299357 -0.042458296 -0.07010851 -0.012245661 -0.0178251 0.058757696 0.026084399 -0.00010401249
-0.047714874 -0.07029926 -0.07034314 0.07356072 -0.06924657 -0.014704799 0.038219374 0.08504112
0.013416099 0.07094365 0.06540149 -0.08221028 0.083159894 -0.047139246 -0.07216627 -0.024120385
-0.07213901 0.024812723 0.07632696 0.06384302 -0.047359187 0.09557791 0.039983828 -0.047814567
0.059567552 0.018674009 -0.04005151 0.04737413 -0.055336844 -0.08126795 -0.06519198 -0.0796928
0.03056818 0.01841735 -0.014912943 0.02708557 -0.009765559 0.0587 -0.07790466 0.07779314
-0.08067593 -0.0880137 -0.08466768 -0.042015616 0.06523437 -0.08770183 -0.03427182 0.019148026
0.08397279 -0.038732506 0.048256055 -0.07223935 -0.06448841 0.0016439297 0.01753635 0.036077343
-0.009784132 -0.021887572 0.016437065 -0.0015081235 0.09093951 -0.013373301 0.06701971 -0.0015437342
0.067609996 -0.09690882 0.047587577 -0.019314207 0.020324798 -0.07973966 0.036015164 0.059221495
-0.077827 0.002593274 -0.020757586 0.08854888 -0.0043408247 -0.040503785 -0.09781493 0.05408181
-0.08272494 0.06769579 -0.019698171 0.07971988 -0.02050092 0.060380764 -0.07693748 0.05570612
-0.07531784 -0.07465941 -0.013529046 -0.03618988 0.008314147 -0.015099266 -0.039301183 -0.03132578
-0.08448118 -0.005226795 0.06939115 -0.022176245 0.05657489 -0.020809626 0.036345083 0.041496206
0.0276272 0.0014038461 0.03490946 0.048243728 -0.067887224 0.0071678064 -0.031008733 0.040751785
0.076889984 -0.07722848 0.055471882 -0.012217107 -0.050966747 -0.052658472 0.045347057 -0.013974825
0.08457962 0.00741394 0.0063577653 -0.026495932 0.0014389022 0.057845604 -0.060693514 0.012490628
0.056943532 0.0027611484 0.074367516 0.046050828 -0.039764084 0.014733798 0.047489334 0.0059832186
-0.06279711 0.06441715 -0.07981773 -0.0037633907 -0.07185666 0.087005734 -0.04144794 0.09251206
0.08519439 0.033721097 0.025915535 -0.012083253 -0.051742595 0.07293805 -0.06846006 -0.05452582
0.094318464 -0.0294444 0.03268818 -0.0072730617 -0.08322262 0.0043604476 -0.07844879 0.056605145
-0.0420817 0.018109864 -0.020923106 -0.00013099604 -0.058253884 -0.026290953 -0.04361484 -0.00854535
0.013630598 0.0768596 0.048830982 -0.0883681 -0.092093654 0.072131574 0.08642465 0.07251848
-0.009380726 -0.04891056 -0.06549294 0.026981782 -0.029293826 0.06149428 0.051169597 -0.027386392
0.07879801 -0.015415839 -0.03254655 0.016095819 -0.05325313 0.035284277 -0.038901232 -0.03349979
0.037993666 0.07205135 0.011149374 0.06158228 -0.07207088 0.030252038 0.030789182 -0.029211683
0.055801254 0.04739629 -0.035843235 -0.0053562634 -0.07938922 0.020776276 0.04626805 0.054727945
0.0743952 0.038595766 -0.0021398906 0.026179457 0.031417824 -0.07380758 0.028371442 0.041663166
0.08121009 -0.041438073 -0.051987566 -0.041501943 -0.011241327 -0.020979185 -0.05618435 0.0011309936
0.06166163 0.06660578 -0.048282146 0.031574238 -0.07694741 0.06738516 -0.025277939 -0.031641684
0.04772765 0.036668226 0.053966843 -0.016193388 -0.05179299 0.0801032 0.04764617 0.035488904

policy_network.3.weight f4 [256]
00000000: 3ab7 763f 3d41 6e3f 2f01 813f 3dbf 8a3f
00000010: eb45 853f 07df 7f3f 592e 6f3f 26e1 7f3f
00000020: e1b6 813f 4ffd 773f e4cf 6c3f 2c71 783f
00000030: 321a 843f 82df 7b3f 45f8 7a3f 749a 843f
00000040: 1fa0 693f 3dc9 7c3f d12c 823f 0d8d 763f
00000050: ec9b 803f 2902 873f e872 7f3f 36f4 783f
00000060: bf9d 853f 06aa 823f c635 803f 553f 733f
00000070: 67c0 823f 455e 7a3f 3214 833f cb43 703f
00000080: cf42 793f 9441 7b3f bef2 803f 3a03 713f
00000090: 3570 803f 218f 7b3f 5cd2 7c3f e428 813f
000000a0: 534a 793f e80b 763f c79f 813f 8a9b 7b3f
000000b0: d820 7a3f 4e2d 853f 3658 813f 6591 7a3f
000000c0: 4438 753f 870e 783f edd4 7d3f 3811 813f
000000d0: e469 793f b47f 693f 4385 7d3f 3849 7b3f
000000e0: eb2e 793f 038f 7a3f 1b60 813f fff9 713f
000000f0: e679 823f b1a7 813f fe40 723f e5cd 7d3f
00000100: accb 7b3f e041 723f 5617 733f 0c35 7e3f
00000110: c367 703f abef 803f a0dd 7a3f 6a4b 863f
00000120: 313a 8a3f b065 823f 7b37 793f c79a 843f
00000130: 2b94 7c3f 5721 7f3f e20f 813f 16be 773f
00000140: aeaf 833f c75c 813f 0b58 763f 1bd4 833f
00000150: ef69 853f be7e 823f 5123 6f3f b5f5 853f
00000160: f4f2 793f b7eb 833f cc1a 833f efb2 713f
00000170: fc1b 813f 786e 723f 9ed7 7c3f f38a 873f
00000180: c145 863f ed10 813f 0c01 733f 1f69 803f
00000190: 515d 773f 2459 783f a00e 7f3f 80eb 803f
000001a0: 11f3 7a3f d7a2 823f 6d95 7a3f a128 7d3f
000001b0: 8b65 6e3f 499f 763f 90b1 823f 061f 803f
000001c0: b9f0 833f 9da1 7b3f 8c89 763f b0aa 833f
000001d0: e6a4 7a3f 3bdc 733f 07ef 703f 1387 773f
000001e0: b6b2 7b3f 9d4a 6f3f dcc5 773f 836f 833f
000001f0: dc6d 763f d6cb 813f b31f 803f 45cc 7c3f
00000200: d906 7a3f 8b1e 803f 9ebf 7f3f 1efa 753f
00000210: 2b16 6c3f ba3c 803f 3af2 843f f5f8 823f
00000220: d47a 743f 2bac 813f 5bd8 813f 24c4 7b3f
00000230: 4857 723f 0e36 7f3f b15e 753f 3d58 823f
00000240: 9ec4 783f 3d73 793f db94 753f 1213 6f3f
00000250: c6ac 813f 543f 763f 2d32 813f cbf8 823f
00000260: 4a29 853f ff23 7b3f ee33 843f e3bb 7e3f
00000270: a025 833f f116 693f b303 833f 0a81 793f
00000280: 89bd 7c3f 086e 813f fb44 7e3f 812c 793f
00000290: 432e 813f 29bb 863f 8408 6c3f 5a3a 773f
000002a0: 5444 813f 4522 833f bef5 813f ae2c 7d3f
000002b0: c331 7b3f 53da 773f ab0b 773f bebb 733f
000002c0: eace 803f e1b6 803f 4081 833f 8275 773f
000002d0: d4ef 843f d8c7 833f b2ab 803f 9ed0 7d3f
000002e0: 9938 7a3f 9fc0 733f 6f1d 7c3f fc28 793f
000002f0: 09f3 753f dd29 803f 3a18 743f be13 7d3f
00000300: ae00 823f dbfb 833f 6c65 823f 0b12 7e3f
00000310: 241d 7c3f e522 753f da00 623f 3407 833f
00000320: b47c 7e3f bb4f 703f 5602 843f a1f4 823f
00000330: 2946 713f 1b8a 7c3f 3609 813f c6b2 803f
00000340: fe6f 723f 7a2a 753f 884f 7b3f d206 803f
00000350: be86 6c3f 8890 843f cf41 723f acde 813f
00000360: bbb6 783f 4490 773f aecd 813f a2fe 7c3f
00000370: 7e80 813f bf70 813f 8104 753f b090 803f
00000380: e9d8 773f f594 753f 2eb1 7d3f b593 7a3f
00000390: fee9 7e3f 1ff7 633f 18b2 763f fb3f 713f
000003a0: 231c 753f d429 893f 20c3 7f3f 4d1f 743f
000003b0: 28ef 7f3f 7ad8 7f3f 0ee0 7c3f 946d 723f
000003c0: e4c4 7e3f de52 823f 9dd2 7a3f f34e 753f
000003d0: 6122 793f 4911 7d3f 4657 7c3f 2de2 823f
000003e0: 517a 693f 0d98 843f 3dd7 7a3f bfb8 733f
000003f0: e381 823f 60e1 813f 4809 813f a4f4 753f
0.9637333 0.93068296 1.0078486 1.0839611 1.0411962 0.9994969 0.93430096 0.99952924
1.0133935 0.96870893 0.92504716 0.97047687 1.0320494 0.9838792 0.9803508 1.0359635
0.9125995 0.98744565 1.0169927 0.96308976 1.0047584 1.0547534 0.9978471 0.97247636
1.0438765 1.0208137 1.001641 0.9501851 1.0214967 0.97800094 1.0240538 0.93853444
0.97367567 0.9814694 1.0074079 0.9414555 1.0034243 0.9826527 0.9875848 1.0090604
0.97379035 0.9611192 1.0126885 0.9828421 0.97706366 1.0404451 1.0105045 0.97878104
0.9578898 0.96897167 0.99153024 1.008338 0.974272 0.91210485 0.99031466 0.981586
0.97337216 0.9787447 1.0107454 0.9452209 1.019345 1.01293 0.9463042 0.99142295
0.98357654 0.9463177 0.9495748 0.99299693 0.9390833 1.0073141 0.9799442 1.0491765
1.0799009 1.0187283 0.9735028 1.0359734 0.98663586 0.9966025 1.0082972 0.96774423
1.0287988 1.0106438 0.9622809 1.0299104 1.0422953 1.0194929 0.93413264 1.0465609
0.9763634 1.030631 1.0242553 0.94413656 1.0086665 0.9469981 0.98766506 1.0589279
1.0490037 1.008329 0.9492347 1.003208 0.96626765 0.9701102 0.9963169 1.0071869
0.9802714 1.0205945 0.97884256 0.9889012 0.9312369 0.963368 1.0210438 1.0009468
1.0307838 0.9829348 0.9630363 1.0286465 0.97907865 0.9525792 0.94114727 0.9669048
0.98319566 0.93473226 0.96786284 1.0268406 0.9626138 1.0140331 1.0009674 0.9874919
0.976667 1.0009321 0.9990176 0.96084774 0.92221326 1.0018532 1.0386422 1.0232226
0.9549992 1.0130666 1.0144151 0.9834616 0.9466443 0.99691856 0.9584761 1.0183178
0.97175014 0.97441465 0.9593026 0.93388474 1.0130851 0.9619038 1.0093437 1.0232176
1.0403225 0.981018 1.0328348 0.9950544 1.0245857 0.9105063 1.0235504 0.97462523
0.9872671 1.0111704 0.99324006 0.9733353 1.0092243 1.0525867 0.92200494 0.9657341
1.0098977 1.0244833 1.015312 0.988963 0.98122805 0.9681751 0.9650218 0.95208347
1.0063145 1.005581 1.0273819 0.9666368 1.038569 1.0295362 1.0052397 0.9914645
0.9774261 0.9521579 0.9848241 0.9732816 0.9607397 1.0012776 0.95349467 0.9885825
1.0156457 1.0311235 1.0187201 0.9924628 0.98481965 0.9575637 0.8828255 1.0236573
0.9940903 0.9387166 1.0313213 1.0230905 0.9424768 0.9864823 1.0080936 1.0054557
0.94702137 0.9576794 0.9816823 1.0002081 0.923931 1.0356607 0.94631666 1.0146079
0.97153825 0.96704507 1.0140893 0.9882604 1.0117338 1.0112532 0.9571 1.0044155
0.96815354 0.95930415 0.9909848 0.97881633 0.99575794 0.8904895 0.963655 0.9423825
0.9574606 1.071589 0.9990711 0.9536026 0.999743 0.9993969 0.9877938 0.9469845
0.9951918 1.0181539 0.9797762 0.9582359 0.97318083 0.988545 0.9857067 1.0225273
0.91202265 1.0358902 0.9798468 0.95203775 1.0195888 1.0146904 1.0080957 0.96076417

policy_network.3.bias f4 [256]
00000000: 33cf 36be 2d2c b83d bd51 5ebe 2245 4dbe
00000010: 053f 33be 025c 36be d3f8 c7bc 8f7a 1f3e
00000020: acca 2f3e 750f 20bd a7d6 513c 57f0 1a3e
00000030: 2a22 2c3e 4f15 2bbe 11e4 30be 0b63 583e
00000040: 2585 94bd f0de 0f3e 0864 8c3e 5089 13be
00000050: 8830 f63d 6c1a 38be 74f4 143e 0728 2abe
00000060: cbd8 433e 57c9 44be aa85 5f3e 5a8e 793d
00000070: e155 39be c30b ff3d 620b 8a3d 3f47 f7bc
00000080: 404b 263e 80cd 203e 9883 5bbe dce7 f43d
00000090: c9e1 573e e4e8 98bd db62 293e 5513 053e
000000a0: a969 103e 6037 3abb a711 7fbe 642e 243e
000000b0: 0cee 293e c898 16be d14c 983c 3b85 413e
000000c0: 5c57 82bc a65f ff3d 711e efba a3d6 2dbe
000000d0: 87d6 70bd 87b9 aabc 5ab2 943d 3012 1abe
000000e0: 7259 ac3d c56e 523c fae9 e43d 8721 ccbd
000000f0: cffe 543e 600b 633e 12ae 123e 475b fabd
00000100: a3dd 6bbe 18b8 b6bd 02ad debd 05b9 17be
00000110: b3c2 023e f866 1dbe 915e 133d fb95 493e
00000120: fce5 4f3e e361 3cbe 4110 9dbd e023 58be
00000130: 217a 71bc 7d0a 093e 3b57 f9bd cfe8 42be
00000140: a23c 62be f1c1 443e 236f a8bc 2826 453e
00000150: 9707 643e d5e3 afbd 3e25 21be 5e60 c2bd
00000160: 5b5b bcbd 0e41 3e3e 58ad 523d cab4 a73d
00000170: 0d29 7d3d d9ca 933d 7ec6 133e 56b7 40be
00000180: bff2 16be a5a1 69be f0f2 b43d bbe7 2c3e
00000190: 812a 543c a168 2bbe f129 8fbd a5bf 49be
000001a0: 3b7a d4bc 51b2 61be 9d2c cfbd f0fb bcbd
000001b0: 427f 033d df37 0bbe d39b 1cbd e5f9 1a3e
000001c0: 9b66 1abd 0970 343d e084 9dbd e5d3 b8bd
000001d0: 4353 1c3e 5766 9dbd 1147 c23d 6384 21be
000001e0: 66d5 143e 2720 bebc 0937 913d e874 6abe
000001f0: 81f9 cc3d 9bf1 5ebe b366 d63d b11e 52be
00000200: 75fb f6bd 1dc7 c13d 9dc2 56be 8e35 0d3e
00000210: 46a7 063d d764 273e 09af 6abe ac33 42be
00000220: 5f2a ed3d 8d55 43be 7908 333d 11ea f0bd
00000230: 981e 9bbd fa16 483e 87b7 2dbe 08af 49be
00000240: b5f5 3b3e c7bf 92bd 159e 093e 9e7d 15bd
00000250: dac8 e7bd 07f7 c239 9df4 2e3e 028d 54be
00000260: c87d 613e 82da 353e e89e bc3d 8ac0 03bc
00000270: 2f4c 0dbe b5dd 4ebe d2b1 9cbd 34dd 013e
00000280: 4b28 10be 7c0a 713e 1336 353e 1f6f 2ebe
00000290: 07c7 013e dd84 49be 66d7 0ebe 5e3b afbd
000002a0: e80f 3ebe b159 49be d64a d2bd 6bb6 1d3e
000002b0: 6a48 373e 2e20 ca38 024a 45be fd2f 8dbd
000002c0: f154 c8bd af10 63bd 40f8 02be d834 2abe
000002d0: 02d5 27be d19c 643e b38f 5ebd 59a4 373e
000002e0: 203d ab3d 3e74 753d 3004 3c3e a028 213e
000002f0: 2829 333e 7ded 52be ea7d ccbd 8e31 0b3c
00000300: 5e8d 79be ac7e 4abe a8e5 57bd 7744 46be
00000310: 6b1d 41bd 6489 163e 4ca0 dcbd bbe5 373e
00000320: bac9 5cbd 2747 5c3d f6b1 613e 7ed3 76bd
00000330: 84ad 33bd b80b f23d 56f5 5f3e 0559 cbbd
00000340: cb9d 1f3e 08e8 2c3b a9ba 0e3e 8198 f5bd
00000350: dc16 19be 2dcb 613e 394a 933d 2b9d 10bd
00000360: 5a65 1abc f00a ec3d 1ec0 f3bd 1ba2 f4bc
00000370: 2308 c6bc a8a3 78bd 5a6c 2cbe 268a 2abe
00000380: de49 a03c ab8a 9cbd 52c5 e53d 7d03 003e
00000390: 4ceb 4f3d a8de 983d 1f2e 2e3e 439d 283a
000003a0: 8a1c 09be 3b9a 6b3e cb20 41be 36d1 2a3e
000003b0: e534 d0bc eb42 36be d084 1f3e 6cec 1bbe
000003c0: da23 123e 4ad2 54be fd62 5a3d 17cc d33d
000003d0: d592 27be 01c2 d63c 35f0 5f3e eea4 433e
000003e0: f90d 9cbd 5e8a 493e ea3c 373d 56f7 893d
000003f0: 334e 493e 099c 00be c8e5 d03d 1356 21bd
-0.17852478 0.08992801 -0.21710868 -0.20045903 -0.17504509 -0.17808536 -0.02441064 0.15574096
0.17167157 -0.03907724 0.012807525 0.15130745 0.16809908 -0.16707347 -0.172745 0.21131532
-0.07251958 0.14049888 0.27420068 -0.1440785 0.12020975 -0.17978829 0.14546376 -0.16616832
0.19125669 -0.1921743 0.21828333 0.060926773 -0.18099166 0.12453415 0.06740452 -0.03018534
0.16239643 0.15703392 -0.21436918 0.11958286 0.21082224 -0.07466295 0.16541617 0.12995656
0.14102806 -0.0028414354 -0.24909078 0.16033322 0.16594714 -0.14706719 0.018591316 0.1889848
-0.015910797 0.12469415 -0.0018243325 -0.16976409 -0.05879834 -0.02084042 0.0726058 -0.15046
0.08415498 0.012843792 0.1117744 -0.09967332 0.20800327 0.22172308 0.14324215 -0.12224441
-0.23033766 -0.08921832 -0.10872842 -0.14816673 0.12769584 -0.1537131 0.035978857 0.1968612
0.20302576 -0.18396716 -0.07669116 -0.21107435 -0.01473859 0.13382907 -0.12174841 -0.19034122
-0.22093442 0.19214608 -0.020560807 0.19252837 0.2226852 -0.085883774 -0.15736863 -0.09491037
-0.09197112 0.18579504 0.051434845 0.0818878 0.061806727 0.072164245 0.14431188 -0.18819937
-0.14741038 -0.22815569 0.08835399 0.16885273 0.012949587 -0.16739132 -0.069904216 -0.19702013
-0.02593719 -0.22040679 -0.10115931 -0.09227741 0.032103784 -0.13595532 -0.038234543 0.1513439
-0.03769551 0.044052158 -0.076913595 -0.09024791 0.15266137 -0.076855354 0.09486211 -0.15773158
0.1453453 -0.02320869 0.07090575 -0.22896159 0.100085266 -0.21771853 0.10468807 -0.2051952
-0.1205968 0.09461806 -0.20972677 0.1378996 0.032874368 0.16347061 -0.22918333 -0.18965024
0.11580347 -0.19075604 0.043709252 -0.117633946 -0.07574195 0.19540015 -0.16964541 -0.19695675
0.18355449 -0.07165485 0.1343921 -0.03649675 -0.11317606 0.00037186613 0.170855 -0.20756915
0.22020638 0.17759135 0.092099965 -0.00804151 -0.13798593 -0.20201762 -0.07651104 0.12682039
-0.1407787 0.23539156 0.17696409 -0.17034577 0.12673579 -0.1967959 -0.13949355 -0.08556245
-0.18560755 -0.19663121 -0.1026818 0.15401618 0.17898718 9.6381045e-05 -0.19266513 -0.06893919
-0.09781826 -0.055435833 -0.12790012 -0.16621721 -0.1638985 0.22325446 -0.05433626 0.17933787
0.08361268 0.05992531 0.18360972 0.15738153 0.17496169 -0.20598407 -0.09984954 0.0084957015
-0.24370334 -0.19774884 -0.05270925 -0.19362055 -0.047147196 0.14700848 -0.10772762 0.17958729
-0.05390332 0.053778794 0.22040543 -0.06026029 -0.04386665 0.118186414 0.21870932 -0.099290885
0.15587537 0.0026383419 0.13938393 -0.119919784 -0.14950126 0.22050162 0.07191891 -0.035306137
-0.009423578 0.11525524 -0.11901878 -0.029862454 -0.024173802 -0.06070295 -0.16838208 -0.16654262
0.019566473 -0.07643636 0.112192765 0.1250133 0.050761506 0.07464343 0.17009781 0.0006432125
-0.13389793 0.23008053 -0.18860166 0.1668137 -0.025415847 -0.17798965 0.15578008 -0.15226907
0.14271489 -0.20783344 0.05331706 0.103416614 -0.16364606 0.026215555 0.21868975 0.19105884
-0.076198526 0.19681689 0.044735827 0.06736629 0.19658737 -0.12559523 0.10200077 -0.039388727
