Results/ETH-USD/DeepRL; DATA_KIND(PatternBased); BEGIN_DATE(None); END_DATE(None); SPLIT_POINT(2021-10-07); StateMode(5); WindowSize(15); BATCH_SIZE10; GAMMA0.7; REPLAY_MEMORY_SIZE20; TARGET_UPDATE5; N_STEP10/model.pkl (torch, 155829 bytes, 14 tensors)

policy_network.0.weight f4 [128, 18]
0	0x3d4114bb	0.04713891
1	0x3e27fdb7	0.16405378
2	0xbc89a42a	-0.016801912
3	0x3e1a6ea5	0.1508127
4	0x3b871ef5	0.0041235634
5	0x3e2f730c	0.1713373
6	0xbe48f42e	-0.19624397
7	0x3e271ebf	0.16320322
8	0xbe0a8d77	-0.13530527
9	0x3d25e5a9	0.040502224
10	0xbdd686bf	-0.104749195
11	0xbe3b43a1	-0.18287517
12	0x3e87fcb3	0.26559982
13	0xbe0bd7b4	-0.13656503
14	0xbdb157bd	-0.08659313
15	0x3d006c75	0.031353433
16	0xbe498959	-0.196813
17	0xbd3b8aaa	-0.045786537
18	0x3e5a0b3c	0.21293348
19	0xbe3b8429	-0.18312134
20	0x3d6bd868	0.057579428
21	0x3e587d49	0.21141542
22	0x3d2cc060	0.04217565
23	0x3da79f04	0.08184627
24	0xbdec29a6	-0.11531381
25	0x3e479f2e	0.19494316
26	0xbdc89dfb	-0.097957574
27	0xbe0ae97c	-0.1356563
28	0xbdb26164	-0.08709982
29	0x3e5bee15	0.2147754
30	0xbe5204ef	-0.20509695
31	0xbe370523	-0.17873053
32	0xbc9ce4db	-0.019152096
33	0x3e364ac7	0.17801963
34	0x3dfaad72	0.12240113
35	0x3e4dfa7c	0.20115083
36	0x3cb468ca	0.022022624
37	0xbd95edc5	-0.073207416
38	0x3d1a1ada	0.037623264
39	0xbdd5ce93	-0.104397915
40	0x3ca488a4	0.020084687
41	0xbe182510	-0.14857888
42	0x3e6729b2	0.22574499
43	0xbd1ab5ba	-0.037770964
44	0xbd8d3505	-0.06894878
45	0xbe017e45	-0.12645824
46	0x3e52dea6	0.20592746
47	0x3d1cf47d	0.0383191
48	0x3e176ce1	0.14787628
49	0x3e680622	0.2265859
50	0x3d21a916	0.039467894
51	0xbdfabe94	-0.12243381
52	0xbe1ac31f	-0.15113495
53	0xbdf2a8c3	-0.11848595
54	0x3da70586	0.081553504
55	0xbdb71b76	-0.08940785
56	0xbd261ea1	-0.040556554
57	0xbe4cac77	-0.19987665
58	0x3e0c7fa4	0.13720566
59	0x3e49f5e3	0.19722705
60	0x3dfc3ab6	0.12315886
61	0x3e0c2f23	0.13689856
62	0xbd3da57b	-0.046300393
63	0x3dd3c8a2	0.10341002
64	0xbe7fd874	-0.24984914
65	0xbdf28506	-0.118417785
66	0xbd385bf8	-0.045009583
67	0x3e48f48a	0.19624534
68	0x3e034294	0.12818366
69	0x3e51ac8f	0.20475982
70	0xbde5a646	-0.11213355
71	0x3e0254e8	0.12727702
72	0xbe064102	-0.13110736
73	0x3d33483a	0.043770052
74	0x3e14d3d0	0.14533925
75	0xbdd505f5	-0.10401527
76	0x3b64f506	0.0034936084
77	0xbe7f6ae8	-0.24943125
78	0x3e40fd0d	0.18846531
79	0xbe31440e	-0.17311117
80	0x3e11eba6	0.14250049
81	0x3e149a27	0.1451193
82	0xbe05c947	-0.13065062
83	0x3e36c24d	0.17847557
84	0xbe66281c	-0.22476238
85	0x3df55bde	0.11980413
86	0x3e8334f7	0.25626346
87	0x3e64c9c4	0.22342592
88	0x3cbc6d3c	0.023001306
89	0xbde46aa3	-0.11153152
90	0xbe934c3a	-0.28769094
91	0x3e24d8a0	0.16098261
92	0xbd5a0ed6	-0.053236805
93	0x3e2ae016	0.16687045
94	0xbe2e2ff9	-0.17010488
95	0xbe0847e7	-0.13308679
96	0x3de7f814	0.11326614
97	0x3e0d2fa8	0.1378771
98	0x3dc8fa45	0.0981336
99	0x3dbb87da	0.09156771
100	0xbea07e50	-0.3134637
101	0xbdb318fb	-0.08744999
102	0x3e1cc31c	0.15308803
103	0xbe286186	-0.16443452
104	0xbcba4e7a	-0.022742499
105	0x3d85235b	0.06500884
106	0x3e2e24f6	0.17006287
107	0xbde96197	-0.11395567
108	0x3d9ea7d2	0.07746853
109	0x3e9552f9	0.29164866
110	0x3d87ae4d	0.06625042
111	0xbd5af907	-0.053460147
112	0x3d5a2880	0.05326128
113	0xbca818fa	-0.020519722
114	0xbe13517f	-0.14386557
115	0xbe56a42e	-0.20961067
116	0xbe735728	-0.23763716
117	0x3e35f91c	0.17770809
118	0x3ceb10d5	0.02869455
119	0xbe3d86a8	-0.18508399
120	0x3dbd4723	0.09242084
121	0x3e1e90b8	0.15484893
122	0xbd9d8f02	-0.07693292
123	0xbe442af8	-0.19157016
124	0xbd9d4c6c	-0.07680592
125	0x3e22bcab	0.15892284
126	0xbdf1d2de	-0.11807798
127	0xbd795d86	-0.060880207
128	0x3e06cdb7	0.13164411
129	0x3d9f656d	0.07783017
130	0xbe31a3f8	-0.17347705
131	0xbd504478	-0.050846547
132	0x3ccde596	0.02513389
133	0x3e09ce60	0.13457632
134	0x3e209c06	0.15684518
135	0x3e379297	0.17927013
136	0xbe808e81	-0.25108722
137	0xbddf8fc8	-0.10916096
138	0xbe45abb4	-0.19303781
139	0xbe5f1911	-0.21786906
140	0xbe2f249f	-0.17103814
141	0x3e68fc57	0.2275251
142	0x3e0de158	0.13855493
143	0xbe24cce1	-0.1609378
144	0xbd33fb2b	-0.043940704
145	0xbdb84924	-0.089983255
146	0xbe1cf75f	-0.1532874
147	0x3e8197d9	0.25311163
148	0xbc848665	-0.016177366
149	0xbd70d916	-0.05880078
150	0xbe0e9882	-0.13925365
151	0x3dd4a5cf	0.10383188
152	0x3e8ef140	0.27918434
153	0x3e0eee8d	0.13958187
154	0xbe23cffd	-0.1599731
155	0xbbf83bec	-0.0075755026
156	0x3dc92173	0.09820833
157	0xbdacd081	-0.084382065
158	0xbe3d125d	-0.18464036
159	0x3e177255	0.14789708
160	0x3d79f519	0.06102476
161	0x3df82120	0.12115693
162	0xbd86e2d5	-0.065862335
163	0x3e2a31fa	0.16620627
164	0xbd4695b9	-0.04848263
165	0x3d9f1fde	0.0776975
166	0x3e3daab2	0.18522146
167	0xbd05a6ed	-0.032629896
168	0x3e242eda	0.16033497
169	0xbe5912e3	-0.21198611
170	0xbe9c472e	-0.30523056
171	0xbe620fc5	-0.22076328
172	0x3e24c5b2	0.1609104
173	0x3e3b523d	0.1829309
174	0x3deab00f	0.11459362
175	0xbd9f0d98	-0.07766265
176	0x3d7eaaa5	0.062174458
177	0xbd04f72e	-0.03246229
178	0xba20f66a	-0.0006140234
179	0xbdaad783	-0.08341887
180	0xbe873b7a	-0.26412565
181	0x3e136316	0.14393267
182	0x3c79ce3d	0.015246925
183	0x3c96230a	0.018327255
184	0xbd33f3c5	-0.04393365
185	0xbd7df1c2	-0.061998136
186	0x3dcfbd90	0.10143578
187	0x3e2f99b1	0.17148472
188	0x3e3ac5d2	0.18239525
189	0x3dae010c	0.084962934
190	0xbd76d545	-0.060261983
191	0xbe050a81	-0.12992288
192	0xba052137	-0.0005078497
193	0x3c61d038	0.013782553
194	0xbd5e8eae	-0.05433529
195	0xbd1f51be	-0.038896315
196	0xbe14159f	-0.14461373
197	0xbe34cd28	-0.17656386
198	0xbc51eee1	-0.012813301
199	0x3dd0d7cc	0.1019741
200	0xbc563a2f	-0.0130753955
201	0x3e0f1e31	0.13976361
202	0x3dd255aa	0.102702454
203	0xbea8662b	-0.32890448
204	0xbe02b33e	-0.12763688
205	0x3d65a566	0.05606594
206	0x3e2db4ce	0.16963503
207	0xbe001c01	-0.12510683
208	0xbc243a22	-0.010023626
209	0xb906f086	-0.00012868838
210	0x3dcdf062	0.10055615
211	0xbd6b7b7a	-0.057490803
212	0x3c560de2	0.013064833
213	0xbd8af8d7	-0.06785744
214	0xbe3bc422	-0.18336537
215	0x3d8a5f8f	0.067565076
216	0x3d8bae0b	0.068203054
217	0xbe42ee4b	-0.19036214
218	0x3e0ebef7	0.13940035
219	0xbcfc0656	-0.03076474
220	0x3e487bd0	0.1957848
221	0x3cb3cad7	0.021947308
222	0xbdfb64b1	-0.12275065
223	0xbe201d8a	-0.15636268
224	0x3e4777ad	0.19479246
225	0x3d3d01b2	0.046144195
226	0x3e90cdd9	0.2828205
227	0x3d95ca7d	0.07314012
228	0xbe38cb28	-0.18046248
229	0xbe31ccc2	-0.17363265
230	0xbe5d16c7	-0.2159072
231	0xbe492fe6	-0.19647178
232	0x3e4d890e	0.20071813
233	0xbdd35cdf	-0.10320448
234	0xbe8fbc70	-0.28073454
235	0x3e3ed108	0.18634427
236	0x3dd167c2	0.10224868
237	0x3e292ca5	0.16520937
238	0xbc2da791	-0.010599033
239	0x3e61a9d4	0.2203744
240	0x3d938d21	0.072046526
241	0x3da2f359	0.07956571
242	0xbb99a915	-0.0046893456
243	0xbe70c143	-0.23511223
244	0xbe02204a	-0.1270763
245	0x3dd29fc0	0.10284376
246	0xbd70104d	-0.058609296
247	0xbe45f9c7	-0.19333564
248	0xbdbb1eec	-0.09136757
249	0xbd45dd45	-0.048306722
250	0xbe41ca8a	-0.18924919
251	0x3df16adf	0.11787962
252	0xbd0c35ba	-0.034230925
253	0xbe827718	-0.25481486
254	0x3d01a62c	0.031652614
255	0xbd8b7932	-0.068102255

policy_network.0.bias f4 [128]
0	0xbddea9dc	-0.10872242
1	0x3b59ade7	0.0033215226
2	0xbd827911	-0.06370748
3	0xbe7a7667	-0.2445923
4	0xbb461716	-0.0030226163
5	0xbe610e47	-0.21978103
6	0xbdd458be	-0.10368489
7	0x3dc5b541	0.09653712
8	0x3cfc156f	0.03077194
9	0xbe52e853	-0.20596437
10	0x3d9880cd	0.07446442
11	0xbd8059a2	-0.06267096
12	0x3df0fdec	0.11767182
13	0xbc0fccbb	-0.008776839
14	0x3e2fec19	0.17179908
15	0x3d10c821	0.035347108
16	0x3d9fc8f0	0.07801998
17	0xbd63b8e0	-0.055596232
18	0x3d2a137f	0.0415225
19	0x3dda0ccc	0.10646972
20	0xbd6db3fb	-0.05803297
21	0xbe44a3fb	-0.19203179
22	0xbe38e27a	-0.18055144
23	0x3c8f2bcc	0.017476939
24	0x3e49e645	0.19716747
25	0x3d19cdff	0.03754997
26	0x3d635a41	0.055505995
27	0xbe148b78	-0.14506328
28	0xbd5796c1	-0.052634005
29	0xbd97ec5a	-0.07418127
30	0x3e12f7df	0.14352368
31	0xbdfe5c22	-0.12419917
32	0xbe30bb5d	-0.17258973
33	0x3c7ecffd	0.015552518
34	0xbe25e0a9	-0.16198982
35	0xbd317521	-0.043324593
36	0xbe4cda2b	-0.200051
37	0x3e55039e	0.20802161
38	0xbc392655	-0.011300643
39	0x3d9310f6	0.071809694
40	0x3deda150	0.116030335
41	0x3cc439d4	0.023953356
42	0xbe2bb563	-0.16768412
43	0xbd06605a	-0.03280673
44	0xbd78fb4d	-0.060786534
45	0xbdb8d4a5	-0.09024934
46	0x3dd0a7c1	0.101882465
47	0x3c6a879b	0.014314557
48	0xbe82a1a4	-0.25513947
49	0x3d840e13	0.06447997
50	0xbe2ed2bd	-0.17072578
51	0x3dd4f7e1	0.10398842
52	0xbdb8510e	-0.08999835
53	0xbe1c5b3b	-0.15269177
54	0xbe4610a9	-0.19342293
55	0x3dac840e	0.08423625
56	0xbdf2c9a1	-0.11854864
57	0x3d88e769	0.06684763
58	0x3d7eb1e6	0.062181376
59	0x3db52767	0.08845406
60	0x3d62f238	0.05540678
61	0xbdba9e1a	-0.09112187
62	0x3dd45dde	0.10369466
63	0x3db66f06	0.08907895
64	0x3e200548	0.15627015
65	0xbe1134e0	-0.14180326
66	0x3bfb7663	0.007674025
67	0xbe415519	-0.18880118
68	0xbdcbbfbe	-0.09948681
69	0x3d373063	0.04472388
70	0xbcd033ac	-0.025415264
71	0x3e5a9fbd	0.21349998
72	0xbd007168	-0.031358153
73	0x3db38817	0.087661915
74	0xbd69c1f4	-0.057069734
75	0x3e136c4d	0.14396782
76	0x3dbe6f56	0.092985794
77	0xbe116893	-0.14200048
78	0x3e303f1d	0.17211576
79	0x3d5a9bd5	0.05337127
80	0xbd5ac96c	-0.053414747
81	0x3e3e51c6	0.18585882
82	0x3ceaea34	0.02867613
83	0xbd6d5151	-0.057938877
84	0x3e45bb82	0.1930981
85	0x3cfdfd37	0.031004531
86	0x3d27d514	0.04097469
87	0x3e208512	0.15675762
88	0xbcbe67ac	-0.023242794
89	0xbe153edb	-0.14574759
90	0x3cd363ba	0.02580439
91	0x3d52f12b	0.051499527
92	0xbd6f95ce	-0.058492474
93	0xbe4bc56b	-0.19899528
94	0x3dbf561f	0.09342598
95	0x3e6e0c4c	0.23246878
96	0xbbe4d02b	-0.0069828234
97	0x3dcdf022	0.10055567
98	0x3e8e643f	0.27810857
99	0xbe7a305c	-0.2443251
100	0xbe0a7486	-0.13521013
101	0xbc5df6aa	-0.013547579
102	0xbe3ba5ce	-0.18324968
103	0xbdff7596	-0.124735996
104	0xbdac9a65	-0.08427886
105	0x3e29b506	0.16572961
106	0x3e15fb8f	0.14646743
107	0xbdca9504	-0.09891704
108	0x3ddcdc61	0.107842214
109	0x3df76e7d	0.12081621
110	0xbe122ca9	-0.14274849
111	0xbe44a269	-0.1920258
112	0xbe7ac192	-0.24487904
113	0xbe31727c	-0.17328829
114	0x3dccb165	0.09994773
115	0x3dff8517	0.12476557
116	0x3d91c825	0.07118253
117	0xbd2e28a9	-0.042519245
118	0xbdde7ee5	-0.10864047
119	0x3e40ab00	0.18815231
120	0x3e45215c	0.19251007
121	0x3d17fe84	0.03710796
122	0xbe6ed612	-0.23323849
123	0xbe4a738d	-0.19770642
124	0xbdc5eac6	-0.0966392
125	0xbccc0d3c	-0.024908654
126	0xbe734b2b	-0.23759143
127	0xbd629573	-0.055318307

policy_network.1.weight f4 [128]
0	0x3f81910b	1.0122389
1	0x3f7cda5d	0.98770696
2	0x3f757d25	0.9589408
3	0x3f74cdac	0.9562633
4	0x3f7c08de	0.9845103
5	0x3f831fa2	1.0244029
6	0x3f7ebd47	0.99507564
7	0x3f7dca28	0.9913659
8	0x3f81c269	1.0137454
9	0x3f820277	1.0157002
10	0x3f7db975	0.9911111
11	0x3f7a28f6	0.9771875
12	0x3f81fd1e	1.015537
13	0x3f800886	1.0002601
14	0x3f7defb7	0.991939
15	0x3f7d3cb4	0.9892075
16	0x3f7c4c95	0.98554355
17	0x3f7a6817	0.9781508
18	0x3f7db4da	0.9910408
19	0x3f82f729	1.0231677
20	0x3f7f771e	0.99791133
21	0x3f73787b	0.95105714
22	0x3f853438	1.0406561
23	0x3f78be9b	0.9716584
24	0x3f80d120	1.006382
25	0x3f7fbf33	0.9990112
26	0x3f824e5b	1.0180162
27	0x3f857119	1.042514
28	0x3f7fec9d	0.9997042
29	0x3f790183	0.9726793
30	0x3f791fe4	0.97314286
31	0x3f822dbd	1.0170208
32	0x3f83091d	1.0237156
33	0x3f7cf713	0.98814505
34	0x3f7ee001	0.9956055
35	0x3f879037	1.0590886
36	0x3f7968b7	0.9742541
37	0x3f8460ac	1.0342002
38	0x3f7cfc91	0.98822886
39	0x3f82b9ab	1.0212911
40	0x3f7ff40e	0.9998177
41	0x3f77f724	0.9686148
42	0x3f81bae7	1.0135163
43	0x3f80be27	1.005803
44	0x3f82e9b4	1.022757
45	0x3f7dbdc6	0.99117696
46	0x3f78d13b	0.9719426
47	0x3f8277f4	1.0192857
48	0x3f78beb0	0.97165966
49	0x3f806a03	1.0032352
50	0x3f81b204	1.0132451
51	0x3f7576ba	0.9588429
52	0x3f8033d4	1.0015817
53	0x3f82813a	1.0195687
54	0x3f8285a5	1.0197035
55	0x3f8364fe	1.0265195
56	0x3f80c576	1.006026
57	0x3f86753e	1.050453
58	0x3f7ffaab	0.99991864
59	0x3f7ab6ac	0.97934985
60	0x3f7f09a9	0.99624115
61	0x3f7b84ee	0.9824971
62	0x3f7f8c42	0.9982339
63	0x3f8067b6	1.003165
64	0x3f84e1a4	1.038136
65	0x3f7d8619	0.9903274
66	0x3f828b41	1.0198747
67	0x3f803c99	1.0018493
68	0x3f772922	0.9654714
69	0x3f828275	1.0196062
70	0x3f7eedda	0.9958168
71	0x3f875be0	1.0574913
72	0x3f84cbc7	1.0374688
73	0x3f7fe4f9	0.9995876
74	0x3f87fb78	1.0623617
75	0x3f7c2c50	0.98505116
76	0x3f802822	1.0012248
77	0x3f80697f	1.0032195
78	0x3f75c376	0.96001375
79	0x3f8375cf	1.0270327
80	0x3f7ea2bd	0.9946707
81	0x3f82cbbf	1.0218428
82	0x3f7b8429	0.98248535
83	0x3f750976	0.9571756
84	0x3f7c4bc3	0.98553103
85	0x3f7b6bd8	0.9821143
86	0x3f803f77	1.0019368
87	0x3f7885d7	0.97079223
88	0x3f723e00	0.94625854
89	0x3f83f9db	1.0310625
90	0x3f87feac	1.0624595
91	0x3f85d1a6	1.0454605
92	0x3f76ca3e	0.9640235
93	0x3f7f8443	0.9981119
94	0x3f74f7dc	0.95690703
95	0x3f7b9322	0.9827138
96	0x3f887db5	1.0663363
97	0x3f79db0e	0.97599876
98	0x3f7c9092	0.98658097
99	0x3f7d8824	0.9903586
100	0x3f76eb3f	0.9645271
101	0x3f7ba002	0.9829103
102	0x3f7f887a	0.9981762
103	0x3f81a0c0	1.0127182
104	0x3f7dca11	0.99136454
105	0x3f7dc2cb	0.99125355
106	0x3f836c14	1.0267358
107	0x3f766dc1	0.9626122
108	0x3f87da4c	1.0613494
109	0x3f75c6e6	0.9600662
110	0x3f7d28e7	0.9889054
111	0x3f78f8d4	0.9725468
112	0x3f79d125	0.97584754
113	0x3f815bf4	1.0106187
114	0x3f85df76	1.045882
115	0x3f7a40e7	0.97755283
116	0x3f7f1433	0.99640197
117	0x3f827cfb	1.0194391
118	0x3f804760	1.0021782
119	0x3f7ff545	0.99983627
120	0x3f80de36	1.0067813
121	0x3f802106	1.0010078
122	0x3f83c695	1.0294977
123	0x3f7649eb	0.9620654
124	0x3f7a6a2c	0.97818255
125	0x3f7f99f1	0.9984427
126	0x3f809fbc	1.0048747
127	0x3f82bb32	1.0213377

policy_network.1.bias f4 [128]
0	0x3c60e06b	0.01372538
1	0x3b8eb148	0.0043546297
2	0xbbabb3b2	-0.005239927
3	0xbca5d728	-0.020244196
4	0xbba01fce	-0.004886604
5	0xbd166008	-0.036712676
6	0xbc9e3228	-0.019311026
7	0x3aa3a61a	0.0012485415
8	0x3bb30f79	0.005464491
9	0xbca02c00	-0.01955223
10	0x3d01dff2	0.03170771
11	0xbd0d1035	-0.034439284
12	0x3b7e57ba	0.0038809613
13	0x3b5d542c	0.0033772094
14	0xbbf97464	-0.007612752
15	0xba04472f	-0.00050460076
16	0xbbe484f1	-0.0069738557
17	0x3b7ee0bf	0.0038891283
18	0xbb8014ff	-0.003908753
19	0xbcc594c2	-0.024118785
20	0xbb942ba3	-0.0045218035
21	0xbc27e42b	-0.010247271
22	0x3c49d774	0.012319434
23	0x3c8a659f	0.01689416
24	0x3b99cdfb	0.0046937442
25	0xbc0718ed	-0.008245689
26	0x3cab09d1	0.020878704
27	0xbcd58055	-0.02606217
28	0xbce07df4	-0.02740381
29	0xbb84bc60	-0.0040507764
30	0xbd4b98ae	-0.049706154
31	0x3bb5f784	0.005553188
32	0xbcbeabcb	-0.023275277
33	0x3c2c0615	0.010499497
34	0xbbe7bb55	-0.0070718923
35	0x3c6bc963	0.014391276
36	0xbcf03e91	-0.029326709
37	0x3c00ee65	0.007869338
38	0xbd2fbb18	-0.042903036
39	0xbd1740c4	-0.036927
40	0x3c4fe39a	0.012688542
41	0xbc78236a	-0.015145162
42	0xbc8d7a45	-0.017270217
43	0x3c890a0a	0.01672842
44	0x3beda19e	0.0072519323
45	0x3beac69e	0.0071647903
46	0xbc8c8e25	-0.017157624
47	0xbc385493	-0.011250633
48	0x3b3f22f0	0.0029165111
49	0xbc150eb6	-0.009097746
50	0x3d3582c9	0.04431418
51	0x3c57ba74	0.0131670125
52	0xbc90ee78	-0.017691836
53	0x3cc2b32b	0.023767075
54	0x3ce9d5bb	0.028544297
55	0xbd007579	-0.03136203
56	0x3c1e3727	0.009656704
57	0x3aded418	0.0017000465
58	0xbbfc7378	-0.0077041946
59	0xbc76bb5d	-0.015059319
60	0x3bb26122	0.005443708
61	0x3c90e0d9	0.01768534
62	0xbb7940af	-0.003803294
63	0x3cbde666	0.023181152
64	0x3d05c706	0.032660507
65	0x3c90c6d7	0.01767294
66	0xbcc0b4d2	-0.023523722
67	0xbc2304b8	-0.0099498555
68	0x3c3fed57	0.011714301
69	0xbb089873	-0.002084282
70	0xbc6dc6ba	-0.014512712
71	0x3bf2f285	0.0074141645
72	0x3c09f97f	0.008421301
73	0xbb0c6a41	-0.0021425637
74	0x3ce6c340	0.028169274
75	0xbd1d015b	-0.03833137
76	0x3b7e60fa	0.0038815127
77	0x3c22214b	0.009895633
78	0x3c0ea926	0.00870732
79	0xbbe4f090	-0.006986685
80	0x3c6b0da2	0.014346512
81	0x3c64cbb4	0.013964582
82	0x3cd4436a	0.025911052
83	0x3b5df0f2	0.0033865538
84	0x3c3635d0	0.011121228
85	0xbc3cddf9	-0.011527532
86	0xbc86c0f9	-0.016449438
87	0x3c2875ee	0.010282023
88	0xbd00d37a	-0.03145168
89	0x3d109813	0.03530128
90	0x3c8a19dd	0.016858036
91	0x3c92e87c	0.017933123
92	0xbc204ca9	-0.009783902
93	0xbbcb2d77	-0.006200488
94	0xbc8f7686	-0.017512571
95	0x3c9085b1	0.017641874
96	0x3c5f3e2e	0.013625665
97	0x3b8a2db6	0.004216875
98	0x3c3fa85f	0.011697858
99	0xbceee49b	-0.029161742
100	0xbce0ff74	-0.02746556
101	0xbca0b7c0	-0.019618869
102	0x3c5e473f	0.013566791
103	0x3c95d45f	0.018289743
104	0xbc29fc11	-0.010375039
105	0xbce5a062	-0.028030578
106	0xbcd7e126	-0.026352476
107	0xbd0e7525	-0.034779686
108	0x3ceb8c70	0.02875349
109	0xbd039b67	-0.032130625
110	0x3c34b273	0.011028874
111	0xbcea8e03	-0.02863217
112	0xbc8970f1	-0.016777487
113	0xbd140464	-0.036137
114	0xbcbf6cb7	-0.023367269
115	0xbcc117cf	-0.023570923
116	0xbcb93d8a	-0.022612352
117	0xbc2e413d	-0.010635671
118	0x3cfc0780	0.030765295
119	0xbc81dc23	-0.01585204
120	0xbc95191e	-0.018200453
121	0x3cc56f65	0.024100969
122	0x3c9b7b13	0.018979585
123	0xbd078a60	-0.03309095
124	0xbc8e9029	-0.017402725
125	0xbd10b7ff	-0.035331722
126	0x3d031022	0.031997807
127	0xbcde7cd1	-0.027159126

policy_network.1.running_mean f4 [128]
0	0xbdf8e88f	-0.12153732
1	0x3b4ca15c	0.0031224107
2	0xbd29f4e9	-0.04149333
3	0xbe789963	-0.24277262
4	0x3c95cd31	0.01828632
5	0xbe68dc4e	-0.2274029
6	0xbddeaff0	-0.10873401
7	0x3dd9479f	0.10609364
8	0x3bdd8ef2	0.006761425
9	0xbe5680ea	-0.20947614
10	0x3db18b96	0.08669202
11	0xbd86168a	-0.06547268
12	0x3e0579c2	0.13034728
13	0x39a7c927	0.00032002592
14	0x3e1ded14	0.1542247
15	0x3cd63489	0.026148098
16	0x3db46081	0.08807469
17	0xbd8608fa	-0.06544681
18	0x3ce55ac1	0.027997376
19	0x3d8083c0	0.06275129
20	0xbd6eabc4	-0.058269277
21	0xbe56ca6e	-0.20975658
22	0xbe1b613b	-0.15173809
23	0x3cb23b0b	0.02175667
24	0x3e588449	0.21144213
25	0x3d14bc71	0.036312524
26	0x3d4dc621	0.05023778
27	0xbe26c367	-0.16285478
28	0xbd4a8677	-0.049444642
29	0xbd8ab1e9	-0.06772215
30	0x3e1fc7c7	0.15603553
31	0xbe0d1d8a	-0.137808
32	0xbe40ea30	-0.18839335
33	0xbbdebc02	-0.0067973146
34	0xbe193907	-0.1496316
35	0xbd974d27	-0.073877625
36	0xbe38ac27	-0.18034421
37	0x3e41ec80	0.18937874
38	0x3b9300d4	0.0044861827
39	0x3dbe9a2a	0.09306748
40	0x3daf068d	0.08546171
41	0x3d0e8c6e	0.034801893
42	0xbe15ca54	-0.14627963
43	0xbd33c0f0	-0.04388517
44	0xbd914eca	-0.07095106
45	0xbd86e664	-0.06586912
46	0x3dde13d2	0.10843624
47	0x3c125619	0.00893166
48	0xbe67d1a5	-0.22638567
49	0x3d064cc5	0.032788057
50	0xbe06044e	-0.1308758
51	0x3dd35cac	0.1032041
52	0xbdb3ede2	-0.08785607
53	0xbdf8d0b7	-0.12149184
54	0xbe492927	-0.19644605
55	0x3da3d39f	0.07999348
56	0xbdcc2259	-0.09967489
57	0x3dd6dd49	0.104914255
58	0x3d495265	0.049150843
59	0x3d800589	0.06251056
60	0x3d6e8dfc	0.058240876
61	0xbd527828	-0.05138412
62	0x3d94bc1c	0.072624415
63	0x3da5028e	0.08057128
64	0x3e122add	0.14274164
65	0xbe0e8326	-0.13917217
66	0x3ccde850	0.02513519
67	0xbe2d7b90	-0.16941667
68	0xbe0c43a6	-0.13697681
69	0x3c75f95c	0.015013065
70	0xbd152769	-0.036414538
71	0x3e5400c5	0.20703419
72	0xbccd7710	-0.025081187
73	0x3d8ae1ac	0.06781325
74	0xbcafb9f6	-0.021450978
75	0x3e28800d	0.16455097
76	0x3d5a9f68	0.053374678
77	0xbe26b03a	-0.16278163
78	0x3e216719	0.15761985
79	0x3cd1cf7f	0.025611637
80	0xbd9f3e74	-0.07775584
81	0x3e145569	0.14485706
82	0x3d2c4883	0.04206134
83	0xbd53e663	-0.051733386
84	0x3e267c7d	0.16258426
85	0x3d614e1a	0.055006124
86	0x3cf37b1e	0.029721793
87	0x3e1e241d	0.15443464
88	0xbd2c8055	-0.042114574
89	0xbe200773	-0.15627842
90	0x3c756545	0.014977758
91	0x3d68edab	0.056867283
92	0xbd616674	-0.055029348
93	0xbe4fe174	-0.20300847
94	0x3d960565	0.07325248
95	0x3e78af7d	0.24285693
96	0x3c071c4c	0.008246493
97	0x3dd04f8c	0.10171422
98	0x3e805278	0.2506292
99	0xbe8a1ad2	-0.26973587
100	0xbdf3a380	-0.118964195
101	0xb9297677	-0.00016161228
102	0xbe3b5c7c	-0.18296999
103	0xbe06eb55	-0.1317571
104	0xbd8911e4	-0.066928655
105	0x3e5d0bf7	0.21586595
106	0x3e32fd6c	0.17479485
107	0xbded68fa	-0.11592288
108	0x3db7cc95	0.08974568
109	0x3df902a0	0.12158704
110	0xbe166aba	-0.1468915
111	0xbe6ae322	-0.22938207
112	0xbe8336bf	-0.25627705
113	0xbe48cb43	-0.19608788
114	0x3da6faa7	0.08153277
115	0x3e0b4c5b	0.13603346
116	0x3d50c5e5	0.050969977
117	0xbcd791f0	-0.026314706
118	0xbdf3113a	-0.1186852
119	0x3e48127e	0.19538304
120	0x3e44525c	0.19172043
121	0x3d7363a1	0.059421185
122	0xbe557d52	-0.20848587
123	0xbe4e0330	-0.20118403
124	0xbdc6727e	-0.096898064
125	0xbd1baa1e	-0.038004033
126	0xbe80f42d	-0.2518629
127	0xbcd36967	-0.025807096

policy_network.1.running_var f4 [128]
0	0x3bf0abdd	0.0073447064
1	0x3c077df2	0.008269774
2	0x3bd933c8	0.0066284873
3	0x3bb0a9da	0.0053913416
4	0x3c1785f2	0.009248244
5	0x3c5305cf	0.012879803
6	0x3c35e019	0.011100792
7	0x3bdc9f00	0.0067328215
8	0x3c22fff4	0.009948719
9	0x3c3e58fa	0.011617893
10	0x3c180332	0.009278106
11	0x3ba0ef5f	0.0049113478
12	0x3c2df596	0.010617634
13	0x3c2025cb	0.009774636
14	0x3c0925db	0.008370842
15	0x3c06794c	0.00820763
16	0x3c010ef9	0.007877105
17	0x3c5e5160	0.013569206
18	0x3c6f8305	0.01461864
19	0x3bdcb93d	0.0067359493
20	0x3ba7555f	0.0051066126
21	0x3b2422d4	0.0025045173
22	0x3bf66cb1	0.0075202812
23	0x3c15611b	0.00911739
24	0x3c1f8c8e	0.009738101
25	0x3c46d001	0.012134553
26	0x3b89ec70	0.0042090937
27	0x3bbdeb1f	0.005795851
28	0x3bfc33fa	0.007696626
29	0x3bd4857d	0.0064856396
30	0x3bc07b14	0.005874047
31	0x3b9b174e	0.0047330027
32	0x3c240cea	0.010012845
33	0x3c2b885f	0.010469525
34	0x3c3af7ae	0.0114115905
35	0x3c357d80	0.011077285
36	0x3c033539	0.008008295
37	0x3bd098da	0.0063658776
38	0x3b95250e	0.0045515364
39	0x3c071d79	0.008246773
40	0x3c23b83d	0.009992656
41	0x3b230f36	0.0024880893
42	0x3c142121	0.009041102
43	0x3bc18937	0.00590625
44	0x3bf9928e	0.0076163476
45	0x3b995a2b	0.0046799383
46	0x3b58f8f5	0.0033107374
47	0x3bfff59d	0.007811262
48	0x3c4a2e70	0.012340173
49	0x3c458304	0.012055162
50	0x3c026f3e	0.0079610925
51	0x3c21f38c	0.009884726
52	0x3c279ab3	0.010229754
53	0x3bdf334b	0.0068115345
54	0x3c7b133e	0.015324412
55	0x3bd570ec	0.0065137055
56	0x3c2a45ff	0.010392665
57	0x3bec4aac	0.00721105
58	0x3c4364a3	0.011925849
59	0x3c1a8d0f	0.009433045
60	0x3c294e1e	0.010333566
61	0x3c25f1ab	0.010128419
62	0x3c46056b	0.012086253
63	0x3c3b2b07	0.011423833
64	0x3c62ee9d	0.013850835
65	0x3bee6b04	0.007275941
66	0x3c01c9e9	0.007921674
67	0x3bd056f6	0.006358023
68	0x3bbead3f	0.0058189924
69	0x3c28da59	0.010305964
70	0x3c00fd85	0.007872944
71	0x3c5b60da	0.01338979
72	0x3bf978c3	0.007613273
73	0x3b963de2	0.0045850137
74	0x3bf7b7ac	0.007559737
75	0x3bf6fd8f	0.0075375508
76	0x3b90ab9d	0.004414989
77	0x3c23b66a	0.009992221
78	0x3c022f0f	0.00794579
79	0x3bff9773	0.0078000366
80	0x3bf95f99	0.007610273
81	0x3bc71da2	0.0060765306
82	0x3c6f6675	0.01461183
83	0x3b96c1f2	0.004600757
84	0x3c20d700	0.009816885
85	0x3c5c9026	0.013462102
86	0x3b9983fa	0.0046849223
87	0x3c028a37	0.007967523
88	0x3bfb00de	0.0076600155
89	0x3bac9281	0.005266488
90	0x3bec8eab	0.007219156
91	0x3b6e8ba1	0.0036399143
92	0x3bc10849	0.0058908802
93	0x3c4b7b7e	0.01241958
94	0x3bc5e58d	0.0060393275
95	0x3c2188fe	0.009859322
96	0x3bcd788d	0.0062704743
97	0x3c04db06	0.00810886
98	0x3c4218b5	0.011846711
99	0x3bc59195	0.0060293176
100	0x3b76c6f1	0.00376552
101	0x3bcb751d	0.0062090294
102	0x3c12663d	0.008935508
103	0x3b86b8f2	0.0041114027
104	0x3bab5ace	0.0052293306
105	0x3c4a8ea2	0.012363108
106	0x3bd96399	0.0066341874
107	0x3bae4699	0.0053184745
108	0x3b83bd4e	0.0040203696
109	0x3bba5fe0	0.0056876987
110	0x3bfaf21c	0.007658256
111	0x3baa093b	0.0051890886
112	0x3c25c2b0	0.010117218
113	0x3c03bb03	0.008040193
114	0x3c44d3b5	0.0120133655
115	0x3c24f239	0.010067516
116	0x3b75c9ff	0.0037504432
117	0x3c2bc9f9	0.010485166
118	0x3beed1a2	0.007288174
119	0x3c4827db	0.0122165335
120	0x3c0247e2	0.0079517085
121	0x3c2905dc	0.010316338
122	0x3bb552f0	0.0055335686
123	0x3be7ff4c	0.0070799943
124	0x3bc8a216	0.006122838
125	0x3c5bb22d	0.01340918
126	0x3b7a57bb	0.0038199264
127	0x3b4a6774	0.0030884417

policy_network.2.weight f4 [256, 128]
0	0x3bc1d70a	0.005915527
1	0x3d93781f	0.07200646
2	0x3bd5f9de	0.0065300306
3	0xbd40be47	-0.047056463
4	0x3d5b156e	0.053487234
5	0x3db8a1f1	0.09015263
6	0xbc874cd0	-0.01651612
7	0xbcbbd595	-0.022928992
8	0xbd7cca17	-0.061716165
9	0x3bf29633	0.007403159
10	0xbd188853	-0.037239384
11	0x3b06deae	0.0020579505
12	0xbdfa99b8	-0.12236351
13	0x3d84cebe	0.064847454
14	0x3d7d2e33	0.061811637
15	0x3c24b11d	0.010051993
16	0xbcc032e5	-0.023461768
17	0x3cb7c7a8	0.02243407
18	0xbd01e373	-0.031711053
19	0x3dfeb351	0.12436546
20	0xbd6bb299	-0.05754337
21	0x3cc9f095	0.024650851
22	0x3caef794	0.021358289
23	0xbdb0c1bb	-0.08630701
24	0xbdccdf53	-0.10003533
25	0xbb82dcdc	-0.0039936136
26	0x3d801656	0.0625426
27	0x3d94e398	0.072699726
28	0xbd2b3cce	-0.041806035
29	0x3cca13ce	0.024667647
30	0x3d4fdb0f	0.05074602
31	0xbd65a837	-0.056068625
32	0xbd144d8e	-0.036206774
33	0x3dcaa6a0	0.098950624
34	0x3d1e8723	0.038703095
35	0x3d7143fe	0.058902733
36	0xbdc7ac90	-0.097497106
37	0x3da302a5	0.07959489
38	0xbda3c0ba	-0.07995744
39	0x3db8a54c	0.09015903
40	0xbd73e37a	-0.05954311
41	0x3cffb201	0.031212809
42	0x3cb8976f	0.022533147
43	0xbd827850	-0.06370604
44	0x3cfe5a0c	0.031048797
45	0x3d470666	0.048590086
46	0xbc4e0e1e	-0.012576608
47	0x3d91fae8	0.07127935
48	0xbdabf7fb	-0.08396908
49	0x3da04c03	0.07826998
50	0xbd0939b2	-0.03350229
51	0x3b6cfd4b	0.0036161717
52	0xbd2fd60e	-0.042928748
53	0x3d47a144	0.04873778
54	0xbc59cf5e	-0.013294069
55	0x3cceccb4	0.025244094
56	0xbdc78c4f	-0.097435586
57	0xbdbcb10b	-0.09213456
58	0x3be9f5da	0.0071399035
59	0xba57400f	-0.00082111446
60	0x3cf9f154	0.030510582
61	0xbd4a6733	-0.049414825
62	0x3daf6653	0.08564439
63	0x3dbf3216	0.09335725
64	0x3cf35013	0.029701268
65	0xbc0549dc	-0.008135285
66	0x3d4bd9a1	0.049768094
67	0xbda81683	-0.08207419
68	0xbd5fd406	-0.05464556
69	0x3d9be40e	0.07611857
70	0x3dc80fb4	0.0976862
71	0xbdda81fb	-0.10669323
72	0x3d6f99d4	0.05849631
73	0xbda50ce4	-0.08059099
74	0xbd9a73e1	-0.075416334
75	0xbd1c7dc8	-0.03820589
76	0x3d9f6561	0.07783008
77	0x3d3bce9d	0.04585134
78	0x3aef5a81	0.0018261225
79	0x3d96c8e2	0.07362534
80	0xbd031194	-0.031999186
81	0xbcaa34e3	-0.020777171
82	0xbd414f7a	-0.047194935
83	0xbd7dbfd6	-0.061950527
84	0x3d0fc590	0.03510052
85	0xbd7ef0c2	-0.062241323
86	0xbc153378	-0.009106509
87	0x3d8de170	0.069277644
88	0x3cd91fe4	0.026504464
89	0x3d9b9a47	0.075977854
90	0x3dada512	0.0847875
91	0xbd22315c	-0.039597854
92	0xbd473e95	-0.048643667
93	0xbbb40bc7	-0.005494568
94	0xbc21293b	-0.00983649
95	0x3d5dce99	0.054152105
96	0xbc90c2ec	-0.017671071
97	0xbd72c391	-0.059268538
98	0x3d02b078	0.031906575
99	0x3d12e180	0.035859585
100	0xbc782836	-0.015146306
101	0x3cfcdc14	0.03086666
102	0x3d662863	0.05619086
103	0x3b8a0e70	0.004213147
104	0xbdbe21a4	-0.0928376
105	0xbc11a79a	-0.008890057
106	0x3d80f073	0.06295862
107	0x3d8de876	0.06929104
108	0x3dee02c2	0.1162162
109	0xbc6a9470	-0.014317617
110	0x3c8ebd86	0.017424356
111	0x3d1f704e	0.03892546
112	0xbce21e4e	-0.027602341
113	0x3dc34751	0.09535087
114	0xbc9c87dc	-0.019107752
115	0x3c5ac29a	0.013352061
116	0xbcd06dd6	-0.025442999
117	0x3d1bafea	0.03800956
118	0x3dc0ac6c	0.09407887
119	0x3d5a9a1a	0.05336962
120	0x3db96bc9	0.090537615
121	0x3d244ea2	0.040114053
122	0x3caacbac	0.020849071
123	0x3c9e7c64	0.019346423
124	0xbd8a114a	-0.06741579
125	0x3dd820ef	0.105531566
126	0xbd46970e	-0.0484839
127	0xbd28c276	-0.041201077
128	0xbd915d9b	-0.07097932
129	0x3c856d67	0.016287519
130	0x3c783bac	0.015150946
131	0x3d727973	0.059197854
132	0x3d43f469	0.04784051
133	0x3dfec8d7	0.12440651
134	0xbe1231c6	-0.142768
135	0x3df6cd85	0.120509185
136	0x3da40261	0.08008266
137	0xbd9473d1	-0.07248653
138	0x3d1e0fbc	0.038589224
139	0x3d029754	0.0318826
140	0xbcd55234	-0.026040174
141	0x3d7a9a28	0.06118217
142	0xbd105da2	-0.035245545
143	0x3c50c10b	0.0127413375
144	0x3d51f78e	0.051261477
145	0x3d8c7c90	0.06859696
146	0xbd98083f	-0.07423448
147	0x3d4f245f	0.050571796
148	0xbc6d7461	-0.014493079
149	0x3d116621	0.03549779
150	0x3e08d18b	0.13361184
151	0xbd9bfe49	-0.076168604
152	0xbcfb058e	-0.030642297
153	0x3d16d70c	0.03682618
154	0x3ca25390	0.019815236
155	0x3cebf9f0	0.028805703
156	0xbd6ff27c	-0.05858086
157	0x3cdd58e1	0.02701992
158	0x3d923009	0.07138068
159	0xbd5ea43b	-0.05435584
160	0x3d53e143	0.0517285
161	0xbc3fb681	-0.011701227
162	0x3d0fe666	0.035131834
163	0xbe004206	-0.12525186
164	0xbd6a6469	-0.057224665
165	0xbc43e90e	-0.01195742
166	0x3d7f5f7f	0.06234693
167	0xbdc849e5	-0.09779719
168	0x3d76e9ca	0.060281552
169	0xbda6a33d	-0.08136604
170	0x3d48b610	0.049001753
171	0x3dc5bfe4	0.09655741
172	0xbe0703fc	-0.13185114
173	0x3cabc735	0.020969013
174	0xbd166de8	-0.03672591
175	0xbda64f90	-0.08120644
176	0xbd0bac3b	-0.0340998
177	0xbdd70d14	-0.10500541
178	0xbd20829f	-0.03918707
179	0xbdd0eb92	-0.102011815
180	0x3d62f430	0.055408657
181	0xbd984991	-0.07435907
182	0x3d0a61ec	0.03378479
183	0xbdc9eeb6	-0.098599836
184	0xbcc1786d	-0.023616994
185	0x3d32a230	0.043611705
186	0x3c4ca83a	0.01249128
187	0xbd803f1b	-0.062620364
188	0x3b8b0bdb	0.0042433566
189	0xbd6fd2a0	-0.058550477
190	0xbe012364	-0.12611157
191	0xbc2e2b65	-0.010630463
192	0x3c84bdcb	0.016203782
193	0xbd44c217	-0.04803666
194	0x3d295554	0.04134114
195	0x3c10b5d9	0.008832418
196	0xbc4b345a	-0.012402618
197	0x3d863457	0.06552952
198	0x3d77e65d	0.060522426
199	0x3d6fa94f	0.058511075
200	0x3d2c9c11	0.042141024
201	0xbdc1937c	-0.094519585
202	0x3dd00132	0.10156478
203	0x3ce03eeb	0.027373752
204	0x3d98d678	0.07462782
205	0xbddf910c	-0.10916337
206	0x3da4697f	0.08027934
207	0x3d04805d	0.03234898
208	0x3d4c0b58	0.049815506
209	0xbd8dfeeb	-0.06933387
210	0xbbf38786	-0.007431927
211	0xbc3d14da	-0.011540616
212	0xbc9c62ef	-0.019090144
213	0xbd2b0f81	-0.041762833
214	0x3d2fc2f9	0.04291055
215	0xbc2e6231	-0.010643528
216	0x3d2158b2	0.039391227
217	0x3d665990	0.056237757
218	0xbda51342	-0.08060314
219	0x3d90aa51	0.07063735
220	0xbc768c51	-0.0150481025
221	0x3d327e26	0.043577336
222	0xbbe224f2	-0.006901377
223	0xbdbaff61	-0.09130741
224	0xbcf4e61b	-0.02989488
225	0x3d28634e	0.04111033
226	0xbd7be0ab	-0.061493557
227	0x3db589b1	0.08864153
228	0xbd0cd142	-0.03437925
229	0xbda92292	-0.08258547
230	0x3d8640e1	0.065553434
231	0xbd03d5cf	-0.032186326
232	0xbcd7d07d	-0.026344532
233	0x3d605d30	0.05477637
234	0x3db61ef1	0.0889262
235	0xbd260fb6	-0.040542327
236	0xbc0c3063	-0.008556458
237	0x3c8805bc	0.016604297
238	0x3d26e3a4	0.04074444
239	0xbbc210ee	-0.0059224283
240	0xbbb4b563	-0.005514787
241	0x3d5997e5	0.053123374
242	0xbbf34ab7	-0.007424678
243	0xbd9ad3b8	-0.075599134
244	0xbd1a9133	-0.03773613
245	0xbd904d74	-0.07046023
246	0xbd8926ef	-0.06696879
247	0x3cd47108	0.025932804
248	0x3c4d861a	0.012544179
249	0x3bb0f9a5	0.0054008537
250	0x3dd00f4c	0.10159168
251	0xbbf65f1e	-0.007518663
252	0x3bce144e	0.0062890416
253	0xbcbdfdb4	-0.023192264
254	0xbd2b9bb3	-0.041896533
255	0x3d7eaf9b	0.06217919

policy_network.2.bias f4 [256]
0	0x3d83bf95	0.06433026
1	0x3c5567f6	0.0130252745
2	0x3c829367	0.015939428
3	0x3c294d08	0.010333307
4	0x3d1dce0e	0.038526587
5	0xbd859c70	-0.06523979
6	0x3c73f6d4	0.014890391
7	0xbd952ba5	-0.07283715
8	0xbdad33e8	-0.08457166
9	0xbcbe9908	-0.02326633
10	0xbccfad4d	-0.025351191
11	0xbda4e59c	-0.08051607
12	0xbde069a8	-0.10957652
13	0x3daa877f	0.08326625
14	0xbcc519f0	-0.02406022
15	0xbc9fd9df	-0.019513069
16	0x3d304fed	0.043044973
17	0xbdc0d5dc	-0.094157904
18	0x3dae58e8	0.08513051
19	0xbcdf8dc7	-0.027289284
20	0x3b2b3686	0.0026125028
21	0xbdb562c3	-0.08856728
22	0xbcb9ba3a	-0.022671808
23	0x3d326e00	0.043561935
24	0xbd6c7f41	-0.057738546
25	0x3d7179cd	0.05895405
26	0xbd1863d9	-0.037204597
27	0xbdcb2f45	-0.09921125
28	0x3cd7ecdf	0.026358066
29	0xbdbf8741	-0.093519695
30	0xbd0d7857	-0.034538593
31	0xbdb574c1	-0.0886016
32	0x3d6b5662	0.057455428
33	0xba88465a	-0.0010396943
34	0xbb500eef	-0.0031747182
35	0xbd7b14ee	-0.061299257
36	0xbc5de691	-0.013543741
37	0x3d800cec	0.06252465
38	0xbdbc38c9	-0.091905184
39	0xbd43218c	-0.047639415
40	0x3ce16030	0.027511686
41	0x3db114a3	0.08646514
42	0xbc86b462	-0.016443435
43	0x3d4c0e07	0.049818065
44	0xbd496a81	-0.049173836
45	0xbd054fb2	-0.032546706
46	0x3cf3d6ac	0.02976545
47	0x3d904080	0.070435524
48	0xbc0012ee	-0.007817013
49	0x3d71776c	0.05895178
50	0x3d4d7ff2	0.050170846
51	0xbccbd918	-0.024883792
52	0xbdcd27e0	-0.10017371
53	0x3cc84069	0.024444776
54	0x3d86e60b	0.06586846
55	0x3d61ea40	0.05515504
56	0xbcf0149e	-0.029306706
57	0xbc91c039	-0.017791854
58	0xbdc054f2	-0.09391202
59	0xbd3fedfc	-0.04685782
60	0xbc6ee244	-0.014580313
61	0x3d34d84d	0.044151593
62	0xbdacb276	-0.08432476
63	0x3d30de76	0.043180905
64	0xbc17ed6d	-0.009272915
65	0xbd0fa67a	-0.035070874
66	0xbd887a65	-0.0666397
67	0xbd7588cc	-0.059944913
68	0xbce4feaa	-0.027953465
69	0x3bd1543a	0.0063882144
70	0x3c13d62b	0.00902323
71	0xbd1ae745	-0.037818212
72	0xbc5e1ecb	-0.013557146
73	0xbcd0a6c7	-0.02547015
74	0xbd17a1ef	-0.037019666
75	0xbc83ef12	-0.016105209
76	0xbc999ff3	-0.018753028
77	0x3c795448	0.015217848
78	0x3d99854f	0.0749613
79	0x3cadf440	0.021234632
80	0x3d29f39e	0.041492097
81	0xbc8f8721	-0.01752049
82	0x3ce9a5e8	0.028521493
83	0xbd2badb1	-0.041913692
84	0x3ab69eb2	0.0013932793
85	0xbd651ffd	-0.05593871
86	0xbc808dd6	-0.015692633
87	0xbc5d1015	-0.013492604
88	0x3bc3a987	0.005971137
89	0x3da05cb9	0.078301854
90	0x3d6a3c6c	0.05718653
91	0xbd19af8b	-0.037520926
92	0x3caaed21	0.020865025
93	0x3d11e1d7	0.03561577
94	0x3d5944d1	0.053044144
95	0xbd9b76ca	-0.075910166
96	0xbd8c1fb7	-0.068419866
97	0x3da48ddf	0.08034872
98	0xbd77c158	-0.06048712
99	0xbdeb9c5b	-0.11504432
100	0xbc532919	-0.012888216
101	0x3dca4570	0.098765254
102	0xbd1273df	-0.035755035
103	0x3d0bd4da	0.034138538
104	0xbd3ea624	-0.046545163
105	0xbd828381	-0.06372739
106	0xbd161f0c	-0.036650702
107	0xbcba8af9	-0.022771345
108	0xbd8f0dc4	-0.069850475
109	0x3d5de729	0.05417553
110	0x3d65c70a	0.05609802
111	0xbb76ec91	-0.0037677626
112	0xbb357f90	-0.0027694441
113	0x3d4a6564	0.0494131
114	0xbcbdd31d	-0.023171956
115	0xbcde2554	-0.027117409
116	0x3d37d783	0.044883262
117	0xbdf4b158	-0.11947888
118	0x3d93909e	0.07205318
119	0xbd07bd9e	-0.033139817
120	0x3b0a6716	0.0021118573
121	0x3da698a5	0.081345834
122	0xbc5826bf	-0.013192832
123	0x3d16078e	0.0366283
124	0x3d84a8b2	0.064774886
125	0xbcc1e515	-0.023668805
126	0xbd9cb53f	-0.076517574
127	0x3d930f20	0.07180619
128	0xbd21e888	-0.0395284
129	0xbd1f2c18	-0.03886041
130	0xbd2fd729	-0.042929802
131	0x3d4eba47	0.050470617
132	0xbdbea1f9	-0.093082376
133	0x3cbbcd12	0.022924934
134	0x3dd36046	0.10321097
135	0xbde0e655	-0.10981432
136	0xbcc7bc6b	-0.024381837
137	0xbcb01223	-0.021493023
138	0xbbed1557	-0.00723521
139	0x3d45c37f	0.048282143
140	0x3d85f75b	0.0654132
141	0xbdbf8a63	-0.09352567
142	0xbd9c53c3	-0.07633164
143	0x3d14ebb4	0.036357597
144	0x3d3b8b6d	0.045787264
145	0xbdc32402	-0.09528352
146	0x3d816bad	0.06319366
147	0x3c3e434c	0.0116127245
148	0xbc0d5442	-0.008626046
149	0xbd354c9c	-0.044262514
150	0x3cba5d96	0.022749703
151	0xba666795	-0.00087892386
152	0x3d8b7895	0.068101086
153	0x3d7a94f9	0.061177228
154	0x3cc9707c	0.02458977
155	0x3d538bda	0.051647045
156	0x3cf86b58	0.030324623
157	0xbda6d7cc	-0.08146629
158	0xbd991138	-0.07473987
159	0xbdab90ba	-0.08377214
160	0x3cef92e6	0.029244851
161	0x3cf88e1b	0.030341199
162	0x3d340e04	0.04395868
163	0x3c343363	0.01099858
164	0x3c9617f4	0.018321969
165	0xba7fb86a	-0.0009754958
166	0xbca1c27a	-0.019746054
167	0xbcea9f9e	-0.028640565
168	0xbcc9ff0d	-0.02465775
169	0x3d89afc1	0.067229755
170	0xbd161bfc	-0.03664778
171	0x3db44501	0.08802224
172	0xbda066af	-0.07832085
173	0x3d7a89e9	0.061166678
174	0x3d1c2d12	0.03812892
175	0x3c99136e	0.018686023
176	0x3cf4ddc9	0.029890912
177	0x3aa754b8	0.0012766337
178	0xbd3604bf	-0.04443812
179	0xbd167f17	-0.036742296
180	0x3b5960d3	0.0033169284
181	0xbd1d105a	-0.038345672
182	0xbd8b19ce	-0.06792031
183	0x3d015954	0.03157933
184	0xbda172a4	-0.07883194
185	0x3dcff8d0	0.10154879
186	0xbcf69462	-0.030100051
187	0xbcd45d78	-0.025923476
188	0xbc1220d8	-0.008918963
189	0x3c23e33f	0.01000291
190	0x3d973b17	0.07384317
191	0xbcfa43d6	-0.030549925
192	0x3d11e4b3	0.035618495
193	0xbc61dde7	-0.013785816
194	0x3d85ce5b	0.065335
195	0xbc21d14c	-0.00987656
196	0x3d9a4e60	0.0753448
197	0xbd9df518	-0.077127635
198	0xbd1670eb	-0.03672878
199	0xbd7fbbb5	-0.06243487
200	0x3db7c1d6	0.08972518
201	0x3c036cf4	0.008021582
202	0xbcdb2650	-0.026751667
203	0x3d7b68c6	0.061379217
204	0xbd360c9c	-0.04444562
205	0xbd1ac1f5	-0.037782628
206	0xbd8aec92	-0.067834035
207	0xbcfe3b91	-0.031034263
208	0x3c9f2add	0.019429618
209	0xbbf105f4	-0.007355446
210	0x3d86c959	0.06581373
211	0x3d63f0ec	0.055649683
212	0xbd2912ca	-0.041277684
213	0x3db47638	0.08811611
214	0xbca9db8e	-0.020734575
215	0xbce95866	-0.028484534
216	0xbd44dbc2	-0.04806114
217	0x3cc8b24d	0.024499083
218	0x3c424e9f	0.011859565
219	0x3bb32b68	0.005467821
220	0xbde9ceea	-0.11416419
221	0x3d7082c2	0.05871845
222	0x3d763514	0.060109213
223	0xbc95aa27	-0.018269612
224	0x3d440114	0.04785259
225	0x3c1bf3da	0.009518588
226	0x3db5c37a	0.08875175
227	0xbdb8fd05	-0.09032635
228	0x3d2d3570	0.04228729
229	0x3bd2e254	0.006435672
230	0xbcce8b9c	-0.025213055
231	0xba7d18ab	-0.000965486
232	0x3db41f94	0.087950855
233	0x3d346a9f	0.044046994
234	0xbd0e5d82	-0.034757145
235	0xbd288dd1	-0.04115087
236	0xbd8c5120	-0.06851411
237	0xbd680b3d	-0.056651343
238	0xbd159669	-0.036520395
239	0xbc580b36	-0.013186267
240	0xbc757aaa	-0.014982859
241	0x3d3008d7	0.04297718
242	0xbd73105e	-0.05934178
243	0xbd3391df	-0.043840285
244	0x3cbee6e1	0.023303451
245	0x3bcbaf41	0.0062159603
246	0x3d338cbb	0.043835383
247	0x3d2aa165	0.041657824
248	0x3d306771	0.0430674
249	0xbd6633ae	-0.05620163
250	0x3d240693	0.040045332
251	0xbd92afd9	-0.071624465
252	0x3da320e8	0.07965261
253	0xbb4bb51d	-0.0031083294
254	0xbbb76cb4	-0.005597675
255	0xbd6dcbae	-0.058055572

policy_network.3.weight f4 [256]
0	0x3f6c044f	0.92194074
1	0x3f7db064	0.99097276
2	0x3f7f8c9b	0.9982392
3	0x3f6934c6	0.9109615
4	0x3f737ef8	0.95115614
5	0x3f7580a7	0.9589943
6	0x3f7072da	0.9392525
7	0x3f82f541	1.0231096
8	0x3f855899	1.0417663
9	0x3f76cf85	0.964104
10	0x3f74fad7	0.9569525
11	0x3f6da4c6	0.9282955
12	0x3f7133a0	0.942194
13	0x3f75f152	0.9607135
14	0x3f78a4d5	0.97126514
15	0x3f727820	0.94714546
16	0x3f78cd69	0.9718843
17	0x3f69766f	0.9119634
18	0x3f6da269	0.92825943
19	0x3f7f9b2c	0.9984615
20	0x3f798474	0.9746773
21	0x3f7876d1	0.970563
22	0x3f7bf53d	0.9842108
23	0x3f6c2d52	0.92256653
24	0x3f6a78af	0.915904
25	0x3f707387	0.9392628
26	0x3f7c659f	0.9859256
27	0x3f62a60f	0.88534635
28	0x3f73da8b	0.95255345
29	0x3f6cffef	0.92578024
30	0x3f6d316c	0.92653537
31	0x3f6b7cda	0.91987383
32	0x3f7144f5	0.94245845
33	0x3f83aa9e	1.0286443
34	0x3f7708c2	0.9649774
35	0x3f746774	0.95470357
36	0x3f80159c	1.0006595
37	0x3f63f2e2	0.89042485
38	0x3f6e79bd	0.9315451
39	0x3f73121a	0.94949496
40	0x3f72e9c5	0.94887954
41	0x3f6bb375	0.92070705
42	0x3f833da6	1.0253189
43	0x3f76b494	0.9636929
44	0x3f7a95da	0.97884905
45	0x3f775d12	0.9662639
46	0x3f76a221	0.9634114
47	0x3f6f95fb	0.9358823
48	0x3f79f39a	0.9763733
49	0x3f762085	0.9614337
50	0x3f6d4f3a	0.92699015
51	0x3f801e40	1.0009232
52	0x3f71de86	0.9448017
53	0x3f67d3af	0.9055738
54	0x3f72a4c7	0.9478268
55	0x3f6f67eb	0.9351794
56	0x3f774940	0.96596146
57	0x3f6ab767	0.916861
58	0x3f6bd688	0.92124224
59	0x3f742085	0.9536212
60	0x3f741b6a	0.9535433
61	0x3f7c76ef	0.9861898
62	0x3f6d8d31	0.92793566
63	0x3f6697de	0.9007548
64	0x3f752844	0.95764565
65	0x3f809116	1.0044277
66	0x3f6ef6fc	0.9334562
67	0x3f8068bc	1.0031962
68	0x3f6f4cf7	0.93476814
69	0x3f716f1e	0.94310176
70	0x3f72603b	0.94678086
71	0x3f7eb21e	0.99490535
72	0x3f6c15ec	0.9222095
73	0x3f865fd5	1.0497996
74	0x3f784573	0.9698097
75	0x3f7f5b95	0.9974912
76	0x3f6e0aa7	0.92985004
77	0x3f72db8f	0.9486627
78	0x3f76688e	0.9625329
79	0x3f6de8ab	0.9293315
80	0x3f8040b6	1.0019748
81	0x3f723ff5	0.9462884
82	0x3f7d839d	0.9902895
83	0x3f73b3b7	0.951961
84	0x3f730cb1	0.9494124
85	0x3f7774da	0.96662676
86	0x3f711484	0.9417193
87	0x3f73193e	0.9496039
88	0x3f7650da	0.9621712
89	0x3f6b46ad	0.9190472
90	0x3f6e61a6	0.9311775
91	0x3f77f053	0.9685108
92	0x3f68466d	0.9073246
93	0x3f6f65fb	0.93514985
94	0x3f7363de	0.9507426
95	0x3f78689f	0.9703464
96	0x3f8624df	1.0480002
97	0x3f794bae	0.97381103
98	0x3f653e21	0.89547926
99	0x3f681bda	0.906675
100	0x3f795901	0.97401434
101	0x3f73cf1f	0.95237917
102	0x3f6575b0	0.896327
103	0x3f71984b	0.94373006
104	0x3f6dcdcb	0.9289214
105	0x3f7c0c54	0.9845631
106	0x3f728b2e	0.9474362
107	0x3f7d797c	0.99013495
108	0x3f82e690	1.0226612
109	0x3f6d7756	0.9276022
110	0x3f82adcf	1.0209292
111	0x3f71f2e9	0.94511276
112	0x3f7ed816	0.9954847
113	0x3f6228cf	0.8834352
114	0x3f7c93eb	0.98663205
115	0x3f6ce979	0.9254375
116	0x3f6d89a3	0.9278814
117	0x3f691e62	0.91061985
118	0x3f78975c	0.97105956
119	0x3f6c7e32	0.9238006
120	0x3f6e2a35	0.9303315
121	0x3f762b35	0.9615968
122	0x3f7f95c3	0.99837893
123	0x3f6ada08	0.9173894
124	0x3f7116f7	0.94175667
125	0x3f6bbadf	0.9208202
126	0x3f6ab106	0.91676366
127	0x3f6b3e8a	0.918923
128	0x3f67a1aa	0.90481055
129	0x3f6d4f51	0.9269915
130	0x3f7f6e33	0.99777526
131	0x3f6aa7e8	0.91662455
132	0x3f740936	0.95326555
133	0x3f7e5311	0.993455
134	0x3f6b4785	0.91906005
135	0x3f76f7d8	0.9647193
136	0x3f761c7b	0.9613721
137	0x3f7aa759	0.979116
138	0x3f6d3325	0.92656165
139	0x3f7ea4c9	0.9947019
140	0x3f6d441e	0.92682064
141	0x3f6ffb75	0.9374307
142	0x3f7c52eb	0.9856402
143	0x3f70a84d	0.94006807
144	0x3f69242f	0.91070837
145	0x3f735bb1	0.95061785
146	0x3f66b107	0.9011387
147	0x3f7c80c2	0.9863397
148	0x3f707d59	0.93941265
149	0x3f7aa518	0.97908163
150	0x3f7287b8	0.9473834
151	0x3f6bc8f1	0.9210349
152	0x3f77e7ae	0.9683789
153	0x3f83a877	1.0285786
154	0x3f69386c	0.9110172
155	0x3f6f531a	0.9348618
156	0x3f6b9bef	0.9203481
157	0x3f75ca14	0.9601147
158	0x3f6ad069	0.9172426
159	0x3f742283	0.9536516
160	0x3f75d19d	0.9602297
161	0x3f71a2e1	0.9438916
162	0x3f6e4185	0.93068725
163	0x3f6c34e5	0.9226821
164	0x3f67ffa9	0.9062448
165	0x3f7267e1	0.94689757
166	0x3f69ed47	0.9137768
167	0x3f75cfe3	0.96020335
168	0x3f72dfaa	0.94872534
169	0x3f74d8be	0.9564322
170	0x3f84f1ea	1.0386326
171	0x3f64d51a	0.8938767
172	0x3f69b62f	0.91293615
173	0x3f6e49c6	0.9308132
174	0x3f852287	1.0401162
175	0x3f6bf3c1	0.92168814
176	0x3f70a8f7	0.9400782
177	0x3f7b46de	0.9815501
178	0x3f6fdda9	0.936976
179	0x3f6eba33	0.9325287
180	0x3f7164ae	0.9429425
181	0x3f6af2b7	0.91776603
182	0x3f6ef80d	0.93347245
183	0x3f6c6461	0.92340666
184	0x3f6fc578	0.9366069
185	0x3f6ca33e	0.9243659
186	0x3f70fdcb	0.9413726
187	0x3f7d3034	0.9890168
188	0x3f7a8a3c	0.9786718
189	0x3f74e64a	0.95663893
190	0x3f6f405e	0.9345759
191	0x3f735bd9	0.95062023
192	0x3f6d3483	0.9265825
193	0x3f769fd6	0.9633764
194	0x3f6b3fc6	0.91894186
195	0x3f6daed5	0.928449
196	0x3f6d0668	0.925879
197	0x3f75e2d3	0.9604923
198	0x3f844f9f	1.0336798
199	0x3f6d9498	0.9280486
200	0x3f6f7c18	0.9354873
201	0x3f728a0a	0.9474188
202	0x3f6e8195	0.93166476
203	0x3f706044	0.9389689
204	0x3f69c3a1	0.9131413
205	0x3f744561	0.95418364
206	0x3f822ffc	1.0170894
207	0x3f74df6e	0.95653427
208	0x3f822d11	1.0170003
209	0x3f7102f3	0.94145125
210	0x3f7d2e6e	0.9889897
211	0x3f6e05ed	0.9297779
212	0x3f695442	0.9114419
213	0x3f7aaff2	0.9792472
214	0x3f86145a	1.0474961
215	0x3f6cb2b8	0.92460203
216	0x3f678203	0.9043276
217	0x3f6ed011	0.93286234
218	0x3f714970	0.9425268
219	0x3f717230	0.9431486
220	0x3f6d5621	0.9270955
221	0x3f69680d	0.91174394
222	0x3f7b5ceb	0.98188657
223	0x3f703ceb	0.93842953
224	0x3f69fb4c	0.91399074
225	0x3f6df86d	0.9295719
226	0x3f7e7123	0.9939138
227	0x3f7c41d9	0.98537976
228	0x3f7b7416	0.9822401
229	0x3f7658fb	0.96229523
230	0x3f7b27a5	0.9810737
231	0x3f78089a	0.96888125
232	0x3f7467da	0.95470965
233	0x3f8418b3	1.0320038
234	0x3f7c4ccd	0.9855469
235	0x3f752595	0.9576047
236	0x3f7bb76e	0.98326766
237	0x3f7268fb	0.9469144
238	0x3f746e3f	0.9548072
239	0x3f6b2e46	0.9186748
240	0x3f610e27	0.8791222
241	0x3f6cbd9a	0.9247681
242	0x3f775051	0.9660693
243	0x3f715f28	0.9428582
244	0x3f72f2a0	0.94901466
245	0x3f7a2b55	0.9772237
246	0x3f6bec6f	0.92157644
247	0x3f7aa052	0.9790088
248	0x3f75e228	0.9604821
249	0x3f7ac8b5	0.97962505
250	0x3f72afa8	0.9479928
251	0x3f7b966d	0.98276407
252	0x3f730c08	0.94940233
253	0x3f7b4996	0.9815916
254	0x3f7015d9	0.93783337
255	0x3f6a7144	0.9157908

policy_network.3.bias f4 [256]
0	0xbe67d003	-0.22637944
1	0xbe293107	-0.16522609
2	0x3e5e8f5d	0.21734376
3	0xbe21532d	-0.15754385
4	0xbe5bb415	-0.21455415
5	0xbe128c30	-0.1431129
6	0xbdf64e77	-0.12026685
7	0x3e321c57	0.17393623
8	0x3e257d91	0.16161181
9	0xbddccf51	-0.1078173
10	0xbc39b4e1	-0.011334629
11	0xbe85ab3a	-0.26107198
12	0x3dade52d	0.084909774
13	0xbe55a92a	-0.20865312
14	0xbb86f406	-0.0041184453
15	0xbe6273f9	-0.22114553
16	0x3e7f3012	0.24920681
17	0x3e6836a1	0.2267709
18	0xbc8ea68a	-0.017413396
19	0xbe642d12	-0.22282818
20	0x3e481407	0.1953889
21	0x3e669196	0.22516474
22	0x3d189e1e	0.037260167
23	0x3d16c1dd	0.036805976
24	0x3dd3a0e6	0.10333423
25	0x3e4bcf41	0.1990328
26	0x3dbc942b	0.09207948
27	0x3d26745a	0.040638305
28	0xbe2da873	-0.1695879
29	0x3df8198e	0.12114249
30	0x3e54dd95	0.20787652
31	0x3e5f8601	0.21828462
32	0x3e06a22c	0.13147801
33	0x3e0a5d03	0.13512044
34	0x3e539fe1	0.20666458
35	0x3dcd9bf3	0.100395106
36	0xbd8a755c	-0.06760666
37	0x3d8eb17c	0.06967446
38	0xbe2257f7	-0.15853868
39	0x3ca3de45	0.020003447
40	0x3e5f83fe	0.21827695
41	0xbddb2903	-0.10701182
42	0x3e3559a3	0.17709975
43	0xbe1ef53e	-0.1552324
44	0x3e0dba8d	0.13840695
45	0xbe0b6b7f	-0.13615225
46	0xbc165b83	-0.0091770915
47	0xbdaa5ff2	-0.08319081
48	0x3e1bdede	0.15221736
49	0x3ca0a8d3	0.019611752
50	0x3da286ed	0.07935891
51	0x3d184c44	0.037182108
52	0x3e226ac4	0.1586104
53	0xbe508d06	-0.20366296
54	0xbdfcc45d	-0.12342141
55	0x3cdffb02	0.02734137
56	0xbe5612f7	-0.20905672
57	0xbdb4fc75	-0.08837215
58	0x3e4e9eda	0.20177785
59	0xbe3b985c	-0.18319839
60	0xbe32cd22	-0.17461064
61	0x3e5d8bcb	0.21635358
62	0x3e5afbef	0.21385168
63	0x3d8d77fb	0.0690765
64	0x3e5e927a	0.21735564
65	0x3d7b1427	0.061298516
66	0x3e70fc9c	0.23533863
67	0xbe0af9d8	-0.1357187
68	0xbe2fad4f	-0.17155956
69	0xbe43fa95	-0.19138558
70	0xbe5f5f50	-0.21813703
71	0xbe23f42a	-0.1601111
72	0x3e7746bb	0.24148075
73	0xbd672692	-0.056433268
74	0xbe50ed88	-0.20403111
75	0x3cd33744	0.025783189
76	0x3e551a07	0.2081071
77	0xbe202917	-0.15640675
78	0x3e133aab	0.14377849
79	0xbdd703e0	-0.10498786
80	0x3c386226	0.011253869
81	0xbdac0461	-0.08399273
82	0x3e87732f	0.26455066
83	0xbd85f987	-0.06541734
84	0xbe426fef	-0.18988012
85	0xbe4b72df	-0.19868039
86	0x3e640400	0.22267151
87	0x3e500070	0.20312667
88	0x3e58fb5e	0.21189639
89	0x3e494a39	0.1965722
90	0x3e2fa279	0.17151822
91	0xbe09bc26	-0.13450679
92	0xbe13ec41	-0.14445592
93	0x3bef94b1	0.0073114266
94	0xbbf131a3	-0.0073606535
95	0x3e7afcb6	0.24510464
96	0xbe02992e	-0.12753746
97	0x3debb2e9	0.11508734
98	0xbe4c73a3	-0.19965987
99	0x3e64cc28	0.22343504
100	0x3e59a349	0.21253695
101	0xbe768fe5	-0.24078329
102	0xbc21d516	-0.009877464
103	0xbe655aab	-0.22397868
104	0xbe4e57c3	-0.20150666
105	0xbe5d0506	-0.21583948
106	0xbda93408	-0.08261877
107	0xbd2129dc	-0.03934656
108	0x3e34c7fb	0.17654411
109	0xbe331188	-0.17487156
110	0x3e47198e	0.19443342
111	0x3d7a67e5	0.061134238
112	0xbe601af1	-0.21885277
113	0xbd99d948	-0.07512146
114	0xbe780787	-0.24221621
115	0x3e471412	0.1944125
116	0xbda75c99	-0.081719585
117	0x3d9c1ac6	0.07622294
118	0x3e6ef213	0.23334531
119	0x3e2c214d	0.16809578
120	0x3e58264e	0.21108362
121	0x3e13109c	0.14361805
122	0x3e519512	0.20467022
123	0x3e4cd247	0.2000209
124	0x3e611861	0.21981956
125	0x3d8edffc	0.069763154
126	0x3e52e884	0.2059651
127	0xbdf1cee1	-0.11807037
128	0x3e157db6	0.14598736
129	0xbe55754d	-0.20845528
130	0xbe1bae9d	-0.15203328
131	0xbdcbb7a6	-0.099471375
132	0x3e59d96b	0.21274345
133	0xbdfe129a	-0.12405892
134	0xbd235120	-0.03987229
135	0x3e643eb1	0.2228954
136	0x3e3afa75	0.18259604
137	0xbd53fad2	-0.051752873
138	0x3e3ff41e	0.18745467
139	0x3e1be043	0.15222268
140	0x3e63acb5	0.22233851
141	0x3de9a6b9	0.11408753
142	0xbc24908a	-0.010044226
143	0x3e2a4202	0.16626742
144	0xbd91c2f6	-0.07117264
145	0xbe4b5f12	-0.19860485
146	0xbe85a421	-0.26101783
147	0xbe4d2239	-0.20032586
148	0x3d304b65	0.04304065
149	0x3e4d96ae	0.20077011
150	0x3e134b89	0.14384283
151	0x3e36ecee	0.17863819
152	0x3e542cae	0.20720169
153	0x3e6a37d0	0.22872853
154	0x3e59c91b	0.21268122
155	0x3e6f34f1	0.2336004
156	0xbcbd27ac	-0.023090206
157	0x3e203994	0.15646964
158	0xbe3380fa	-0.1752967
159	0x3e716e7f	0.23577307
160	0xbe4962d5	-0.19666608
161	0xbe51483e	-0.20437714
162	0x3e00cf67	0.12579118
163	0xbe4c98f3	-0.1998022
164	0x3e42faf7	0.19041048
165	0xbe481342	-0.19538596
166	0xbe7c6575	-0.24648078
167	0xbe39abda	-0.18131962
168	0x3e79ef20	0.24407625
169	0xbe5105e7	-0.20412408
170	0xbc80d831	-0.015728088
171	0xbdc624fd	-0.09675024
172	0x3df668c7	0.120317034
173	0x3e213bdb	0.1574549
174	0xbc10cca2	-0.008837851
175	0xbe6e8bfb	-0.23295586
176	0xbe6994ce	-0.2281067
177	0xbe37d35b	-0.1795172
178	0x3e218260	0.1577239
179	0xbd1a4d60	-0.037671447
180	0xbe371f95	-0.17883141
181	0xbe09517a	-0.13409987
182	0x3def2914	0.11677757
183	0x3e09b0dc	0.13446373
184	0x3e3d07c9	0.18460001
185	0xbe7fb579	-0.2497157
186	0x3db84bbf	0.089988224
187	0x3e34c5d6	0.17653593
188	0xbdf0480d	-0.117324926
189	0xbe3d3631	-0.18477704
190	0xbe1a7a09	-0.15085615
191	0xbdefa0a7	-0.11700564
192	0xbdc1f99c	-0.09471437
193	0xbe1c7999	-0.15280761
194	0x3e720c6f	0.23637556
195	0xbdfdaf24	-0.12386921
196	0xbe67131f	-0.22565888
197	0x3deb4b27	0.114889435
198	0x3e3e6d0f	0.1859629
199	0x3e083a6f	0.1330354
200	0xbde4afd9	-0.11166353
201	0x3c9aa78c	0.01887872
202	0xbe527ce2	-0.20555452
203	0x3d544709	0.051825557
204	0xbe0be8d2	-0.13663033
205	0x3e3b3016	0.18280062
206	0xbe5293f1	-0.20564248
207	0xbe236a11	-0.1595843
208	0x3e504ff3	0.20342998
209	0x3deabbca	0.11461599
210	0xbe58420e	-0.21118948
211	0x3c4fd2bb	0.012684519
212	0x3e73b32d	0.23798819
213	0xbe6ef731	-0.23336484
214	0x3d48a62a	0.04898659
215	0xbe48c326	-0.19605693
216	0xbd9af11e	-0.07565521
217	0xbdbf085b	-0.093277656
218	0xbe0f4bfe	-0.13993832
219	0x3e54cffb	0.20782463
220	0x3e3e5842	0.18588355
221	0xbe170174	-0.14746648
222	0xbe494dd7	-0.196586
223	0x3e094adb	0.13407461
224	0x3d276482	0.040867336
225	0x3e825b08	0.25460076
226	0xbe673832	-0.2258003
227	0xbbd39254	-0.0064566527
228	0x3e2c3625	0.1681753
229	0x3e2000cc	0.15625304
230	0xbe33b9bf	-0.17551325
231	0x3e42d3a8	0.19026053
232	0xbe188e41	-0.14898016
233	0x3df6fe3d	0.12060211
234	0x3e3dbc1a	0.18528786
235	0xbe83abf2	-0.2571712
236	0x3db11eba	0.08648439
237	0x3e1094fa	0.1411933
238	0x3e56adc3	0.20964722
239	0xbe54b9c8	-0.20773995
240	0xbe412486	-0.18861589
241	0x3db29363	0.08719518
242	0x3e38791f	0.18014954
243	0xbe2c41e9	-0.16822018
244	0x3e5d2efc	0.21599954
245	0x3e4e54c0	0.20149517
246	0x3e43f5df	0.19136761
247	0x3cfb8d36	0.030706983
248	0xbc6ca504	-0.01444364
249	0x3d14be6a	0.036314406
250	0x3e6a2da1	0.22868969
251	0x3e0255d4	0.12728053
252	0xbd4668ed	-0.04843991
253	0xbc1c286c	-0.009531122
254	0xbe102615	-0.14077027
255	0x3e544e23	0.20732932
