Results/XRP-USD/DeepRL; DATA_KIND(AutoPatternExtraction); BEGIN_DATE(None); END_DATE(None); SPLIT_POINT(2021-10-07); StateMode(5); WindowSize(12); BATCH_SIZE10; GAMMA0.7; REPLAY_MEMORY_SIZE20; TARGET_UPDATE5; N_STEP10/model.pkl (torch, 171189 bytes, 14 tensors)

policy_network.0.weight f4 [128, 48]
00000000: dc8c 9f3e 980d 31bd 9586 953e 7d7e ae3d
00000010: 2061 cb3d f4ae 4f3d dd0f 8fbd c16e 8e3e
00000020: 366e 663d 3989 5c3e 7699 183e e26f d4bd
00000030: 7b66 5c3e 8106 8c3d 51b3 55bc b804 273e
00000040: f830 a53d 00fc 1e3e 3981 9f3d 41ff 6d3e
00000050: 4f2b 643b 6e67 c63e a0b2 3d3e 4f52 793e
00000060: 0098 9d3e be63 523e c809 1f3e 6add cc3d
00000070: d795 b03d 7de8 913e 8880 c03e 5cdb 7cbe
00000080: 6e6b 1d3d ca2e ee3e 7f47 a6be 970f 113d
00000090: 48d5 f03e b933 57be 3657 8b3e 114e cd3e
000000a0: ea29 2bbc 0d55 a83e da8d 0b3f d3a1 87bc
000000b0: 7e71 e03d 332d 7a3e b2ca eb3b 180b 2e3c
000000c0: df6f 7d3e 0c0b 713e 21a0 a3bd 86d5 12bd
000000d0: 8cb5 27be 85ad 54be 32d6 0f3e d95f 8bbd
000000e0: 0167 fabb 6531 9f3b 08de f3bd cae7 48be
000000f0: 935a a53d 1a40 b6bd 8433 adbc 5559 e2bc
00000100: b848 9dbe c4d5 013e ca18 243e ebad 8dbe
00000110: 948d c8bd a406 24bd 2aca a4bd aa2c 21be
00000120: 6b26 20bc 35bc 81be 2687 05bc f28f c83d
00000130: d680 12be 0fa4 323d 53d2 79bd 2010 91bd
00000140: ec60 2e3d 82b3 89bc 4c5c 063d ab2f 2a3d
00000150: d170 efbd b232 0a3e 1c97 f9bc 109a 683c
00000160: aeab 44be 6c2e 393d 58c9 98bd 5807 1e3e
00000170: 0911 e63c e5fc e93e c825 273f 394b dd3f
00000180: 828f 72be 38db 0dbf 0003 94bd ceae 06be
00000190: b822 dbbe de9c c8be ccc2 d2bd d69f 77be
000001a0: 93e0 b9be fa80 f93c e742 ebbe 2cff aabe
000001b0: 5e77 8c3e 9cb0 11bf b83b eb3d 958e ea3e
000001c0: 41f1 81be f507 143e d317 063f ff56 fb3d
000001d0: e46e 703e aab7 9c3e 6045 3c3e 1acb 2e3d
000001e0: 1ffe 9c3b e75a a03c e1a2 b93c f1f6 d63d
000001f0: 8157 4e3d bfbc de3c 7f95 31be 3a2a 51be
00000200: a76e 0ebe 30fe 48bd 8491 aabe 0e8c 48be
00000210: d697 523c d33d 61be eacd 41bc 2fb4 913e
00000220: abeb 08bc 36f8 60b8 4fab 973e 7a78 89be
00000230: 0312 a6bd b356 3e3e e900 efbc ed4a 053d
00000240: 0c5e be3d be44 cc3e 7e4d dc3e 0824 543e
00000250: f4ed c93e 37b6 933e 89cf 8abc 8768 3c3f
00000260: 7694 e63e 0b76 c8bd d63b 013f 2b2c 6d3e
00000270: 7318 083e 1e6b 933e a308 3a3d 89ae 223e
00000280: 08ab 8a3e bf29 b13e dd99 31be 9d60 9c3d
00000290: 6911 b5bb f2e5 81bd 5590 c83e 2d6a ff3c
000002a0: 6c10 e5bc f92b d2bd ba47 203e 4f75 1cbe
000002b0: 9f17 633c 3ec0 d43b cbb2 0d3e b025 83be
000002c0: 6e8a c1bd 1dee bc3e adfb a9bd 2711 963e
000002d0: 9d45 433e 3640 0fbd edf9 613e 8093 023f
000002e0: 24de 7cbc d5b7 603d 8581 a43e e2f0 6bbd
000002f0: 2ae7 cbbd 008e 723e b8f7 babd fb54 89bc
00000300: c203 e4bc 495d 8fbc 3895 97bd f868 cc3d
00000310: 0a99 cd3d 5924 403d 4a6e 453d 64d8 61bb
00000320: c091 41be c6c9 06be 1d4f c53b 45ba 243d
00000330: 61ad 5fbd 5b6c 16be 676b 7cbd 03f8 23be
00000340: 45cf 01bd 1639 a7be 22b7 acbe c16d e4bd
00000350: df56 d8be c9cf 18be db5c 3abe 8074 cbbd
00000360: c48e 36bd 9cd3 ac3e 72ad 433e e545 38be
00000370: 96d3 043f bf5b 72bd 4749 fc3c 94a6 e33e
00000380: 766b 9abd 482c a7be cf8f 8b3d d956 1fbf
00000390: bfc3 72be 8e9a a7be 5b8e acbe 55b5 8bbe
000003a0: 5463 8f3d bb58 b9be 5a7c 7bbe dd5b 59be
000003b0: d234 6fbe 4404 8bbe 7248 71be cd45 52bf
000003c0: 66b6 673d 0778 60bd 1439 1bbe 4f4c 6ebd
000003d0: 738e e0be 8e83 7bbd 0e7e 763e 7ecb e9be
000003e0: 0a5a 1a39 e78d 5c3d 8cba 41be 9302 3fbd
000003f0: 2356 593e 4118 2cbe 2c42 4b3d d072 b23d
0.31162155 -0.043225855 0.2920424 0.085202195 0.099306345 0.050703958 -0.069854476 0.27818874
0.05625745 0.21536721 0.1490229 -0.103729025 0.21523468 0.06837178 -0.013043241 0.16310394
0.08065981 0.15525818 0.07788319 0.23241903 0.0034815853 0.38750786 0.18525171 0.24347804
0.3078003 0.20545861 0.15531075 0.10003169 0.0862233 0.28497687 0.37598062 -0.24693054
0.03843253 0.46520072 -0.32476422 0.03541526 0.4703772 -0.21015824 0.27214974 0.40098622
-0.010447005 0.3287739 0.54513323 -0.016556656 0.10959147 0.24431305 0.007195794 0.010622762
0.24749707 0.2353937 -0.079895265 -0.035848163 -0.16377848 -0.20769317 0.14046553 -0.06805391
-0.0076416736 0.004858183 -0.119075835 -0.1961967 0.08073916 -0.08898945 -0.021142729 -0.027630487
-0.30719543 0.12679201 0.16025081 -0.2767175 -0.09792629 -0.040045395 -0.08046372 -0.15739694
-0.009774785 -0.25338903 -0.008149898 0.097930804 -0.1430696 0.04361349 -0.060991596 -0.07083154
0.0425729 -0.016809229 0.032802865 0.041549366 -0.1169144 0.13495901 -0.030467562 0.014196888
-0.19206116 0.045210287 -0.07460278 0.15432489 0.028084295 0.45700756 0.65292025 1.7288581
-0.23687556 -0.55412626 -0.07227135 -0.1315262 -0.42799926 -0.3918218 -0.10291061 -0.24182066
-0.3630415 0.030457009 -0.4594948 -0.33397806 0.2743482 -0.5691011 0.11486 0.45811906
-0.25379375 0.1445616 0.523801 0.122724526 0.23479801 0.30608875 0.1838584 0.04267416
0.004791036 0.019574596 0.022660675 0.10496319 0.05037642 0.02718961 -0.17342184 -0.20426264
-0.13909398 -0.049070537 -0.33314145 -0.19584677 0.012853583 -0.2199624 -0.011828879 0.28457782
-0.008356969 -5.3636926e-05 0.29622886 -0.2684973 -0.08108904 0.1858776 -0.029175239 0.032542158
0.09295282 0.39896196 0.43027872 0.2071687 0.39439356 0.28849956 -0.016944664 0.73596996
0.45035142 -0.0978814 0.5048193 0.2316138 0.13290577 0.2879266 0.045418393 0.15886892
0.2708361 0.34602162 -0.1734385 0.07635615 -0.005525757 -0.06342687 0.39172617 0.031178558
-0.027961932 -0.10262293 0.15652362 -0.15279125 0.013860612 0.0064926436 0.13837735 -0.2561469
-0.094502315 0.36900416 -0.082999565 0.2930996 0.19069524 -0.034973346 0.22067995 0.5100632
-0.015433822 0.054862816 0.32130066 -0.05760277 -0.099562004 0.23686981 -0.0912928 -0.016764155
-0.027833823 -0.017500537 -0.07401508 0.09980959 0.100389555 0.046909664 0.048200883 -0.0034461254
-0.18903255 -0.13162908 0.006021394 0.040216703 -0.054608706 -0.14689772 -0.061625864 -0.16012578
-0.03169181 -0.3266074 -0.3373347 -0.111537464 -0.42253777 -0.14923014 -0.18199484 -0.0993433
-0.044569746 0.33755195 0.19109133 -0.17995413 0.51885355 -0.059169527 0.03079666 0.44463027
-0.07540028 -0.3265097 0.06814539 -0.62241894 -0.23707484 -0.32735103 -0.3370236 -0.27286783
0.07001367 -0.36200508 -0.24559155 -0.2122645 -0.23359993 -0.27151692 -0.23562792 -0.8213776
0.056570433 -0.054801967 -0.15158492 -0.058178242 -0.4385868 -0.061404757 0.24071524 -0.45663065
0.00014720127 0.053846266 -0.18918818 -0.046633314 0.21224265 -0.16806127 0.049623653 0.08713305

policy_network.0.bias f4 [128]
00000000: c3cb f6be ef70 7fbd d7eb 77be e641 dfbe
00000010: 19b3 c2be 2952 31be 534c 9e3c 27a8 8cbe
00000020: ad68 c3be ee4a dd3c 501b e5be d77b f5bc
00000030: 85ca 05bf 4e9a dd3e ba80 f3bb ec0e 01bf
00000040: 1f05 29bc 1f77 64bd aad7 4f3d afc3 ddbc
00000050: 20e2 02bd 125f dd3e 21bd 243d 81dd 87bd
00000060: fe92 873e 7d22 f4bc 58ea 00bf 203c 7a3e
00000070: c924 5a3d 2f6f 033f 4c4c e93e 1ca8 25be
00000080: afc2 eabe ebd1 f83a 7463 1abf 0d4e 613d
00000090: 1b6d fe3e 54d3 22be 3cf0 96be 827d 273d
000000a0: 968d f23e bb7b 993e 5c7c 76bc 82f6 edbe
000000b0: 8593 db3a 19da b4be 4b9d 5e3d f8de 17bd
000000c0: 6170 84bb f934 b6be ad02 103f db31 89bc
000000d0: a64a abbe ed02 1a3f ec7a 363e 9852 c5bd
000000e0: f736 4bbc a461 05bd b0cf cfbe fde6 653d
000000f0: 78a5 043f 0a73 0f3e e181 133e 93ce dd3e
00000100: 3b16 cf3c dd9c cd3d acd0 d93c 1e23 1b3e
00000110: d80e 8abe 6e12 643e fa57 4bbe 153a 7f3e
00000120: f000 04be aaf1 023f 00df 063f 4228 4cbc
00000130: a484 5c3d 378d 873e c31a ac3e 76cc 6a3d
00000140: 2eda 933c d717 90be 82ea f33d 442b b03e
00000150: 7178 84bc fce6 2dbe 1e74 46be e1b8 fc3b
00000160: 335b 373f e877 c53e 6abc 8ebe f894 c43e
00000170: a18f 56bc 2b0e 2bbf 29de a23d f266 1c3e
00000180: 5b89 b3be e7de aebe 3745 1b3c 76d3 0a3c
00000190: 0c91 c0be f20b 2e3d 6149 283c 9417 433e
000001a0: f0e6 d4bb 1f52 a6be 56c7 18be b4e3 e53c
000001b0: e012 dbbc 06e8 0fbd c685 f3be ebb8 2bbf
000001c0: ea58 b13d a20f d7be d0d9 933e 404e f43c
000001d0: fc2b ecbc e248 833b 2183 943e 6849 46bd
000001e0: abce 4e3e dccc d1be f0aa a73e 9a46 283f
000001f0: 0d12 a33d 7ded 8bbc 459d da3e 8f99 993e
-0.48202333 -0.06236356 -0.2421106 -0.43604964 -0.38027266 -0.17316498 0.019323504 -0.2747204
-0.381658 0.027013268 -0.447474 -0.029966278 -0.52262145 0.43281788 -0.007431117 -0.50413394
-0.010316162 -0.055777665 0.050742783 -0.027070848 -0.03195393 0.43236595 0.04021943 -0.066340454
0.26479334 -0.029801602 -0.5035758 0.24436998 0.053257737 0.5134153 0.45566022 -0.1617741
-0.45851657 0.0018983459 -0.60308003 0.055006076 0.49692616 -0.15900928 -0.2948016 0.040891178
0.47373646 0.2997721 -0.015044298 -0.46477133 0.0016752338 -0.35322645 0.054349225 -0.037077874
-0.004041717 -0.3558729 0.5625408 -0.016747406 -0.3345539 0.60160714 0.17820328 -0.09634894
-0.012403241 -0.03256382 -0.4058814 0.05612849 0.51814985 0.14008728 0.14405014 0.43321666
0.025279155 0.10039685 0.02658876 0.15150115 -0.2696445 0.22272655 -0.19857779 0.249245
-0.12890983 0.5115 0.5268402 -0.01246077 0.053837433 0.26474926 0.33614168 0.057323895
0.018048372 -0.28143188 0.11909963 0.3440801 -0.016170712 -0.16982645 -0.19380233 0.007712469
0.71623534 0.38568044 -0.27878124 0.38394904 -0.013095767 -0.66818494 0.0795253 0.15273646
-0.3506573 -0.34154436 0.009476951 0.008473268 -0.37610662 0.04249186 0.010271401 0.19051963
-0.0064972565 -0.32484528 -0.1491979 0.028062679 -0.026742399 -0.035133384 -0.47563 -0.6707904
0.08659537 -0.42004114 0.28877115 0.029822469 -0.028829567 0.004006491 0.29006293 -0.04840985
0.20196025 -0.40976608 0.32747602 0.6573273 0.07962427 -0.017081017 0.42698112 0.29999968

policy_network.1.weight f4 [128]
00000000: 0fad 533f 17ca 353f 4a24 9a3f 92d1 513f
00000010: dd00 053f 389a 9c3f 0a30 b33f cf92 453f
00000020: d725 133f 1fbf b43f 830f 913f e79b c13f
00000030: fd55 6e3f 7cb5 e73e 9c6b 9d3f f3d3 543f
00000040: 3b86 7a3f 9a11 883f 8143 243f cb43 993f
00000050: 840d 2c3f b1ad 403f 7f81 cb3e d452 2f3f
00000060: 529b 383f d2cf 763f 45ed 603f 3281 963f
00000070: 20a4 6a3f 50a4 a13f b3fe 693f d5eb 173f
00000080: 119d 683f 692e 823f 9b1a 593f f14b 873f
00000090: 7bf0 2c3f f69a 733f 9af8 153f 8cdb a93f
000000a0: 42e5 4f3f 5b63 503f 5932 403f 355b 8e3f
000000b0: 39b0 c13f 1a63 663f 2642 e03e 3216 823f
000000c0: f06b 8d3f 3d11 3f3f 3d05 6b3f 3386 9f3f
000000d0: 8363 553f c9f0 943f 8a12 153e 7790 943f
000000e0: 85d1 b63f 50b1 bb3f 964d f43e f052 6a3f
000000f0: 3c04 643f 8e00 9f3f c219 4f3f 60ef c53f
00000100: 6944 5e3f 59bb b13f 4587 7c3f 0bf4 7c3f
00000110: a45f 823f 4f76 303f f03a 8e3f 0666 ab3f
00000120: c782 193f d291 0b3f 6c7c 7c3f d379 9d3f
00000130: 4d11 5f3f 0624 803f 0df1 a33f f0f8 883f
00000140: 9080 853f 5bbc bf3e 723a 503f 838f 703f
00000150: f471 883f a02e 6a3f b07e 313f 2507 b03f
00000160: 42a4 203f 1f26 2a3f 1d6b f83e a9f1 843f
00000170: 1a16 433f 2651 273f 5977 333f cf06 8f3f
00000180: dcf4 653f ed26 953f ccb0 993f c39d b83e
00000190: 31b0 5f3f 5f6b 8a3f 4f4b 833f 5d40 463f
000001a0: 0b36 9f3f 576a 023f dfb1 973f 17d5 813f
000001b0: 2526 373f b581 8b3e 37c4 4d3f a30d 713f
000001c0: 9b96 813f 9905 7c3f 57de 2a3f 808a 6b3f
000001d0: dd28 a53e 35c9 193f a923 a13f 00f7 a43f
000001e0: a91e 853f 45ac 153f db23 513f 8094 623f
000001f0: 98fd a23f 5519 983f be52 893f ff90 363f
0.8268594 0.7101149 1.2042325 0.81960404 0.5195444 1.2234564 1.3999035 0.7717714
0.57479614 1.4120826 1.1332859 1.5125703 0.9309996 0.4525565 1.2298465 0.8313591
0.9786107 1.0630372 0.641655 1.1973814 0.67208123 0.7526503 0.39747235 0.6848576
0.72112 0.9641086 0.87862045 1.1758177 0.91656685 1.2628269 0.91404265 0.59344226
0.90864664 1.0170413 0.8480622 1.057005 0.67554444 0.95158327 0.5858246 1.3270125
0.81209195 0.81401604 0.75076824 1.1121584 1.5131904 0.89994967 0.43800467 1.0163023
1.1048565 0.7463568 0.9180487 1.2462829 0.8335497 1.1635982 0.14557853 1.1606587
1.428269 1.4663486 0.47715443 0.915328 0.8906896 1.2422044 0.8089868 1.5463676
0.86823136 1.3885299 0.98643905 0.9880988 1.0185437 0.68930525 1.1111736 1.339051
0.59965175 0.5451938 0.9862735 1.2302803 0.87135774 1.0010993 1.2807938 1.070097
1.0429859 0.3744839 0.8133918 0.9396898 1.0659776 0.91477394 0.69333935 1.375218
0.6275064 0.6646442 0.4851922 1.0386249 0.762056 0.653582 0.70103985 1.1173953
0.8982675 1.1652504 1.2007079 0.36057863 0.8737822 1.0814017 1.0257357 0.7744196
1.2438368 0.5094351 1.1851157 1.0143155 0.7154258 0.27247396 0.80377525 0.94161433
1.0124086 0.9844604 0.66745514 0.9200821 0.3225774 0.6007264 1.2589008 1.2887878
1.0399982 0.5846599 0.81695336 0.88507843 1.2733641 1.1882731 1.0728376 0.71314996

policy_network.1.bias f4 [128]
00000000: c90a aebb 4956 bf3c 3d96 b63d 0a78 6bbd
00000010: b503 d53c 29a6 cd3d b9fe ad3d 4e5d 9e3b
00000020: 07c0 e9bb 16ce ddbd edcd 473c 8661 a53d
00000030: b0fd 8a3d 09fb e8bc 701c 8bbd d7aa 98bd
00000040: 3de2 333d a240 d93c 9858 28bc 918c 5e3d
00000050: 4b22 84bc a1b2 bb3d 57de 4abc 4cf5 713c
00000060: 6bdd 383d 8c51 0bbb b369 843c 20c7 443d
00000070: aaa9 063c 8934 c83d c4a6 a03c 85f5 613b
00000080: a583 083d 56e9 f0bc 72ce 7b3c 6458 b6bd
00000090: 65d7 d73b 6178 0cbd 3e23 123d a693 003d
000000a0: 339a 4d3d 1857 053d 782b e13c f0de 41bd
000000b0: 049e bbbd 810e 11bd 3c51 e63c 260f e1bc
000000c0: 09b5 ca3d d96f 993b 5a30 3b3d 8b7f 77bd
000000d0: 6d04 40bd 1403 9abc 8cee debc 0bf3 27bd
000000e0: 1321 a9bd cce9 b83d 5e38 203d 6218 003d
000000f0: d9d0 a6bd 0661 9f3d 6a70 8b3d 41f0 16bd
00000100: 8f5b 303d c58a d5bd 2496 3c3d 9e35 ecbc
00000110: c966 83bd fc1e 7e3c d279 84bd da6d ffbd
00000120: 338f 3cbd 1153 2e3c 24f7 663d b6f9 c3bc
00000130: ee38 67bd b101 74bd 11a7 683d d59b 933d
00000140: 93a3 903d 359c 0d3d 84d7 393d 1bd7 0ebc
00000150: 71bb c3bb e787 5ebd 9b40 25bd e7d2 dcbd
00000160: 0477 c13c d184 ed3c c912 0dbd c730 eb3c
00000170: d5eb 32bd 97b3 1bbc 18d4 a73b 6551 203d
00000180: 85ed 2abd 8c1e 85bd f67d e5bd 05a9 903a
00000190: 17eb f43b 512d 33bd 3bc8 48bd 0228 9fbc
000001a0: ebfb 42bd fee1 01bd 9fa0 2b3d ee9a 75bc
000001b0: 7619 523d 2b9c d33b 3a4c cb3c b284 80bd
000001c0: 9088 933d b019 473c 2b6c 263d 1a62 8d3c
000001d0: e7b0 ab3c 8422 22bd 0f9e 8b3d 55bf 773d
000001e0: e7e6 9cba d483 37bd c8b8 2f3d fc67 813d
000001f0: ad97 69bd 3743 f33b f059 edbc b0fb 9e3d
-0.0053113443 0.023356574 0.089153744 -0.057487525 0.026002744 0.10041458 0.0849585 0.0048329
-0.007133487 -0.108303234 0.012195093 0.08075242 0.06786668 -0.028440015 -0.067925334 -0.0745446
0.04391693 0.026520077 -0.010275029 0.054333273 -0.016129633 0.0916493 -0.0123821115 0.014767956
0.045133036 -0.0021258323 0.016163683 0.048041463 0.008219162 0.09775645 0.01961077 0.0034478616
0.03332867 -0.029408138 0.015369045 -0.08903578 0.0065869563 -0.03429449 0.03567814 0.03139081
0.050195884 0.032553762 0.027486548 -0.04733175 -0.091609985 -0.035414223 0.028114907 -0.027473044
0.09897811 0.0046825227 0.04570041 -0.06042437 -0.04687922 -0.018800296 -0.027213357 -0.04100327
-0.082582615 0.09028968 0.039116256 0.031273253 -0.08145303 0.077821776 0.06808551 -0.036850218
0.043056067 -0.10426859 0.046041623 -0.02883416 -0.06416089 0.015510317 -0.06468548 -0.124721244
-0.046035003 0.010639922 0.056388035 -0.023922782 -0.056450777 -0.059571926 0.056799952 0.07207457
0.07062449 0.0345728 0.045371547 -0.008718277 -0.0059732725 -0.054328825 -0.040344816 -0.10782414
0.023616321 0.028993996 -0.034441743 0.028709782 -0.04368194 -0.009503267 0.005121719 0.039140124
-0.041730423 -0.06499967 -0.11205666 0.00110367 0.007474314 -0.04374439 -0.04901908 -0.019428257
-0.04760353 -0.031709664 0.041901227 -0.014990551 0.051293813 0.0064578257 0.024816621 -0.062753096
0.072037816 0.0121521205 0.0406305 0.017258693 0.020958377 -0.039583698 0.06817257 0.060485203
-0.001197067 -0.044803455 0.04290083 0.063186616 -0.057029415 0.007423784 -0.02897355 0.07762849

policy_network.1.running_mean f4 [128]
00000000: b6da 5940 d405 373f e51b e1bf 557a 5e40
00000010: 4a02 5cc0 53f4 22c0 aabb 883e 30a1 a33f
00000020: 065f 963e c0ea c8bf 56ef 1040 185b c23f
00000030: 4240 48be b8e2 a83f 67b5 0dbe 42aa 69bf
00000040: 8637 873f e728 9f3f 7f45 083f cace 723e
00000050: 58df cbbf 3efe 0ec0 7be3 85bc 46e8 153f
00000060: 6485 943e 36d9 bfbf 9575 943e 4418 5f3f
00000070: c450 043f 259a d3bf df77 55c0 cdce 0cbf
00000080: 3d75 b5bf 5f37 d83f f09d 74c0 b281 85bf
00000090: fbb0 6c40 0929 b8bf e3a1 d23f 3dc4 d23f
000000a0: de57 37c0 e5a6 e43f ea52 56be 7f34 5e40
000000b0: adec dcbf b2de b1bf 758d ea3f 4edc 043f
000000c0: 3b44 a03e cba5 84bf 0564 22c0 2b81 f9bb
000000d0: d182 0ec0 4b07 ee3e 6f62 ba3f dc00 ebbf
000000e0: cb8f dbbf e459 be3f bf88 40c0 b94e 89c0
000000f0: 0dd8 4c40 df47 923e 8e4f bd3e baf4 41c0
00000100: 4511 06bf 9a26 4abf 3b69 0f3f bb36 4840
00000110: d635 e4be 2af2 a63f 0d2a 3cbf 83ff ecbe
00000120: 4187 12c0 54a7 4bbf 5b4d 22c0 74de 5ebe
00000130: 840d 49bf 24fa 5940 e477 74c0 18bf ea3f
00000140: 6127 343f 6cc7 29bf 07eb 65c0 8eaf 8040
00000150: 2a66 1f3f 55cb 32bf e7d2 4f40 7c7d d6bf
00000160: e6e1 26c0 e912 0e40 94c4 66bf 848b 1ec0
00000170: c04c bbbf 1201 7440 ecf3 d33f 8096 ae3f
00000180: e354 4040 7277 3a40 5106 0440 018c a43f
00000190: daea 3940 0815 40bf ed2a c5bf 7c97 42bf
000001a0: ad26 7abd 32fe 9cbf b5c6 6dc0 1096 7fbe
000001b0: 3093 823f 668a 6dbf fd94 1840 89b7 2140
000001c0: 277c e13f 3eed 7dc0 42d5 e63e b63a 5b3f
000001d0: 5f43 c03d a409 bdbe 9c97 47c0 354a 643f
000001e0: c984 39c0 8c56 debf 501d ba3f cbf7 c1bf
000001f0: 6cbe 8540 cbf3 863f 2ca5 07c0 47c2 e3bf
3.403974 0.7149327 -1.7586638 3.4762166 -3.4376397 -2.5461624 0.26705676 1.2783566
0.29369372 -1.569664 2.264608 1.518405 -0.19555762 1.3194189 -0.13838731 -0.9127542
1.056382 1.2434357 0.5323104 0.23711696 -1.5927534 -2.2342677 -0.016343823 0.58557546
0.2900802 -1.4988163 0.28995958 0.871464 0.5168574 -1.6531416 -3.3354414 -0.5500305
-1.4176403 1.6891898 -3.8221397 -1.0430205 3.698302 -1.4387523 1.6455654 1.6466137
-2.864738 1.7863432 -0.20930067 3.471954 -1.7259728 -1.3896086 1.8324419 0.5189866
0.31302056 -1.0363096 -2.5373547 -0.007614275 -2.2267344 0.4648994 1.456129 -1.8359637
-1.7153257 1.4871182 -3.0083463 -4.2908597 3.2006867 0.28570458 0.36974758 -3.030562
-0.523701 -0.7896515 0.56019944 3.1283405 -0.44572324 1.3042653 -0.73501664 -0.4628869
-2.2895052 -0.795522 -2.5359714 -0.21764547 -0.7853625 3.4058924 -3.8198175 1.8339567
0.7037259 -0.6631992 -3.59247 4.02143 0.62265265 -0.6984151 3.2472475 -1.6757045
-2.6075377 2.2199042 -0.90143704 -2.4772654 -1.4632797 3.8125653 1.6558814 1.3639679
3.005181 2.9135404 2.0628855 1.2855226 2.9049592 -0.7503209 -1.5403725 -0.76012397
-0.06107204 -1.2265074 -3.715253 -0.24959588 1.0201168 -0.92789304 2.3840935 2.526827
1.7616013 -3.967605 0.45084578 0.8563646 0.0938785 -0.36921418 -3.1186285 0.8917573
-2.8987296 -1.7370162 1.4540195 -1.5153745 4.179495 1.054315 -2.1194563 -1.7793664

policy_network.1.running_var f4 [128]
00000000: ecf0 713d 6bd6 023d f18b 043d bb5f 833d
00000010: 70e5 713d 2cc5 2b3d 82f2 613c ede6 243d
00000020: 4bff 303d 228e 283d b948 5d3d b6c4 133d
00000030: b081 153d 13da 413d a1dc b23c 9cc0 b73c
00000040: f365 293d b019 0c3d 9a58 123d 2a5c 803c
00000050: 47b0 773d 7b46 1c3d 2753 5a3c 725b e93c
00000060: de21 ae3c 8b94 d83c 7776 503d 71d3 073d
00000070: 1fe9 e33c c374 003d a07e 793d 4420 093d
00000080: 0b5e c63c edd5 243d 6a6c 203d c401 e33c
00000090: e0e6 523d 46f9 123d 9ae0 3f3d f140 243d
000000a0: 709f 693d c2e6 013d a549 943c 4164 8f3d
000000b0: ba75 483d f587 f33c dd14 823c 2470 b93c
000000c0: dca9 903c d9ce 263d cd79 403d 3fe4 853c
000000d0: acb2 303d cc58 af3c 6271 023d 78f0 493d
000000e0: 3d52 343d 41e5 1f3d 2ef5 4c3d b5af b13d
000000f0: 956d 103d 8268 6a3c 4836 1b3d 76a6 b33d
00000100: 2f10 a53c 8c3d d43c 0d43 e63c 6163 773d
00000110: c2a0 1c3d d42d 3a3d 34c3 013d 54e3 c93c
00000120: 1e23 053d 31ed 783c 3802 323d 3e28 843c
00000130: 5c2b be3c 42ca 513d 61c7 923d 26f5 443d
00000140: 8dc0 df3c 9b5f 0c3d 51fa 723d c7f7 933d
00000150: 463f ee3c 3214 ca3c c818 8c3d b4ac 2e3d
00000160: 2341 343d 95fa 393d fd3c 133d a9f7 543d
00000170: 262a 1a3d d135 a23d 6436 4a3d d79a 4c3d
00000180: 5516 813d 52a6 2d3d 3ae3 0a3d f011 c93c
00000190: 4544 303d 13e5 353d e1bc 133d 88f1 dd3c
000001a0: 8dec 693c 9be0 3a3d 2349 9b3d 433a 663c
000001b0: 69ca b83c 4130 633c ad02 873d 00eb 363d
000001c0: 957d 2d3d 7ca4 a63d f12b d83c 6e29 bc3c
000001d0: f2a2 5c3c 2b47 f33c b438 563d edb2 153d
000001e0: 923e 4b3d 8462 ea3c a77a 073d 804d ec3c
000001f0: 5998 873d b4bc d73c 1d73 6f3d 6c07 f73c
0.05906765 0.031942766 0.03236002 0.064147435 0.0590567 0.041936085 0.0137907285 0.04025929
0.043212216 0.041151173 0.05402443 0.03607627 0.036500633 0.047327112 0.02183372 0.02243071
0.041356992 0.034204185 0.03572903 0.015668947 0.060470846 0.038153153 0.013325489 0.028485987
0.021256384 0.026438018 0.050894227 0.03316063 0.027821122 0.031361353 0.060911775 0.033478037
0.024214765 0.040243078 0.03916589 0.027710803 0.05148971 0.035882257 0.046845056 0.040100995
0.057036817 0.03171421 0.018101523 0.07001544 0.048940398 0.029727915 0.015879089 0.02263648
0.01765912 0.04072461 0.04699116 0.016344188 0.043139145 0.021404646 0.03184641 0.049301594
0.04402374 0.039036993 0.05003851 0.086760916 0.035260756 0.014307143 0.037893564 0.08771984
0.020149319 0.025908254 0.028108144 0.06039751 0.038239248 0.04545386 0.0316803 0.024644531
0.032504193 0.01519327 0.043459147 0.01613247 0.023214035 0.05121828 0.07166935 0.048085354
0.027313495 0.034270864 0.05932075 0.07224994 0.029082906 0.024667833 0.06840664 0.04264517
0.04400743 0.04540499 0.035946835 0.051994 0.037637852 0.07920421 0.049368277 0.049952354
0.063030876 0.042394944 0.033908106 0.024544686 0.043033857 0.044407915 0.0360688 0.02709271
0.0142775895 0.045624357 0.07582309 0.014051977 0.022557454 0.013866485 0.06592307 0.044657707
0.042356092 0.08136842 0.02638814 0.022968974 0.013466584 0.029697021 0.05230017 0.03654759
0.04962022 0.028611429 0.033075955 0.028845549 0.06620855 0.026335098 0.05845939 0.030154906

policy_network.2.weight f4 [256, 128]
00000000: 0302 b8be 0c7a 1fbd f11d 2bbc b688 88be
00000010: 47e2 873e 629d f03e 25d4 e23d d140 cf3d
00000020: 868a 08be 696f 1bbc a917 88be ce50 353e
00000030: fd41 c13d d032 44be 3f5f 83be ef5e 36be
00000040: 0cae 753d b852 1abd 5053 ec3d c000 b2bc
00000050: b74c 7c3e ae94 e73e 9ff9 31be f30d 3a3d
00000060: 226b b73c 7a67 733d ec24 113e 5cd3 0d3e
00000070: 5714 043a 456b bc3e 1316 ab3e 8512 f63d
00000080: 86a9 373e 5d90 0fbc aa7a 4d3e 762a a3bd
00000090: 90af 55be 239a 763b 2580 e33d ecf0 a13d
000000a0: af58 cc3e cbea 23bc 2b3e 303d 6fdb 72be
000000b0: 60e9 94bd f1dd 02be a548 87bd 51e5 fbbc
000000c0: 5d19 823d 5b57 8c3c 23a6 b03e 5500 783b
000000d0: ef28 8fbd e2af bdbe da4a ddbd 5a18 b4bc
000000e0: fe63 0fbe 1ae9 843e 1f58 5e3d e40e e03e
000000f0: 9c29 e8be 8837 343e d22a 0bbd e2bf babe
00000100: 7016 2cbd 013e 0bbe 10a2 aa3d bf2b abbe
00000110: 7adb 69be 4179 c8bd f19d c2bd aaa9 a8be
00000120: 0be3 a33d 6d9e 043e eb78 013f fb7e 45bc
00000130: 5140 82be cf6b f0be eb96 de3e 2598 503d
00000140: 92ff 463e ecb2 0e3e e7f5 773e c100 f13d
00000150: 7a85 e4bd a36d 23bd c2a2 82be 87bf 843c
00000160: e61a 623e 6421 033c 062b 773d d390 753e
00000170: 08c5 76bd ac5c 3cbe be74 5abd 0fd3 333e
00000180: 700b cabe 1bec a2be a8ae 9dbe cece 42be
00000190: 3157 35be fdb3 dcbd 3a44 85bd 25b9 3dbe
000001a0: 458f c93a cf09 88bd bb8b f13e 452f 82bc
000001b0: 6fc1 323e c916 4e3d d131 63be 9ac8 b4be
000001c0: 9aad 1dbd ebdf 8cbd 6351 8fbd 1826 e1bd
000001d0: 78e0 f03d 502f 803d 144d 2a3e 8863 023e
000001e0: 1041 913e f518 a2bc 2673 cb3d fc3a df3e
000001f0: 573a d8be bdf1 60be 2032 083e cb1a 893e
00000200: a644 9d3d 8a09 fabd 45a6 82bd 8a71 1a3e
00000210: 1ae0 e1bd a9e7 e4be a361 c5be a3ca bfbc
00000220: 8dca 00be 767b 993e 7938 5b3c 3af4 fdbe
00000230: e397 45be 1582 063e a89a 8d3e 953c 913e
00000240: 8d73 30be 909a 98be 031d b4bc 7fde 7b3d
00000250: b95e 3c3d d496 b9be c0f6 593d 8bd6 b6bc
00000260: a6ee 8bbe 8ff1 033e b77e 86be 7b1f 20be
00000270: 6aa7 913c 25ec c2be 9f3e d1bd 5bf1 973d
00000280: f9dd 21be 3a46 323d 4d06 cebd 6b9c 5c3e
00000290: b7c4 c43d ca98 f43d db06 65bd d20d 49be
000002a0: 4920 8fbe 2b22 79be 2d7a c6bc d7da d83c
000002b0: f99a 973e 56ab 803e 41f9 39be 07ba 173e
000002c0: 7f89 bcbe 32ae 83bc 7a4e 78be 8c40 813d
000002d0: 9f8f 463e d61c 823e c493 cd3c bb4e 123e
000002e0: 0445 8d3e 2ba8 37be 9874 1dbe 5ef9 18be
000002f0: 475d ba3d c875 2fbe f8ad 493d 8e54 e33d
00000300: 4822 96bd bba8 bc3e 0f4e 80be d2b9 0f3e
00000310: 2c1d 323e f89f a8bd 44ba 3f3e ab58 d73e
00000320: fa01 203d 5203 073c c8dc 1fbe 32c3 243c
00000330: 2e81 c13e d592 4f3e a12c 87be 7295 a3bd
00000340: 0b5d bcbe b2ac 943d 4e67 27be 5018 e5bd
00000350: 33bd 1b3c 4f18 833d 5783 f83d 3fad 883e
00000360: 156a 8ebd 2d13 94bc af5b 913c 5296 73be
00000370: b742 0c3e 0ba8 a0bc d62a 16be 34fd 36be
00000380: b708 e33d 7e82 4a3e c0de 873e 0d13 3dba
00000390: bb5c 1a3e 2a31 a93d a480 a33e 6b81 923e
000003a0: 883f d4ba 1db2 173e cf77 44be ed9f a9bd
000003b0: 0803 4cbe 281d 803e b969 da3d 87b3 973e
000003c0: e200 d8bd 48cf 943c f5ab 9fbd 16a9 94bd
000003d0: da69 15be 7ce4 653d 2c8c 993c 161c 27be
000003e0: 5be4 cdbd 25b9 883e 51fa 97be cb6d bfbe
000003f0: b5e9 5c3e e925 843d 418c 1cbd d0d2 c9bd
-0.35939035 -0.038934752 -0.01044415 -0.26666802 0.26539823 0.46995074 0.110756196 0.101197846
-0.13334092 -0.0094870115 -0.2658055 0.17706606 0.094364144 -0.19160008 -0.25658605 -0.17809652
0.059980437 -0.037676543 0.11539328 -0.021728873 0.2463864 0.4523062 -0.17380379 0.04542346
0.022389952 0.059424855 0.14174241 0.13850158 0.0005038431 0.3680059 0.3341528 0.12015251
0.17935762 -0.008762446 0.20066324 -0.07967083 -0.20867753 0.0037628494 0.11108426 0.0790728
0.3991141 -0.0100047095 0.043028038 -0.2371652 -0.07271075 -0.12779976 -0.06605653 -0.030748995
0.06352494 0.017131498 0.34501752 0.0037841995 -0.06990229 -0.3704825 -0.108052924 -0.021984268
-0.14002988 0.25959092 0.054283258 0.4376136 -0.45344245 0.17599308 -0.033976384 -0.3647452
-0.042013586 -0.13597871 0.08331692 -0.33431813 -0.2283763 -0.09788752 -0.09502781 -0.32941943
0.080022894 0.1295106 0.5057513 -0.0120542 -0.25439695 -0.4695725 0.43474516 0.050926346
0.1943343 0.13935441 0.24214898 0.11767722 -0.11158271 -0.03989948 -0.255148 0.016204609
0.22080573 0.008003566 0.060343765 0.23981027 -0.060246497 -0.18394727 -0.05333399 0.17560981
-0.3946185 -0.3182076 -0.30797315 -0.19024202 -0.17709042 -0.107765175 -0.06507154 -0.18527658
0.0015377781 -0.06642496 0.47176918 -0.01589168 0.17456602 0.0503147 -0.22186972 -0.35309297
-0.038495637 -0.068786465 -0.06997945 -0.10993594 0.11761564 0.06259024 0.16630965 0.1273328
0.2836995 -0.019787291 0.09934072 0.4359969 -0.4223201 -0.21967216 0.13300371 0.26778254
0.07679109 -0.12208851 -0.0637937 0.15082374 -0.11029072 -0.44707993 -0.38551053 -0.023412054
-0.12577267 0.29977006 0.013380163 -0.49600393 -0.19296221 0.1313556 0.27657056 0.28366533
-0.17231579 -0.29805422 -0.02198649 0.061491486 0.045988772 -0.36247885 0.053213835 -0.022319099
-0.27330512 0.12885116 -0.2626855 -0.15637009 0.017780025 -0.3807079 -0.10217022 0.07419082
-0.15807332 0.043524005 -0.100597955 0.21544044 0.09607833 0.11943205 -0.05591474 -0.19634178
-0.2795432 -0.2432944 -0.02422818 0.026471538 0.29610422 0.2513072 -0.18161489 0.14817058
-0.3682365 -0.016074274 -0.24248686 0.063111395 0.19390725 0.25412625 0.025094874 0.14287846
0.27591717 -0.17935245 -0.15376508 -0.14938876 0.090998225 -0.17134774 0.049238175 0.11100112
-0.073307574 0.3684748 -0.25059554 0.14035729 0.1739394 -0.082336366 0.18723398 0.42059836
0.039064385 0.008240538 -0.15611565 0.010056304 0.3779387 0.20270856 -0.26401237 -0.07987489
-0.36789736 0.072595015 -0.16348001 -0.11186278 0.009505558 0.06401121 0.12134426 0.26694676
-0.06953827 -0.01807555 0.017743913 -0.23787811 0.13697325 -0.01961138 -0.14664778 -0.17870027
0.110856466 0.19776341 0.26537132 -0.00072126166 0.15074436 0.082613304 0.31934083 0.28614363
-0.001619325 0.14814039 -0.19186328 -0.082824565 -0.19923031 0.25022244 0.10664696 0.29629156
-0.105470434 0.018165246 -0.0779647 -0.07258813 -0.1459116 0.056126103 0.018743597 -0.16319308
-0.10053321 0.26703754 -0.29683164 -0.37388453 0.21573527 0.06452543 -0.038219694 -0.098546624

policy_network.2.bias f4 [256]
00000000: e9bf 8cbd 5b2d b9bd 9823 5b3d 5440 5f3c
00000010: ae54 563c a6ec 6dbd 3a15 0b3d 51d1 98bd
00000020: 5c6b a73d aa41 603d 2a5f 133c fbe8 28bd
00000030: 6fa8 c63d fc3d a6bd 1b22 90bd 256e 57bd
00000040: 435e a13c 31f2 a4bd cbce 773d 4613 53bd
00000050: ddb7 ebbb ec18 773d 8aad a53b 8ec2 083d
00000060: f348 80bd 575f a9bd e652 5dbd fcde 503d
00000070: 7dc9 9dbc 235c 563d 5805 3cbc b61c d1bd
00000080: 37ba 93bc 3d54 9b3c 0c8d 79bd 0c15 60bc
00000090: 2c5a 803d 45d7 edbb 2ee4 993d 5d6b 2f3d
000000a0: c160 403d 108f a93d ade7 c33d 4377 2a3d
000000b0: f276 a6bd 664e 203d fb1a 73bd 9c15 0ebd
000000c0: 71ac 0ebd fbb1 9d3d a283 c63d 5fe9 97bd
000000d0: f9d5 aa3c 07f4 263d d1cd 323d edca aa3d
000000e0: caf3 f13b 0ca7 cd3c b315 923d e7dc 3bbd
000000f0: 97a7 483d c339 93bc e26f 9abd 8d2e b8bc
00000100: 5ff5 4bbd 012a 96bd 79fa d33c f800 d83c
00000110: 10e5 8e3c 2b0e 9c3b 8452 1c3d acd8 a63d
00000120: 2186 07bd a6ab 703d bcb6 0e3d 0d4f 48bd
00000130: 3b85 68ba ed15 303d f288 8abc 8b4a a33d
00000140: b12e d0bc dfb8 a63c 26a9 563d 7164 6fbd
00000150: 76bc b73d 1364 013d ac0b 4c3c 4d6a 9f3d
00000160: cec2 0bbc b714 e43c 96e2 50bc 1923 cf3c
00000170: e8d2 b0bc c2f4 943c 3670 dd3c 043b 92bc
00000180: 6844 88bd 6765 06bd d3ac 61bd c4d7 94bc
00000190: c2aa 29bd 526b cdbc 73c8 16bd 3170 acbb
000001a0: d3fa 723d b751 7e3d 7126 003a fc6b 6dbd
000001b0: fdf4 a4bb eeed 913d 76e3 4c3c 3aec 203d
000001c0: 0db8 25bc cfee bfbb d1af a4bd 0f88 c1bd
000001d0: b4f0 383d 6728 ab3b 0a10 9fbd a602 f239
000001e0: f0ba 8b3d a2f9 70bd e4cd 4c3c 7300 3cbd
000001f0: ef2e 56bd 4fad 883d 5161 a43d 122d 8e3d
00000200: 1b0a a43d 20a8 33bd 03e9 973c 042e 5dbd
00000210: 8524 08bd df5e 24bd fdfa 0bbb cea9 2b3d
00000220: fc0b 773c e042 0d3d c14e 3a3d a4d4 b7bd
00000230: f946 003d 92c9 3e3d 039a 023d 7bfd 63bd
00000240: 609a 933b 8f72 913d 98f3 c93b fb44 b23d
00000250: 6b30 a13c 7e06 9cbd cca4 123d 7f48 88bd
00000260: 2167 5bbd 321b a93d 63c2 673d f58b a3bb
00000270: 20fe 74bd 171c 1a3d f131 c6bc 8e3d 71bc
00000280: c66f 78bd 808f 6fbd b0c0 c8bc 8c48 84bd
00000290: 27c5 84bd 54ba 24bd 99a7 02bc c447 313d
000002a0: 5f84 943d 6451 67bd 6ed4 b5bd 46a2 15bd
000002b0: a102 32bc b438 e5bb 7351 633d d717 f4bc
000002c0: 880e b7bc b059 9a3d 222b e0bc f11d 463d
000002d0: 0b3d a9bd 8d9b 113d 17e3 523d 944e 283d
000002e0: e9b0 45bd fea8 693d a455 44bd 1830 ab3d
000002f0: 7357 793d c49b 833d 6a03 063c 7f05 4c3c
00000300: e7b7 acbd 3d71 a1bd c48e 53bc a559 a43d
00000310: c093 493d e1fc 8cbc e8c1 cd3c 5cba 193d
00000320: ea23 413d 9e6b 09bd c6e3 223d 5761 b8bb
00000330: 93e8 48bd c2eb d9bc a31d a13d 853f 92bd
00000340: 6cbc 2d3c b177 e8bc 0fbc 82bd 5e5a 0f3d
00000350: 53de 3fbd ff1f 883d 01db 793d 276a 6bbc
00000360: 9276 ee39 3713 1fbd 9525 8dbd c7a1 98bd
00000370: 8fe7 eebb 235e 26bc 9279 8fbd 0eac 6cbd
00000380: 7bc9 823d a6d7 6abc d606 4f3d 5648 aa3c
00000390: 4af3 83bd c495 63bd 7cb6 963d 5c68 863d
000003a0: 87ed 4bbc ada0 123d b739 c93d f547 d1bc
000003b0: 591d 263d 72a8 58bd 0295 ac3c bc32 a43b
000003c0: a709 48bd 20dc 8d3d 1546 6cbd 1290 54bd
000003d0: 7dc8 ae3c 1b36 8dba 4390 a03d b0b4 e9bc
000003e0: 1dc0 bcbc dbbf 8cbd 26c9 0dbc 14d2 39bd
000003f0: 2176 863c 138c 1cbd 3e05 4a3d d594 3c3c
-0.068725415 -0.09041854 0.05350074 0.013626177 0.013081713 -0.058087014 0.03395579 -0.07461799
0.08174774 0.054750122 0.008994857 -0.041237812 0.09700095 -0.08117291 -0.07037755 -0.052595276
0.019698268 -0.08054007 0.060499948 -0.051532052 -0.007193549 0.0603265 0.005056088 0.033388667
-0.06263914 -0.08270138 -0.054034136 0.050993904 -0.019261116 0.052333962 -0.011475883 -0.10210554
-0.01803313 0.018961066 -0.06092553 -0.013676893 0.06267199 -0.007258328 0.07514225 0.042827
0.04696727 0.0827924 0.09565673 0.041617643 -0.08128156 0.039137267 -0.059351902 -0.034688577
-0.03483242 0.07699963 0.09693076 -0.07417559 0.020853983 0.040760066 0.043653313 0.08339486
0.0073837982 0.025104068 0.07133045 -0.045864966 0.04898795 -0.017971879 -0.07540871 -0.022483135
-0.04979455 -0.0733223 0.02587627 0.02636765 0.01744321 0.004762431 0.03816463 0.08146796
-0.0330869 0.058757447 0.034842238 -0.048903514 -0.00088699505 0.04298966 -0.016911004 0.07973202
-0.02541289 0.020351825 0.052407406 -0.058445398 0.08971493 0.03158958 0.012453955 0.07783947
-0.008530332 0.027841909 -0.012749335 0.02528529 -0.021584943 0.018183116 0.027031045 -0.017850406
-0.066536725 -0.03281155 -0.05509646 -0.018169291 -0.041422613 -0.025075588 -0.036812257 -0.0052623977
0.059321236 0.062089648 0.0004888541 -0.05796431 -0.0050340877 0.071254596 0.012505403 0.039287783
-0.010114682 -0.0058573256 -0.08041347 -0.09449779 0.045151427 0.005223322 -0.07766731 0.0004615981
0.06822765 -0.05883182 0.01250026 -0.045898866 -0.052290853 0.06673681 0.08026374 0.0694219
0.0800974 -0.04386151 0.018543726 -0.053998962 -0.033237953 -0.04012954 -0.0021359317 0.041909985
0.015078541 0.034487605 0.04548526 -0.08976105 0.031317685 0.04657895 0.03188516 -0.05566166
0.004504487 0.071019284 0.006163072 0.08704563 0.019676408 -0.07618426 0.035801694 -0.066544525
-0.05356515 0.0825714 0.056581866 -0.0049910494 -0.059812665 0.037624445 -0.024193736 -0.014724148
-0.06065347 -0.05848646 -0.024505943 -0.0645915 -0.06482916 -0.04021676 -0.007974529 0.04328133
0.0725181 -0.056474105 -0.08878408 -0.03653171 -0.010864885 -0.006995285 0.055497598 -0.029796524
-0.022345796 0.07536638 -0.027364317 0.048368398 -0.08263596 0.035548735 0.0514861 0.041090563
-0.048264418 0.05704593 -0.047933236 0.083587825 0.060874414 0.06426194 0.008179525 0.012452482
-0.08433514 -0.078829266 -0.012912456 0.08024911 0.04921317 -0.017210426 0.025116876 0.03753124
0.04715339 -0.033549897 0.039768003 -0.005626838 -0.049049925 -0.026601676 0.07866981 -0.07141022
0.010604005 -0.028377386 -0.063835256 0.03499829 -0.046842884 0.06646728 0.060999874 -0.01436857
0.0004548324 -0.038836684 -0.06891934 -0.074527316 -0.0072907875 -0.01015428 -0.070056096 -0.05778127
0.063860856 -0.014333641 0.05054363 0.020786446 -0.06442888 -0.05556275 0.07359025 0.06562874
-0.012446768 0.035797764 0.09825461 -0.025547007 0.04055533 -0.052895017 0.021067146 0.005010931
-0.04883733 0.06926751 -0.057684023 -0.05189521 0.021335835 -0.0010773571 0.07840016 -0.028528541
-0.023040826 -0.06872531 -0.008653915 -0.04536636 0.01641375 -0.038219523 0.049321406 0.011510094

policy_network.3.weight f4 [256]
00000000: 648c c03e d599 0e3e 8bc9 fc3e 26f5 eabb
00000010: 1fe3 173f be0c b73e 54fa 863e 32f9 0dbd
00000020: 676b 3b3e 98ce 633f ec82 193f 20bf 0a3f
00000030: 920e 143f 0821 af3d 05ee e03e e86b ec3e
00000040: ed2a f13e a0bd c3be 4def 9c3e 1162 6d3e
00000050: 5325 2ebe 6c39 603d 754b 8b3e 440f cc3e
00000060: fb85 0b3f d962 de3e a82e f03e b243 213f
00000070: d688 b13c 181b 8c3e 30e7 b43d ce22 103f
00000080: 7008 893d 8e0b d4bc bdbe 18bb ac3a 043f
00000090: 3c46 243f 672e 4f3f 25fe 983e 7c85 283f
000000a0: 7faa 173f c2c8 d13e 6bd8 003f c9c9 953e
000000b0: fe40 033f c40b aa3e e47d 7bba 115b 33bd
000000c0: e5dc 1a3f 5660 3b3d 86b5 743e 4cf0 1b3f
000000d0: abc0 073f 23a4 113f ede0 2f3f de8c 623e
000000e0: 2722 123f 9fe1 70bd 8777 b63e 39ec f73e
000000f0: 0563 0c3e dbd2 963e 99d1 9c3e dea0 4c3f
00000100: 0c9c 9a3e 20f6 2c3f 2df6 e13e 6e54 083e
00000110: 0ab6 873e 71d6 d23e 8b75 1b3f 5643 293b
00000120: 25bb c03e eede ba3d 52ce 2a3f 4f63 ed3c
00000130: 35ae 8c3e b876 51bc 181b 223e 6809 b43e
00000140: 94de 123f 9e92 8ebc a27b 5a3d 5289 1a3e
00000150: a19d 3b3e 058e d93e 2859 9b3e 3ad9 2ebd
00000160: 533f 093f b55c 373e d975 e43e 3744 c43e
00000170: 9b5d 953e f5ea 093f 864c 1a3f c0b3 283f
00000180: 9f8f 583e f023 fd3e 6772 a63e 1033 6c3e
00000190: 37a7 c83d 6c6e 0d3f c81c 1f3f 3973 0f3e
000001a0: 1bfc 143f 15c0 603f df05 1e3f 72aa dc3d
000001b0: 912d e93e 2a11 f43e 3d85 913e 8b01 0d3f
000001c0: f58b 0c3f 0104 5f3c 816f 1d3e 289b cc3e
000001d0: 0d16 b53e 8127 7a3f fe77 0b3f bc93 f43e
000001e0: bc90 8a3e 8766 e83e 5741 7f3e 448a 283f
000001f0: adaf 543e 7bbc e23e 1de5 873d c221 8b3d
00000200: a8a8 383f 273b 753e 9a0d d93e eeaf 0fbb
00000210: cf09 373f ec64 3c3f 232f f93e f1c6 983e
00000220: dc1d 973e 20ca 97bd babd cf3e 021a 673c
00000230: fff4 003f b518 343c aa3f a63e 93cc ab3e
00000240: 3d2c 4e3f d86e 2f3b d435 8e3e 968a bb3e
00000250: d0a8 013e 5f62 1d3f ff1e 5c3d 5b76 2f3f
00000260: 73bc 053f d6c9 d93e e77c 123e b133 ce3e
00000270: 2527 093f 4675 7a3e 94ed 4dbe 960c 313f
00000280: 8ea5 233f 4a57 da3e 5e56 a03d 0b77 c93d
00000290: ef46 eb3d 1ecc 6f3d fb43 303d 93d6 183f
000002a0: 95e7 f1bd ec36 1e3e a5e4 053f a93b 3c3f
000002b0: e19d 243f bed3 a13e 73e3 b93e cd54 d03d
000002c0: beb4 113e b483 993e 5c60 953e 5ceb 083f
000002d0: ff4a 293f 68bf 173e a1d4 4f3e 88d8 5e3c
000002e0: 3b35 333f 7823 123f 0fbc 3d3f 620f 213f
000002f0: a1a4 803e a5b8 903e 6ffe e03e 9192 333f
00000300: 4b4d eabc 1ce9 743e c4ce b83e 5783 053f
00000310: 8bc4 6e3d 84aa 043f d115 bf3e 247f f13e
00000320: 6b5e 1e3f fb0a bd3e 0039 073f e16d f13d
00000330: a6dc 283f a3ca d43e fd62 0e3f 4995 423c
00000340: e727 293f e213 863d bea1 c63e ddd8 473f
00000350: 045f e93d a48f a3bc fd39 fd3e 6ff0 fa3e
00000360: 983e 0b3f 0986 973e 3968 d73e b67d fd3e
00000370: f105 863e 4b30 abbb 8884 753e 2db3 ab3e
00000380: 4050 0f3f 3222 da3e 400c ed3e c68a 3d3e
00000390: 6d56 173f 158a da3e 1cff 2f3e 195b 383f
000003a0: 550d 993e b1bc f03e 7cf4 2a3f cddd 523e
000003b0: 86b9 053e 04b3 313f c0a2 f53e 4979 4c3e
000003c0: 64a7 793e 24e4 073f 9691 1f3f bee5 1c3f
000003d0: a320 223e f9ab 23bd cfbc 423e c204 2e3e
000003e0: 5f49 c4be 2da5 203f 00e1 af3e cfd4 1d3f
000003f0: 1b49 2e3f b1f0 953e 32eb 083f 59ec 583f
0.3760711 0.1392587 0.49372515 -0.0071703373 0.59330934 0.3575191 0.2636286 -0.03466148
0.1830269 0.8898711 0.59965396 0.54197884 0.5783473 0.08551222 0.43931594 0.46176076
0.47103062 -0.3823061 0.30651322 0.2318194 -0.17006426 0.05474226 0.27206007 0.39855397
0.5450131 0.4343479 0.46910596 0.6299392 0.021671694 0.2736442 0.08833158 0.5630311
0.066910625 -0.025884416 -0.0023307048 0.51652026 0.6416967 0.8093018 0.29881397 0.6582868
0.5924453 0.4097348 0.5033023 0.29255512 0.51271045 0.332121 -0.00095936493 -0.04378802
0.6049331 0.04574617 0.2389737 0.6091354 0.53028363 0.5689108 0.68702585 0.22124049
0.5708336 -0.05880892 0.35638067 0.4842241 0.13709648 0.29457745 0.3062866 0.79932964
0.3019718 0.67563057 0.4413313 0.13313457 0.26506072 0.4117923 0.6072623 0.002582749
0.3764278 0.09124552 0.6672107 0.028978018 0.2747666 -0.012784652 0.15830648 0.35163426
0.5737088 -0.017403897 0.05334056 0.15091446 0.1832185 0.42491165 0.30341458 -0.042687632
0.5361225 0.17906459 0.4462116 0.38333294 0.29172978 0.5387414 0.60273015 0.65899277
0.21148537 0.4944148 0.32509157 0.23066354 0.09797519 0.55246615 0.6215329 0.14008798
0.5819718 0.87793094 0.6172771 0.10774697 0.45542577 0.47669345 0.28421965 0.5508048
0.5490106 0.013611794 0.15374567 0.39962125 0.35368386 0.9771653 0.5447997 0.47768962
0.2706355 0.45390722 0.24927269 0.65835977 0.2077014 0.44284424 0.06635497 0.06793548
0.7213235 0.23948346 0.4239319 -0.002192493 0.7149934 0.73591495 0.48668775 0.2983928
0.29514968 -0.07411599 0.40574437 0.014105322 0.50373834 0.010992219 0.32470447 0.33554515
0.8053625 0.002676895 0.27775443 0.3662917 0.12662053 0.6147823 0.053740498 0.6853997
0.52240676 0.425368 0.14305459 0.40273812 0.53575355 0.24458799 -0.2011016 0.6915983
0.6392449 0.4264472 0.07828973 0.09837159 0.11488139 0.05854427 0.04303358 0.59702414
-0.11811749 0.15450639 0.5230201 0.73528534 0.64303404 0.3160686 0.36306342 0.101724245
0.14229104 0.29983294 0.2917508 0.5348413 0.6613006 0.1481911 0.20295955 0.01360143
0.700031 0.5708537 0.7411508 0.629141 0.25125602 0.28265873 0.43944117 0.7014552
-0.02860131 0.23917049 0.3609525 0.52153534 0.058292907 0.51822686 0.37321332 0.47167313
0.6186282 0.3692244 0.5282135 0.11788536 0.6596168 0.4156085 0.55619794 0.011876413
0.6607651 0.06546761 0.38795274 0.7806528 0.11395076 -0.019965954 0.49458304 0.4901156
0.54392385 0.29594448 0.42071703 0.49509972 0.26176408 -0.005224263 0.23976338 0.33535138
0.55981827 0.42604214 0.46298409 0.18509969 0.5911625 0.42683473 0.1718716 0.72014004
0.29892984 0.4701896 0.66779304 0.20592423 0.13059053 0.6941378 0.4797573 0.19968142
0.2438026 0.5308249 0.6233152 0.6128806 0.15832762 -0.039958928 0.19017337 0.16994002
-0.38337228 0.6275204 0.3435135 0.61652845 0.680803 0.29285195 0.5348388 0.8473564

policy_network.3.bias f4 [256]
00000000: fcc6 a8be 0942 c83d 4002 893e 6085 86bc
00000010: 7df9 033f 9ff8 363e 2d07 72be 237a 9fbd
00000020: 01ea 20be d133 49be 7a55 15bf 1544 813e
00000030: d1d9 dcbe 80da 1d3e fae4 e7be 057d b4be
00000040: e763 7fbe 717f a7be 6f8f bfbe 6bc6 013e
00000050: 8870 35be d4ae b53d 12a2 88be 3592 c4bd
00000060: 2a18 b6be da9d 11be ead8 9cbe 6445 01bf
00000070: 501b d93d 3e86 aa3d d295 f8bd cc90 f03e
00000080: cc75 c5bd a582 2b3e 9676 b43c 15e4 e03e
00000090: 6ba0 8fbe 094c 883e e238 52be ef04 be3e
000000a0: 4862 003f 8769 613e 591b f2be 40f7 8c3e
000000b0: 40ad 67be 6979 303e 6000 adbc 6a3c 8abd
000000c0: 2658 a1be cd19 523d 7814 eabd 2568 e63e
000000d0: bb8a 823e 0b0a aabe cf7f 2b3f 48c1 2f3e
000000e0: 10f6 19bf 77a6 923d 3a6b cf3d 9aeb 743e
000000f0: 1c0d 383e 87dc 6f3e 9c3d a13e adc4 983e
00000100: 8f05 93be 20b0 853e 702d c93e 6991 c1bd
00000110: 5746 c9be 654b bdbe ce40 a7be 9d6a a6bc
00000120: 1f54 a5be 7104 d53d 81ca b5be deeb d8bd
00000130: d213 fabc b83d 0f3d e8a8 d5bd c25c 6a3e
00000140: 6c65 d43e bdb6 823d 6981 bf3c 9ecb 29be
00000150: b7f8 0fbe 56e4 abbe 995a 47be f190 f7bd
00000160: 92a8 943e 52fd 643e c7c0 853e 5082 173e
00000170: a527 cb3c 9feb 67be 8e69 14be 2aeb 133f
00000180: 6054 29be 1360 e9be 669a 01bf 3223 84be
00000190: e0cc 93bd 3aca 833e 4532 05bf c208 30be
000001a0: 6590 d23e f0bd 17bd d9eb 5d3e 253e f53d
000001b0: bf26 d73e 383f 553e 22d2 823e 43b9 953e
000001c0: a455 cebe 0746 2f3d 757a e93d 6afc 2c3c
000001d0: 1771 2ebe a063 023d f5cc 013f 1a9e b23e
000001e0: 15fc 543e 52af d23e 6975 54be 684d ce3e
000001f0: a76b c03d 2256 8a3e d990 aa3d bb25 813e
00000200: 22fd 8cbe ac17 5d3e 1631 8c3e cae2 40bd
00000210: 9b72 19bf 2bb1 9fbe 3e82 eebd 3be6 453e
00000220: 1f4d 903e adec 0fbe a6fc d13d 60df 723d
00000230: e1bc aa3e 9f22 2cbd a01f 823e 74b2 db3e
00000240: a380 853d 0c0d dcbc 1253 343d 9e8e b3be
00000250: 4b53 ce3d 52a2 bc3e 6a10 083e 31ac 1d3f
00000260: 3ed0 e53e 4816 b83d 2de7 8fbd 433e 09be
00000270: efa5 aabe 3cfc 823e 5929 8bbe 17aa c1bd
00000280: 887f 653e 429a abbe 1850 f7bd 9ab8 f0bd
00000290: aaaf 913e 7508 8fbd 8e17 db3c 516d 17bf
000002a0: f82e 1ebe caba 7cbd ab03 c33e 1541 2b3f
000002b0: 5af6 1abf 86a4 793e a023 b53e a29d c23d
000002c0: 420a a1be f34c 803e 14fd 34be 251a 0c3d
000002d0: 92c5 99be b178 1dbd e7b7 da3e 4bc1 aebd
000002e0: 9c31 1b3e 0747 82be 70ea 72be 9bcf bebe
000002f0: c6f3 3cbe aa9e 62be 93c8 6b3e 86cb d7be
00000300: c3c0 993d 8833 85be 2e4f 0fbe 534b 92be
00000310: 71d3 433d 4ce7 df3e d136 943e bc66 683e
00000320: 77f2 b9be 0877 d8be 7e6b c73e 48d8 e9bd
00000330: f9f7 553e 3bfa 9fbe 0e71 70be 7e3b bbbd
00000340: 889e 2bbe 17bd d7bd 84c3 8abe 9b41 31bd
00000350: 35d2 123e 724e 6c3d 05b9 96be ef2c bd3e
00000360: a839 b63e a569 e23e 8899 773d 618a f43e
00000370: 15f3 d2bd ccb8 08bd 3567 f4bd 4470 943e
00000380: b0f6 0bbf 0867 9a3e fdc1 433e 2964 323e
00000390: 18c4 da3e 3aa3 893e 288a 593d 3dac 03bf
000003a0: c3ef b1be dcd8 d73e 250a 0cbf e91a 703e
000003b0: e573 13be db7a 91be a495 bbbe 5661 c9be
000003c0: 853d 67be 7ca0 a53e b3f8 dd3e 11a3 27be
000003d0: f672 b83d 25ef 9b3d e5e3 b2bd 0a79 d1bd
000003e0: 2f1c d03e 7316 77bb 1d2e 8cbe 118f 26bc
000003f0: 84e7 05be df82 ebbe 5104 41be f2cf 39bd
-0.32964313 0.0977822 0.2675953 -0.01642102 0.51552564 0.17868279 -0.2363555 -0.077869676
-0.15714265 -0.19648673 -0.5833355 0.25247255 -0.4313493 0.15415382 -0.45291883 -0.35251632
-0.24940453 -0.32714418 -0.3741412 0.12673347 -0.17718709 0.088712364 -0.2668615 -0.09598199
-0.3556531 -0.14220372 -0.30634242 -0.50496507 0.106009126 0.08326386 -0.12137951 0.4698547
-0.096416086 0.16749056 0.022029202 0.43924013 -0.28052077 0.2662051 -0.20529512 0.3711314
0.50149965 0.22012912 -0.4728649 0.27532387 -0.22624683 0.17233814 -0.021118343 -0.06749804
-0.31512564 0.051294137 -0.11429685 0.4500133 0.25496468 -0.33210787 0.66991895 0.17163575
-0.60141087 0.07160657 0.10127874 0.23918 0.17973751 0.23423968 0.31492317 0.29837552
-0.28715178 0.26110935 0.3929248 -0.09451563 -0.39311478 -0.36971584 -0.3266663 -0.020314509
-0.32290742 0.10401238 -0.3550606 -0.10591863 -0.03052703 0.03497097 -0.10432607 0.22886947
0.4148363 0.06382511 0.023377137 -0.1658158 -0.14059721 -0.33572644 -0.19468154 -0.12088192
0.2903486 0.22362259 0.2612364 0.14795804 0.024799177 -0.22648476 -0.14493391 0.57780707
-0.16536093 -0.4558111 -0.5062622 -0.25808102 -0.07216811 0.25740224 -0.5202983 -0.17190841
0.4112579 -0.037046373 0.21672 0.11974744 0.42021748 0.20824897 0.25550944 0.29242906
-0.40299714 0.042791393 0.1140031 0.010558227 -0.17035328 0.03183329 0.50703365 0.34886247
0.20799287 0.41149384 -0.20747913 0.4029343 0.09395533 0.2701884 0.08328409 0.252241
-0.27536875 0.21591061 0.273812 -0.047091283 -0.599405 -0.31189856 -0.116459355 0.19326107
0.2818384 -0.14055128 0.10253267 0.05929506 0.33347228 -0.042025205 0.25414753 0.42909586
0.06518676 -0.02686169 0.044024535 -0.35069746 0.100744806 0.3684259 0.13287511 0.6159087
0.4488544 0.08988625 -0.07026515 -0.13402657 -0.33329722 0.25583065 -0.27179983 -0.0945627
0.2241193 -0.33516127 -0.120758235 -0.1175396 0.28454334 -0.06984035 0.02674463 -0.5915118
-0.15447605 -0.061701573 0.38088736 0.6689618 -0.6053215 0.24379167 0.35378742 0.09502722
-0.3145314 0.25058708 -0.17674667 0.03420462 -0.30033547 -0.03844518 0.4271843 -0.085329615
0.15155643 -0.25444815 -0.23722243 -0.37267765 -0.18452367 -0.22130838 0.23025732 -0.42147464
0.075074695 -0.26015878 -0.13995048 -0.28573093 0.047809068 0.43731153 0.28948072 0.2269544
-0.36317798 -0.42278314 0.38949198 -0.114182055 0.20895375 -0.31245598 -0.23480627 -0.091422066
-0.16759694 -0.10534113 -0.27102292 -0.043275457 0.14338 0.057692 -0.29438034 0.36948344
0.35590863 0.44221225 0.060449153 0.47761825 -0.103002705 -0.03337936 -0.11933748 0.28991902
-0.5467329 0.30156732 0.1911697 0.1742102 0.42727733 0.26882344 0.05311027 -0.5143469
-0.34753236 0.42157638 -0.5470298 0.23447765 -0.14399679 -0.28414044 -0.36637604 -0.39332074
-0.22582062 0.32349002 0.43353805 -0.16370799 0.09006302 0.076139726 -0.08734874 -0.102281645
0.40646502 -0.003770259 -0.27378932 -0.010165946 -0.13076597 -0.45998284 -0.18849303 -0.045364328
