Results/ETH-USD/DeepRL; DATA_KIND(AutoPatternExtraction); BEGIN_DATE(None); END_DATE(None); SPLIT_POINT(2021-10-07); StateMode(5); WindowSize(15); BATCH_SIZE10; GAMMA0.7; REPLAY_MEMORY_SIZE20; TARGET_UPDATE5; N_STEP10/model.pkl (torch, 148661 bytes, 14 tensors)

policy_network.0.weight f4 [128, 4]
-0.053991888 -0.4087204 -0.2397039 -0.5141494 -0.4311014 0.43910062 0.10069241 0.3668246
0.07965858 -0.09126714 -0.19786616 -0.3112613 0.22637224 -0.36312056 0.18937992 -0.51821935
0.43287608 0.339848 0.0657331 0.17534505 -0.5527505 -0.27460438 -0.43812934 0.24280582
0.4536224 0.34061906 0.44890445 0.04659503 0.5267504 0.3328391 0.3650972 -0.21339072
-0.3281056 -0.43595356 -0.043282505 0.24939987 -0.22472261 -0.48836997 -0.20728415 -0.58690536
-0.1121965 0.19951902 -0.3453107 -0.13024229 0.23357496 0.5449517 0.32842115 -0.12722713
-0.26963648 0.33620557 0.34810024 0.04542655 -0.1955542 0.08593022 -0.20000333 -0.36977878
-0.32599294 0.4914532 0.3544172 -0.05616182 -0.3086315 -0.35704505 -0.04457332 -0.39664376
0.011226852 -0.18523031 0.32352304 0.4522503 -0.046915 -0.2966607 0.41892442 0.40135124
0.02747489 -0.25706694 0.31521076 0.59460855 0.08870354 0.15902475 -0.4470124 -0.32917786
-0.21466154 0.29494193 0.10996585 0.2713679 0.28015086 0.22322549 -0.056794222 -0.17517228
0.016406884 0.1259428 0.02072285 0.22491227 -0.2616639 0.59677285 0.45435986 -0.2982755
0.06753099 -0.11575394 0.3832075 0.44826606 -0.041149735 0.116754234 -0.18421602 0.5366695
-0.25129306 -0.1872626 -0.39215207 0.3146099 -0.35154197 0.1225549 0.3234344 0.5524916
-0.1243519 0.29573 0.42901847 0.28632703 0.1617471 -0.27240142 -0.29988766 -0.052745085
0.43933067 0.22710541 0.1523828 -0.03284441 0.32283273 0.41623783 0.21257354 -0.100364834
0.26069754 -0.32952216 -0.014165854 -0.29777446 -0.48195446 0.3655395 0.1694654 0.53483367
0.12774459 0.11636738 -0.49374506 -0.19859284 -0.26257384 0.30521455 0.037851658 0.18920945
-0.20342073 0.38624838 -0.105913185 0.25657755 -0.37207526 0.03414622 -0.081692986 -0.04599575
-0.1917309 0.19526312 0.28858763 -0.40484044 0.3620308 0.08182438 0.105085 0.04387782
0.5684303 0.1596008 0.20555761 -0.19959486 0.36317775 -0.4884078 -0.49757084 0.07162216
-0.21690848 -0.34645522 -0.12704158 -0.017661413 0.31760415 -0.28239423 -0.40814245 -0.079606526
0.41517496 -0.50669324 -0.45564154 0.03654461 0.21318859 -0.19616449 -0.2086913 0.40296558
0.44046307 0.13127041 0.25189 -0.11243358 0.016420368 0.23347308 -0.2713688 -0.49827802
0.39103562 0.18053721 -0.3451606 -0.08021099 0.3858052 -0.536423 -0.22654517 -0.10871516
0.1594265 -0.31099358 -0.41271448 0.24714655 0.31729263 0.36898744 0.5107613 0.43959185
-0.13886525 0.16787782 0.20746532 0.17667826 0.4004241 -0.21877107 0.3607981 0.31462827
0.35705873 -0.054535486 0.019592473 0.34663898 -0.21102889 -0.054741982 0.20652585 0.5558551
-0.47263944 -0.36046648 -0.31725195 0.34660292 -0.33477312 -0.066900454 -0.28069326 -0.3001813
-0.07920367 0.02665215 0.48402634 -0.13753232 0.23391168 0.42319766 -0.10746109 -0.031603407
-0.03002396 0.5588822 0.07804547 -0.051100187 0.32897854 -0.03906318 -0.3520365 -0.57102746
-0.46190366 0.49260566 0.088596895 0.37471005 -0.5100071 0.17524181 -0.07844953 -0.007921309
00000000: 9926 5dbd cd43 d1be f074 75be 4c9f 03bf
00000010: 53b9 dcbe ccd1 e03e d237 ce3d 6fd0 bb3e
00000020: 0a24 a33d 44ea babd 6d9d 4abe a45d 9fbe
00000030: 20ce 673e f0ea b9be cfec 413e 06aa 04bf
00000040: efa1 dd3e 8f00 ae3e 139f 863d a78d 333e
00000050: 0f81 0dbf f298 8cbe 7d52 e0be 17a2 783e
00000060: 3241 e83e 9f65 ae3e ced6 e53e 6eda 3e3d
00000070: 1dd9 063f e369 aa3e 05ee ba3e 1983 5abe
00000080: 75fd a7be 4e35 dfbe ff48 31bd ae62 7f3e
00000090: af1d 66be a10b fabe 4c42 54be 6e3f 16bf
000000a0: 47c7 e5bd b74e 4c3e 90cc b0be 3c5e 05be
000000b0: 462e 6f3e f481 0b3f d126 a83e d447 02be
000000c0: cb0d 8abe 2323 ac3e 323a b23e 3111 3a3d
000000d0: 5c3f 48be 2ffc af3d accd 4cbe a553 bdbe
000000e0: 8ce8 a6be c19f fb3e 2c76 b53e f009 66bd
000000f0: f304 9ebe 9cce b6be 8392 36bd e414 cbbe
00000100: d5f0 373c 04ad 3dbe d0a4 a53e 5a8d e73e
00000110: f129 40bd e9e3 97be 437d d63e e97d cd3e
00000120: 0513 e13c 479e 83be 4e63 a13e 4438 183f
00000130: 34aa b53d 62d7 223e cfde e4be 008a a8be
00000140: 3cd0 5bbe a102 973e c735 e13d bcf0 8a3e
00000150: ef6f 8f3e 3995 643e 0fa1 68bd 5d60 33be
00000160: bb67 863c 26f7 003e f7c2 a93c 674f 663e
00000170: d0f8 85be 1bc6 183f dba1 e83e 91b7 98be
00000180: b04d 8a3d 6710 edbd c633 c43e 2183 e53e
00000190: a08c 28bd d81c ef3d 20a3 3cbe 2c63 093f
000001a0: 7ca9 80be c4c1 3fbe 28c8 c8be 8c14 a13e
000001b0: 4ffd b3be 10fe fa3d 3299 a53e 1770 0d3f
000001c0: 35ac febd ec69 973e 4fa8 db3e 7599 923e
000001d0: 08a1 253e 3378 8bbe e08a 99be 3b0b 58bd
000001e0: f3ef e03e 528e 683e 3d0a 1c3e dc87 06bd
000001f0: 554a a53e 201d d53e e1ac 593e 148c cdbd
00000200: 267a 853e 21b7 a8be e617 68bc e575 98be
00000210: bcc2 f6be fe27 bb3e 5688 2d3e dcea 083f
00000220: 7acf 023e 0552 ee3d 27cc fcbe ec5b 4bbe
00000230: 1470 86be 1545 9c3e 570a 1b3d 1fc0 413e
00000240: 864d 50be 59c2 c53e 03e9 d8bd 225e 833e
00000250: a680 bebe e8dc 0b3d a74e a7bd 0a66 3cbd
00000260: 1b55 44be 0ef3 473e c2c1 933e 3f47 cfbe
00000270: 1a5c b93e 8a93 a73d ce36 d73d 3bb9 333d
00000280: a684 113f 646e 233e b27d 523e 9862 4cbe
00000290: 6ff2 b93e 9610 fabe 9bc1 febe a4ae 923d
000002a0: 421d 5ebe 9462 b1be 3017 02be abae 90bc
000002b0: 039d a23e fa95 90be 0cf8 d0be bf08 a3bd
000002c0: d091 d43e a6b6 01bf d949 e9be cdaf 153d
000002d0: 1c4e 5a3e 58df 48be 2cb3 55be 8151 ce3e
000002e0: 6084 e13e c06b 063e baf7 803e 9443 e6bd
000002f0: 0284 863c 9113 6f3e daf0 8abe 4c1e ffbe
00000300: d235 c83e bfde 383e e4b8 b0be a945 a4bd
00000310: 4288 c53e 0553 09bf 75fb 67be 0ea6 debd
00000320: b340 233e 8d3a 9fbe 504f d3be fc13 7d3e
00000330: 2e74 a23e eceb bc3e 41c1 023f 2f12 e13e
00000340: b132 0ebe 2ae8 2b3e ca71 543e 25eb 343e
00000350: 6304 cd3e 8605 60be 87ba b83e f516 a13e
00000360: 67d0 b63e 9a60 5fbd 6580 a03c aa7a b13e
00000370: f517 58be 2139 60bd 837b 533e 854c 0e3f
00000380: ccfd f1be 108f b8be d96e a2be f075 b13e
00000390: 6267 abbe 1b03 89bd 07b7 8fbe 5db1 99be
000003a0: 8935 a2bd 9c55 da3c 4dd2 f73e 46d5 0cbe
000003b0: 8b86 6f3e 5dad d83e 8f14 dcbd 9372 01bd
000003c0: cff4 f5bc e712 0f3f 4ed6 9f3d 6e4e 51bd
000003d0: e06f a83e b700 20bd 213e b4be db2e 12bf
000003e0: a37e ecbe cf36 fc3e 4a72 b53d ffd9 bf3e
000003f0: d38f 02bf 9772 333e 26aa a0bd 61c8 01bc

policy_network.0.bias f4 [128]
-0.36703703 0.29000017 -0.23643942 0.13776459 0.49480903 -0.4718194 0.3185156 -0.2837605
-0.4979474 0.44629437 -0.045185767 -0.4375383 -0.28035343 -0.44596827 -0.08435625 0.2005532
-0.4106006 -0.4288504 -0.19324812 -0.16472135 0.15179688 0.023105634 0.075748146 -0.20313801
-0.000522444 -0.31636727 0.45323935 0.28790638 0.21208628 -0.1893892 0.34424347 0.318774
0.36933038 0.25238815 -0.33054677 -0.1829489 0.080635786 0.407722 0.38303533 0.20224756
0.16136873 -0.31923163 -0.1280122 -0.33736667 0.45826605 0.16563143 -0.16705209 0.26306197
0.1579656 0.1179802 -0.49249256 -0.40791357 0.3262146 0.34973055 -0.44653884 -0.12274781
0.45043856 0.14091584 0.40451184 -0.103547424 0.2732135 0.17353024 -0.32929593 0.11729027
-0.45729175 0.15619144 -0.3870563 -0.18733062 -0.24230999 -0.062703595 -0.030096198 -0.51052386
0.014993128 -0.10286207 -0.11645235 0.0011555724 -0.00046599633 -0.27212635 0.071226686 -0.023293361
0.24775259 -0.049823232 -0.30153552 -0.25411242 0.22440192 -0.24044478 -0.058911785 -0.17610712
-0.18216631 -0.48282233 -0.14628606 -0.14215818 -0.4144995 -0.22312555 -0.3397138 -0.1559768
0.42547598 -0.15997471 -0.3334282 -0.42247394 0.107859775 -0.14320545 -0.40656736 -0.32282707
-0.40653008 0.34812826 0.24263519 -0.46385437 0.3472381 -0.27077374 0.46366963 -0.47000793
0.20052236 0.41459462 -0.3434757 -0.28172085 0.051163517 0.21449955 -0.17771296 -0.4724193
0.41702628 -0.47891474 0.08486713 -0.45634735 0.46864173 -0.4849591 -0.26479614 -0.38578132
00000000: 47ec bbbe e77a 943e 2d1d 72be 2912 0d3e
00000010: 9c57 fd3e 5092 f1be 7a14 a33e 0e49 91be
00000020: f6f2 febe b280 e43e b614 39bd 0505 e0be
00000030: 7c8a 8fbe f455 e4be f8c2 acbd d15d 4d3e
00000040: 3e3a d2be 4892 dbbe d6e2 45be b7ac 28be
00000050: a470 1b3e 0748 bd3c d821 9b3d 6903 50be
00000060: a0f4 08ba e4fa a1be fd0e e83e 7768 933e
00000070: 252d 593e 3eef 41be ae40 b03e 5936 a33e
00000080: df18 bd3e 0539 813e 6d3d a9be f556 3bbe
00000090: 6024 a53d f0c0 d03e 351d c43e fc19 4f3e
000000a0: d83d 253e 5472 a3be a115 03be 53bb acbe
000000b0: d9a1 ea3e 499b 293e b40f 2bbe 0fb0 863e
000000c0: bcc1 213e 9a9f f13d fc27 fcbe 0cda d0be
000000d0: 9a05 a73e e20f b33e bda0 e4be 3463 fbbd
000000e0: e29f e63e 3e4c 103e 2d1c cf3e ac10 d4bd
000000f0: a4e2 8b3e e9b1 313e 7a99 a8be e235 f03d
00000100: 2522 eabe a6f0 1f3e 3e2c c6be 99d3 3fbe
00000110: 1c20 78be be6a 80bd 4d8c f6bc b1b1 02bf
00000120: bda5 753c 59a9 d2bd 927e eebd 9376 973a
00000130: f850 f4b9 2554 8bbe 4cdf 913d b8d1 bebc
00000140: dbb2 7d3e 7213 4cbd dd62 9abe 061b 82be
00000150: 9ec9 653e 2837 76be 7c4d 71bd 6d55 34be
00000160: ce89 3abe 7d34 f7be 03cc 15be ea91 11be
00000170: 4739 d4be 067b 64be f8ee adbe 62b8 1fbe
00000180: fdd7 d93e 69d0 23be 1ab7 aabe 814e d8be
00000190: 96e5 dc3d 73a4 12be 9929 d0be 9749 a5be
000001a0: b624 d0be de3d b23e 5c75 783e 527e edbe
000001b0: 31c9 b13e dba2 8abe 1b66 ed3e e1a4 f0be
000001c0: bc55 4d3e bf45 d43e 0cdc afbe b73d 90be
000001d0: d690 513d c5a5 5b3e 63fa 35be f1e0 f1be
000001e0: 7884 d53e 5034 f5be d1ce ad3d 5ca6 e9be
000001f0: cff1 ef3e 8f4c f8be 5c93 87be 2185 c5be

policy_network.1.weight f4 [128]
1.0027014 1.1051236 1.1447707 1.060317 0.99331737 0.9658606 0.9343684 0.9225998
0.9169326 1.0171294 0.96081674 0.9245595 1.1232345 0.95535076 1.0748155 0.9184607
1.0641494 1.1373543 1.1538943 1.1082894 1.1469853 0.82819134 1.0112016 1.0175583
1.0741118 1.1393504 0.88475835 1.2304575 1.0436636 1.1419475 0.9325059 0.9266783
1.0530081 1.140776 1.0382761 1.025858 1.0014209 0.8149336 1.037047 0.8971463
0.8981885 1.1049819 0.93197364 1.093555 1.0633813 0.92050636 0.8740515 1.1267599
0.80714035 1.1463388 0.9813997 0.95301837 1.2484568 0.8872284 0.92143184 1.100387
0.9282329 0.9547228 1.021812 0.86516374 0.9674229 1.2612796 1.1030276 0.86531454
0.7953809 0.7804194 1.0744904 0.88231045 0.8948291 0.8639059 0.98041224 1.093172
0.9446062 1.0226052 0.8801162 0.8892876 0.9271941 0.9363653 0.92814016 1.0899707
0.8802426 0.95058775 0.96689355 0.9383525 1.0453621 1.0573764 0.8616489 1.0151227
1.0953336 1.1248391 1.1792122 1.0563514 0.9106797 0.9457642 0.88851035 1.17302
0.90565854 0.9124732 1.0231085 0.91668195 0.97985977 0.86776173 0.8516608 0.89436173
1.0604419 0.86960983 1.0142362 1.0240432 0.95629203 1.2087196 0.87993354 0.9788344
1.0496387 0.9650708 0.9320612 1.1290888 1.0615442 1.215713 1.1306648 0.9537926
0.94731176 0.8603795 1.0563912 0.92860323 0.99140537 0.8887102 0.99150604 0.89199287
00000000: 8558 803f b174 8d3f d987 923f 78b8 873f
00000010: 0c4a 7e3f a442 773f c432 6f3f 802f 6c3f
00000020: 18bc 6a3f 4c31 823f 16f8 753f eeaf 6c3f
00000030: 26c6 8f3f de91 743f 8e93 893f 3e20 6b3f
00000040: 0c36 883f d394 913f cfb2 933f 6ddc 8d3f
00000050: 6ad0 923f 5904 543f 0e6f 813f 5a3f 823f
00000060: 7f7c 893f 3cd6 913f 867f 623f a27f 9d3f
00000070: c596 853f 562b 923f b5b8 6e3f ca3a 6d3f
00000080: f8c8 863f f304 923f 3be6 843f 514f 833f
00000090: 8f2e 803f 7d9f 503f f5bd 843f 61ab 653f
000000a0: aeef 653f 0c70 8d3f d395 6e3f 9cf9 8b3f
000000b0: e11c 883f 4ea6 6b3f d7c1 5f3f ab39 903f
000000c0: c0a0 4e3f 3bbb 923f 033d 7b3f 03f9 733f
000000d0: 6fcd 9f3f 6721 633f f5e2 6b3f 7bd9 8c3f
000000e0: aca0 6d3f b768 743f bcca 823f 5f7b 5d3f
000000f0: 07a9 773f 9c71 a13f 0230 8d3f 4185 5d3f
00000100: 159e 4b3f 91c9 473f e788 893f 19df 613f
00000110: 8513 653f f028 5d3f 4cfc 7a3f 0fed 8b3f
00000120: b6d1 713f bae4 823f 4c4f 613f 5aa8 633f
00000130: 985c 6d3f a3b5 6f3f 989a 6d3f 2984 8b3f
00000140: 9457 613f b859 733f 5686 773f df37 703f
00000150: 6dce 853f 1c58 873f 0695 5c3f 8aef 813f
00000160: e433 8c3f bafa 8f3f 6df0 963f 8636 873f
00000170: 4e22 693f 9a1d 723f 6a75 633f 8525 963f
00000180: 3dd9 673f d897 693f 38f5 823f abab 6a3f
00000190: 17d8 7a3f a225 5e3f 7106 5a3f e4f4 643f
000001a0: 8fbc 873f c09e 5e3f 7ed2 813f d913 833f
000001b0: 8ecf 743f 53b7 9a3f 5343 613f e494 7a3f
000001c0: 905a 863f e10e 773f 909b 6e3f fb85 903f
000001d0: aee0 873f 7c9c 9b3f a0b9 903f c02b 743f
000001e0: 0683 723f d541 5c3f d437 873f f1b8 6d3f
000001f0: becc 7d3f 8382 633f 57d3 7d3f a559 643f

policy_network.1.bias f4 [128]
-0.007527616 0.018018488 -0.0007242025 -0.006395419 0.013115255 -0.013561139 -0.0052034305 0.00023621078
-0.00369779 0.008230892 -0.030728986 -0.0139721325 0.029234389 0.000941562 0.0019522063 0.0029195382
-0.0009428955 0.006185708 0.02629793 -0.024636986 0.020193456 0.0045561884 -0.005889107 0.030474346
0.00023354648 0.00508589 -0.0018676504 0.010926969 0.013706441 -0.03249579 -0.011159433 -0.0113232285
-0.019546984 0.012646996 -0.020545911 0.01762742 0.009450076 -0.008201991 0.007212178 -0.0012868759
-0.0033026652 -0.0145687265 -0.004299482 -0.02766228 -0.024276834 0.0010606975 -0.007687079 -0.0051420485
-0.0072028255 -0.024323603 -0.008453898 0.010129474 0.0028533838 0.010437223 -0.0067312745 -0.007959904
0.00022218277 0.007503649 0.026133731 0.001260855 -0.012797728 -0.02967273 0.0137082245 0.00922735
-0.015793998 -0.022108832 -0.007049687 0.010039558 0.004675489 0.008371537 0.0050644395 0.019237876
0.00048792778 -5.044524e-05 0.00015304788 -0.0035164808 -0.003014828 0.0047880444 -0.01307588 -0.007925867
0.0049917568 0.011537461 0.003156438 0.010964604 -0.022347718 0.032057613 -0.0002838185 -0.002284205
0.009350709 0.008647758 -0.024679529 0.008771937 0.008905778 0.00012607471 0.004716957 -0.010711969
0.015959006 -0.015616139 -0.01742566 0.022388488 0.002294421 0.005838932 -0.0013674701 0.014328584
-0.011852289 0.0047292183 0.0043791737 0.0043050535 0.018232742 0.016398087 0.0116239395 0.011669492
0.012490125 9.897819e-06 0.011416035 -0.005415528 0.0016083634 -0.024925172 0.018922715 0.007920939
-0.0053205052 -0.006625026 4.447348e-06 0.008061786 0.016948469 -0.0012718219 -0.004481835 -0.015858047
00000000: 38aa f6bb 829b 933c 68d8 3dba aa90 d1bb
00000010: 5ee1 563c 8a2f 5ebc 8a81 aabb 59af 7739
00000020: 9f56 72bb ddda 063c 5bbb fbbc 5feb 64bc
00000030: f57c ef3c 28d3 763a 2ce1 ff3a b955 3f3b
00000040: a52c 77ba 7bb1 ca3b c26e d73c 81d3 c9bc
00000050: bf6c a53c 144c 953b 69f9 c0bb 56a5 f93c
00000060: 28e4 7439 8aa7 a63b f3cb f4ba 0807 333c
00000070: fb90 603c 4e1a 05bd 0ed6 36bc 1085 39bc
00000080: ff20 a0bc 5935 4f3c e64f a8bc 6167 903c
00000090: 7ed4 1a3c a561 06bc 2254 ec3b 64ac a8ba
000000a0: 8771 58bb abb1 6ebc abe2 8cbb 019c e2bc
000000b0: 36e0 c6bc 1a07 8b3a e4e3 fbbb a17e a8bb
000000c0: ae05 ecbb 4b42 c7bc 3882 0abc 18f6 253c
000000d0: d6ff 3a3b e300 2b3c 0692 dcbb 426a 02bc
000000e0: bcf9 6839 2ce1 f53b 6816 d63c 4643 a53a
000000f0: 90ad 51bc 3a14 f3bc 7698 603c 502e 173c
00000100: 6a62 81bc 951d b5bc 1001 e7bb f57c 243c
00000110: d834 993b c528 093c 99f3 a53b c098 9d3c
00000120: 8fd0 ff39 2a95 53b8 7a7b 2039 c274 66bb
00000130: 6c94 45bb 07e5 9c3b 373c 56bc 7fdb 01bc
00000140: e491 a33b 9e07 3d3c 3edc 4e3b e2a4 333c
00000150: 9012 b7bc d84e 033d 79cd 94b9 9ab2 15bb
00000160: b733 193c 53af 0d3c b92c cabc 2cb8 0f3c
00000170: 8ae9 113c ec32 0439 b490 9a3b 4181 2fbc
00000180: 76bc 823c d6da 7fbc 42c0 8ebc 1068 b73c
00000190: ff5d 163b 8354 bf3b af3c b3ba 70c2 6a3c
000001a0: 1a30 42bc 8ff7 9a3b 2c7f 8f3b 6811 8d3b
000001b0: d55c 953c 4855 863c 5672 3e3c 6631 3f3c
000001c0: 62a3 4c3c cf0e 2637 520a 3b3c be74 b1bb
000001d0: b8cf d23a e02f ccbc cf03 9b3c d3c6 013c
000001e0: a257 aebb bf16 d9bb 6e3a 9536 9515 043c
000001f0: 84d7 8a3c 43b3 a6ba 5bdc 92bb bce8 81bc

policy_network.1.running_mean f4 [128]
-1.2155148 0.6272339 -0.5972511 -0.19658096 1.2074639 -1.1903524 1.218587 0.42809615
-0.9019486 -0.6062299 -0.30684823 0.2515318 0.039579947 -0.9146055 0.24001807 -0.5740831
-0.00048774472 -0.10763385 0.27080506 -0.5225913 0.476855 0.2254889 0.3474301 0.14126854
0.53646654 -0.011756304 0.08789966 0.7349378 0.8263903 -0.511419 0.90056247 0.92019933
0.09792876 0.6651597 -0.6340719 0.010601209 0.32121193 0.07733271 0.29941905 0.6210062
0.68173575 -0.7025435 -0.6281153 -0.65050393 0.102424785 0.31372347 0.33382896 -0.0905588
0.2793962 -0.22541337 -0.7144265 0.7295868 0.6138478 0.94171184 0.01879377 0.2195446
-0.11902396 -0.54157734 0.6061889 0.27212137 0.66918635 -0.26213264 0.021530135 -0.18165493
-0.22949432 0.24855715 -0.82323635 -0.5572881 -0.6142772 0.53346515 0.37861806 -0.20257948
-0.96189886 -0.34297016 0.47212693 0.5198325 0.48954466 -0.8940654 -0.04332688 -0.40541747
-0.17307363 0.2589725 -0.94720024 0.56453633 -0.03365682 0.039760336 0.41894132 -0.48129126
0.19872463 -0.15248029 -0.5162264 0.27111936 -0.33196148 -0.21344693 0.29122522 -0.38612998
0.13401864 0.2225276 -1.1487023 -0.3061373 -0.5513082 -0.38585126 -0.79189366 -0.09827966
-0.2075225 0.75466204 1.1852195 -0.25601605 -0.03877027 0.06764907 0.12000305 0.012427696
0.7169893 0.63050157 0.33838293 -0.034181904 -0.502479 -0.16764838 0.23647209 0.46638104
0.2168729 -0.119886674 -0.28741065 0.0787327 0.77716506 -1.2903742 0.03183541 -0.76773
00000000: fd95 9bbf 6792 203f 73e5 18bf 854c 49be
00000010: 2d8e 9a3f 785d 98bf a9fa 9b3f 6b2f db3e
00000020: 1ae6 66bf e231 1bbf 361b 9dbe c7c8 803e
00000030: 951e 223d 9623 6abf 4cc7 753e 1cf7 12bf
00000040: fdb7 ffb9 236f dcbd f6a6 8a3e 8bc8 05bf
00000050: 5726 f43e 90e6 663e 5ce2 b13e b3a8 103e
00000060: df55 093f 839d 40bc bd04 b43d e224 3c3f
00000070: 518e 533f 5bec 02bf 438b 663f 2f92 6b3f
00000080: e08e c83d e847 2a3f 8952 22bf b1b0 2d3c
00000090: e475 a43e 9d60 9e3d 744d 993e 43fa 1e3f
000000a0: 3c86 2e3f e4d9 33bf 2acc 20bf 6d87 26bf
000000b0: 16c4 d13d 5da0 a03e a1eb aa3e e476 b9bd
000000c0: 050d 8f3e c3d2 66be a8e4 36bf 33c6 3a3f
000000d0: 2125 1d3f 0714 713f 64f5 993c 4dd0 603e
000000e0: d5c2 f3bd d0a4 0abf 322f 1b3f 7e53 8b3e
000000f0: cc4f 2b3f 4036 86be f75f b03c c003 3abe
00000100: 8f00 6bbe c485 7e3e 9ebf 52bf 6faa 0ebf
00000110: 4541 1dbf 2c91 083f 3ada c13e ff70 4fbe
00000120: 013f 76bf c999 afbe 9fba f13e be13 053f
00000130: 99a5 fa3e 78e1 64bf 8777 31bd e192 cfbe
00000140: 373a 31be 0b98 843e b77b 72bf 7485 103f
00000150: bcdb 09bd bcdb 223d 7a7f d63e cf6b f6be
00000160: 787e 4b3e cb23 1cbe 6a27 04bf 28d0 8a3e
00000170: dbf6 a9be d591 5abe 791b 953e d4b2 c5be
00000180: 2f3c 093e 46de 633e ad08 93bf 07be 9cbe
00000190: 8922 0dbf 4c8e c5be 8bb9 4abf d946 c9bd
000001a0: c780 54be 8831 413f 46b5 973f 8914 83be
000001b0: 93cd 1ebd 988b 8a3d 29c4 f53d 899d 4b3c
000001c0: 9c8c 373f 8d68 213f 8740 ad3e 5302 0cbd
000001d0: 77a2 00bf 04ac 2bbe bd25 723e 7fc9 ee3e
000001e0: ee13 5e3e 2587 f5bd 7d27 93be 9c3e a13d
000001f0: 4af4 463f fb2a a5bf d965 023d f489 44bf

policy_network.1.running_var f4 [128]
0.0042166687 0.0008135169 0.00086041755 0.0007616333 0.002963851 0.0030979046 0.0046954546 0.0030153466
0.0010707347 0.006415346 0.0005502466 0.0026702324 0.00066076807 0.0013938559 0.0006236112 0.0034721398
0.0013026913 0.0010547685 0.0016981288 0.0011343794 0.0006668623 0.0003546084 0.00043714407 0.00064981205
0.0019961193 0.0006334644 0.0008267759 0.0016352072 0.002334358 0.0006341354 0.001846526 0.0020836196
0.000485688 0.0013288135 0.00088816334 0.00025561056 0.0003679802 0.0006825117 8.9610025e-05 0.0010542044
0.0017277483 0.00093082327 0.0014217867 0.0007202347 0.00082489423 0.00017445907 0.0015237462 0.0010696565
0.00040620074 0.0007163175 0.00030734867 0.007579248 0.0005372806 0.0022500127 0.0013180875 0.0010462765
0.0019973 0.0027785506 0.0003724894 0.0009016903 0.00085596746 0.0016461319 0.00086924987 0.00062594016
0.0005403048 0.0001382878 0.0012417331 0.0009747197 0.0009569454 0.0020644157 0.001056621 0.0010048897
0.0054737395 0.00037690753 0.0021839084 0.001833606 0.0014129687 0.0022688895 0.00017833694 0.0010030528
0.0011101505 0.0006044183 0.0024574462 0.0041893804 0.00059028773 0.0005185359 0.0013750889 0.0005979863
0.0010232792 0.0006593109 0.0010376384 0.0014216113 0.00012452812 0.00014533842 0.0022971344 0.0004657779
0.0005648958 0.00089236785 0.0041384497 0.00020091291 0.0025274425 0.0008138764 0.0008778329 0.00061488134
0.0003155139 0.0009960987 0.0051030135 0.00040087968 0.001019589 0.000901781 0.0006448423 0.0015273893
0.001749161 0.00051210244 0.0026405414 0.00050072937 0.0020022995 0.0010650954 0.0013170266 0.005011855
0.0003127153 0.0008184163 0.0008906437 0.0017527273 0.00053818 0.0037235983 0.0010982737 0.00090296636
00000000: fb2b 8a3b 3242 553a a58d 613a 58a8 473a
00000010: 2b3d 423b 3706 4b3b 54dc 993b 1f9d 453b
00000020: e557 8c3a d337 d23b 6d3e 103a 11ff 2e3b
00000030: 6537 2d3a 0bb2 b63a d779 233a d78c 633b
00000040: 11bf aa3a 2840 8a3a bf93 de3a 75af 943a
00000050: 5fd0 2e3a bcea b939 7c30 e539 2658 2a3a
00000060: 53d1 023b 140f 263a febb 583a 7354 d63a
00000070: 07fc 183b 1b3c 263a 2207 f23a 568d 083b
00000080: f1a3 fe39 952b ae3a a2d3 683a 7803 8639
00000090: 77ed c039 96ea 323a 04ed bb38 3b2d 8a3a
000000a0: 9d75 e23a 7e02 743a 3f5b ba3a 22ce 3c3a
000000b0: b73d 583a 00ef 3639 70b8 c73a b733 8c3a
000000c0: 57f7 d439 41c7 3b3a a423 a139 575b f83b
000000d0: 4ad8 0c3a f374 133b adc3 ac3a 3723 893a
000000e0: 22e5 023b 5818 363b ae4a c339 695f 6c3a
000000f0: 0163 603a 05c3 d73a 5fde 633a 2216 243a
00000100: 3ea3 0d3a 5901 1139 a6c1 a23a 5584 7f3a
00000110: 85db 7a3a 264b 073b 517e 8a3a 81b6 833a
00000120: 0e5d b33b ac9b c539 e71f 0f3b 9c55 f03a
00000130: 5d33 b93a a6b1 143b f5ff 3a39 de78 833a
00000140: 7882 913a d371 1e3a 1b0d 213b 1247 893b
00000150: 8abd 1a3a 5bee 073a 543c b43a 2ec2 1c3a
00000160: 8d1f 863a 9bd5 2c3a 5e01 883a 5c55 ba3a
00000170: c393 0239 fc65 1839 858b 163b a733 f439
00000180: 8415 143a cbed 693a d59b 873b 26ac 5239
00000190: 73a3 253b 525a 553a 5e1e 663a fd2f 213a
000001a0: 8f6b a539 878f 823a 2e37 a73b 292d d239
000001b0: bba3 853a 8065 6c3a a20a 293a ae32 c83a
000001c0: 1b44 e53a 9d3e 063a ef0c 2d3b 6143 033a
000001d0: 0339 033b ac9a 8b3a 14a0 ac3a 7d3a a43b
000001e0: f0f3 a339 fd8a 563a 167a 693a c5bb e53a
000001f0: a614 0d3a 9d07 743b f3f3 8f3a 0cb5 6c3a

policy_network.2.weight f4 [256, 128]
-0.06936331 -0.062096693 -0.03838034 -0.06350569 0.05723738 -0.15792832 -0.013215599 0.1034071
-0.008049892 -0.04381315 -0.03314139 0.09406792 -0.09264749 -0.096662164 0.02006597 0.051069375
0.027901055 0.031935275 0.015530569 0.0021491903 -0.0040209475 0.021702904 -0.020608328 0.10885304
0.0962872 -0.030998686 -0.06356303 -0.034601673 0.003765222 0.05906769 0.1284584 0.11165938
0.03811444 0.0387147 0.04774518 -0.037045907 0.050369125 -0.14840078 -0.051030703 0.07188648
0.06037598 0.014758368 -0.12016756 0.02235916 0.0815311 0.12162549 0.14631164 -0.00023904999
0.07462514 -0.06171317 -0.091870695 0.0006986151 -0.08621876 0.08098072 0.024709512 -0.0389372
-0.029028153 -0.062930994 -0.03606697 0.061491042 -0.026598863 -0.029917547 0.010609627 -0.0022788048
0.046065044 0.07933189 0.025215412 -0.010779627 -0.042642035 0.12540017 0.039038416 -0.11710265
-0.13531202 0.0005692988 0.04706459 0.12762392 0.08283952 -0.048015714 0.0027049428 0.054178588
-0.050795358 0.14550829 -0.027209941 -0.046203747 0.101428114 -0.12732174 0.06562162 0.008989806
0.05315968 0.06729956 0.0045587206 -0.05212395 -0.056400504 -0.041162055 0.11051028 0.07342219
-0.051814478 0.025873164 -0.07341653 0.03300236 -0.0004150456 0.11120913 -0.04978215 -0.0033029784
0.045168493 0.1403242 0.090455405 0.016954696 -0.09453007 -0.1070123 0.0059978706 0.04027629
-0.052893076 0.075125836 0.058297314 -0.040845532 -0.012352861 0.051365875 0.078856945 0.03673167
0.0890948 0.09547196 0.015418453 0.13723253 -0.016997484 -0.057261907 0.024930494 -0.038955282
-0.0813494 0.05621132 -0.029362587 0.049021386 0.02920402 -0.13846058 0.1713204 0.03723032
-0.011471331 -0.048225928 -0.015361119 0.13880853 0.027005984 0.028931374 0.08731125 0.03285372
0.054751854 0.032971088 0.024982797 0.04740933 0.0039213602 0.06302356 0.06962503 0.04475264
0.040398356 0.09508492 0.0040783756 0.046497073 0.017459568 -0.15001036 0.05053165 0.12046584
-0.02982227 0.025048552 -0.0015211566 -0.0040198863 0.046847966 -0.060540333 0.07124143 0.109053425
0.062363353 -0.06309564 -0.073687576 -0.08327846 -0.026406467 -0.023889916 0.08047545 -0.10955738
0.040621314 -0.08042917 -0.073527865 0.13140869 0.048044693 0.0835678 0.0006892678 -0.012848288
0.042338856 -0.15007193 0.024942683 0.10222223 0.011833058 0.05381297 -0.049770076 0.017408097
-0.066098996 0.06974127 -0.08907791 -0.031202309 -0.09693433 0.13743742 0.1285052 0.0629523
-0.15014331 -0.08357191 0.12654157 0.07634249 0.018551836 -0.09696265 -0.016286986 -0.03875124
0.010561788 0.1215649 -0.10722877 0.106038064 -0.016907254 0.09881858 0.107966565 -0.0100008445
0.041594043 0.013685103 0.017827086 0.06886655 0.10168404 -0.026406705 0.061309975 0.014135499
0.068983436 -0.052371282 0.05739192 0.09601878 -0.08781111 -0.029985107 -0.011681068 -0.015888656
0.0016812979 -0.0054150275 0.12381262 0.09453778 -0.044973798 -0.03221304 -0.06161241 0.110190965
-0.029723318 0.007920519 0.08996708 0.027390499 -0.076320134 -0.05483224 0.093286574 0.12379763
-0.08832146 0.117472604 -0.08165162 0.06891135 0.073728934 -0.002425015 0.040201366 -0.097072884
00000000: 5a0e 8ebd 1a59 7ebd b434 1dbd 450f 82bd
00000010: be71 6a3d f6b7 21be 3d86 58bc 1ac7 d33d
00000020: b2e3 03bc 6b75 33bd 44bf 07bd afa6 c03d
00000030: f8bd bdbd d0f6 c5bd 6461 a43c 1f2e 513d
00000040: c190 e43c 90ce 023d ed73 7e3c 6ed9 0c3b
00000050: 27c2 83bb 4aca b13c ccd2 a8bc 58ee de3d
00000060: 3932 c53d f5f0 fdbc 552d 82bd 7cba 0dbd
00000070: f1c1 763b f6f0 713d 998a 033e acad e43d
00000080: e31d 1c3d 4e93 1e3d 7390 433d 73bd 17bd
00000090: db4f 4e3d 60f6 17be 9205 51bd 3839 933d
000000a0: ce4c 773d 15cd 713c 691a f6bd 8f2a b73c
000000b0: c7f9 a63d c916 f93d b8d2 153e 7ea9 7ab9
000000c0: 11d5 983d f3c6 7cbd b426 bcbd 4423 373a
000000d0: 7693 b0bd 38d9 a53d 9a6b ca3c 9d7c 1fbd
000000e0: 73cc edbc f7e1 80bd f6ba 13bd 08de 7b3d
000000f0: dce5 d9bc a515 f5bc 00d4 2d3c 0058 15bb
00000100: b3ae 3c3d c278 a23d 8d90 ce3c 089d 30bc
00000110: 6aa9 2ebd e768 003e bfe6 1f3d 84d3 efbd
00000120: 3c8f 0abe ff3c 153a cdc6 403d d8af 023e
00000130: c4a7 a93d 20ac 44bd 6945 313b 5eea 5d3d
00000140: cb0e 50bd 2000 153e 62e7 debc 2440 3dbd
00000150: 8bb9 cf3d a160 02be a164 863d fb49 133c
00000160: f7bd 593d 5ad4 893d 5261 953b ec7f 55bd
00000170: 3704 67bd 8b99 28bd 3753 e23d 605e 963d
00000180: 6b3b 54bd f5f3 d33c 685b 96bd 7c2d 073d
00000190: 7a9a d9b9 9dc1 e33d 5ee8 4bbd c876 58bb
000001a0: 9902 393d 26b1 0f3e af40 b93d 93e4 8a3c
000001b0: fb98 c1bd 4429 dbbd c989 c43b c0f8 243d
000001c0: 69a6 58bd 93db 993d 2ac9 6e3d a54d 27bd
000001d0: a863 4abc 0665 523d c07f a13d f373 163d
000001e0: 5677 b63d ce86 c33d ae9d 7c3c af86 0c3e
000001f0: 4f3e 8bbc 768b 6abd 093b cc3c 938f 1fbd
00000200: 849a a6bd d73d 663d cf89 f0bc a6ca 483d
00000210: 453d ef3c 9cc8 0dbe 9d6e 2f3e d27e 183d
00000220: 40f2 3bbc 8d88 45bd 34ad 7bbc d323 0e3e
00000230: a73b dd3c 7d01 ed3c 3ed0 b23d 9f91 063d
00000240: 7b43 603d b10c 073d b9a8 cc3c 4930 423d
00000250: c17e 803b 7f12 813d 9197 8e3d 8b4e 373d
00000260: bf78 253d e2bb c23d e5a3 853b b773 3e3d
00000270: 5e07 8f3c 519c 19be 47fa 4e3d cbb6 f63d
00000280: d54d f4bc 9f32 cd3c 8c61 c7ba 40b9 83bb
00000290: a7e3 3f3d 24f9 77bd 07e7 913d 6757 df3d
000002a0: b770 7f3d 4938 81bd 83e9 96bd e68d aabd
000002b0: 6052 d8bc c9b4 c3bc 50d0 a43d 9f5f e0bd
000002c0: 8962 263d 0cb8 a4bd c795 96bd 0090 063e
000002d0: 83ca 443d 9825 ab3d fbaf 343a a081 52bc
000002e0: 826b 2d3d 75ac 19be 9954 cc3c e359 d13d
000002f0: 71df 413c fd6a 5c3d b5db 4bbd 6d9b 8e3c
00000300: e95e 87bd 83d4 8e3d 7b6e b6bd fc9b ffbc
00000310: 8285 c6bd 65bc 0c3e de96 033e 23ed 803d
00000320: 2bbf 19be c027 abbd 1d94 013e 7459 9c3d
00000330: 05fa 973c 5b94 c6bd 496c 85bc 9fb9 1ebd
00000340: 5a0b 2d3c 05f7 f83d c29a dbbd 7c2a d93d
00000350: 1581 8abc 6561 ca3d 931d dd3d 95da 23bc
00000360: 845e 2a3d 7b37 603c 1c0a 923c e809 8d3d
00000370: b93f d03d e052 d8bc 2b20 7b3d 9498 673c
00000380: 3047 8d3d 4583 56bd ca13 6b3d 7ea5 c43d
00000390: 50d6 b3bd 54a3 f5bc f361 3fbc ed28 82bc
000003a0: ff5e dc3a 8b70 b1bb 7991 fd3d 069d c13d
000003b0: 7236 38bd d2f1 03bd 4b5d 7cbd cdab e13d
000003c0: 517e f3bc 11c5 013c a940 b83d 0a62 e03c
000003d0: bb4d 9cbd c597 60bd 080d bf3d 9d89 fd3d
000003e0: e2e1 b4bd 7a95 f03d f738 a7bd 6521 8d3d
000003f0: 32ff 963d 00ed 1ebb 30aa 243d 26ce c6bd

policy_network.2.bias f4 [256]
0.051470608 -0.07153108 -0.056401838 -0.0621617 0.049923997 -0.04654827 -0.017191421 -0.0052800165
-0.042264752 -0.0054326532 -0.045265846 0.03338792 -0.053145055 0.000605017 -0.028898343 -0.0618879
-0.011748619 0.078022406 -0.048720933 -0.08006574 -0.03483733 0.05779421 0.056351084 0.04372988
-0.029811367 -0.07840103 0.058895018 -0.051384963 -0.032319374 -0.038012683 -0.028143229 0.040008955
0.03959031 -0.0044681537 0.036259666 0.06535699 0.042444605 0.06907087 0.009773791 0.01893798
-0.03279271 0.019323386 -0.059237354 -0.07186811 -0.051520325 -0.050470594 -0.078417554 0.028278202
0.0170252 0.031341292 -0.0057026804 -0.03905855 -0.07145419 0.014873683 -0.010516585 -0.014189743
-0.040042713 -0.07243225 0.06706738 0.07233596 -0.08224289 0.08298073 -0.04519114 -0.060175348
-0.031136055 -0.02119569 0.011775244 0.009551522 -0.035126053 0.084673256 0.014374261 -0.032857172
0.05767361 0.060936134 -0.024084076 0.048073657 0.022872768 0.068279654 -0.022521442 0.04803455
0.05624661 0.008338294 -0.051150676 0.022437423 -0.05907352 0.07436518 -0.0018591568 0.035187878
0.07551 -0.0014882932 0.06382272 -0.07720157 -0.07581138 -0.02546758 -0.02286215 0.018473577
-0.010928306 -0.022263082 -0.019891862 0.053402748 0.04902742 -0.059811383 0.08025125 -0.018273953
0.013946637 0.010219125 -0.0072818315 -0.0637856 0.0048860977 -0.0012638362 -0.04837145 0.072253294
0.000649804 -0.0007156784 -0.03813432 0.05935704 -0.059032224 0.018708 0.088172704 0.012692104
-0.033513337 -0.08031653 0.04671961 0.08862708 0.055683676 -0.029070511 -0.07700507 0.035380933
0.08295979 -0.066987306 0.05329898 0.03563737 0.059949107 -0.031105045 -0.05762859 -0.02737804
-0.023369752 0.019442106 0.0058507253 0.078872815 -0.06757419 0.0010488458 -0.04814985 0.08681535
-0.062883794 -0.08074081 -0.014949598 -0.0786642 -0.04657244 0.016709201 -0.02612179 0.020664044
-0.004794434 -0.021851411 0.024872199 0.09092871 0.064456336 -0.035865944 -0.021776555 -0.08079501
0.061947726 -0.09056593 -0.037832838 -0.075359315 -0.05651142 -0.038665496 -0.062322427 0.0366861
0.028482335 0.08224578 0.005555312 0.024141721 0.048447926 0.059061177 -0.036784753 -0.027387394
-0.040632136 -0.0819465 0.04722587 0.06115028 -0.0010660341 -0.06562761 -0.055386588 -0.005815928
-0.042695645 -0.016931333 -8.3259685e-05 0.08465115 -0.04043114 0.076257676 -0.019875966 0.053062964
0.026736835 0.07178074 -0.08588558 0.003146089 -0.06563588 -0.0085185785 -0.09039467 0.027017754
-0.031615466 -0.0739416 -0.07145906 0.02074096 0.013520784 0.039985485 -0.08179083 0.031213569
-0.005202604 -0.0440789 -0.0023393803 -0.076842465 -0.062555216 0.056320425 0.07526235 -0.044417866
-0.016661964 -0.07606661 0.059333272 0.0686399 -0.056382243 -0.014320173 -0.056307156 0.018688587
0.062110644 -0.038470253 0.09236259 -0.08111026 -0.076184794 0.042291302 -0.075948104 -0.025184443
0.07944253 0.043472145 -0.057884503 0.03536033 0.018772107 -0.04170635 0.037203465 -0.06612063
-0.08149294 0.032518953 0.014746043 -0.07894828 -0.03323683 -0.07502961 -0.011939756 0.08628211
0.08793764 -0.017313855 -0.037472323 0.050206434 -0.015961558 0.05311114 -0.06990191 0.016832698
00000000: d8d2 523d e37e 92bd 9d05 67bd 449d 7ebd
00000010: 1b7d 4c3d 66a9 3ebd 06d5 8cbc fd03 adbb
00000020: ce1d 2dbd 6604 b2bb ae68 39bd c6c1 083d
00000030: a1ae 59bd 019a 1e3a 38bc ecbc 2b7e 7dbd
00000040: 487d 40bc 36ca 9f3d 9a8f 47bd 82f9 a3bd
00000050: 97b1 0ebd 9fb9 6c3d 65d0 663d 1a1e 333d
00000060: f836 f4bc b890 a0bd e73b 713d 0a79 52bd
00000070: 5261 04bd 30b3 1bbd a18c e6bc 6ee0 233d
00000080: 7329 223d 9769 92bb 0485 143d e3d9 853d
00000090: 65da 2d3d 0775 8d3d 4022 203c d323 9b3c
000000a0: a651 06bd 144c 9e3c dea2 72bd 962f 93bd
000000b0: fa06 53bd 41ba 4ebd 6299 a0bd b0a7 e73c
000000c0: 6f78 8b3c ba5f 003d 8ddd babb dcfb 1fbd
000000d0: 9356 92bd c0b0 733c c14d 2cbc 197c 68bc
000000e0: d403 24bd 5c57 94bd 9f5a 893d e024 943d
000000f0: f66e a8bd cdf1 a93d 581a 39bd 6d7a 76bd
00000100: 0a11 ffbc 95a2 adbc f4ec 403c fd7d 1c3c
00000110: 56e0 0fbd 2c69 ad3d 0582 6b3c 3e95 06bd
00000120: 2a3b 6c3d 2b98 793d f84b c5bc e2e8 443d
00000130: ac5f bb3c 34d6 8b3d e37e b8bc e0bf 443d
00000140: d862 663d 579d 083c 5f83 51bd b0ce b73c
00000150: 13f7 71bd c64c 983d f3ae f3ba 2a21 103d
00000160: fda4 9a3d d512 c3ba 7cb5 823d db1b 9ebd
00000170: ff42 9bbd 63a1 d0bc 6749 bbbc e655 973c
00000180: a30c 33bc 1161 b6bc 42f4 a2bc d7bc 5a3d
00000190: fad0 483d c8fc 74bd c45a a43d 42b3 95bc
000001a0: 6f80 643c 1e6e 273c 6e9c eebb 06a2 82bd
000001b0: 8f1b a03b 4ea7 a5ba 2421 46bd 89f9 933d
000001c0: 9c57 2a3a 5d9c 3bba bc32 1cbd 5e20 733d
000001d0: c6cb 71bd 8541 993c e493 b43d 8bf2 4f3c
000001e0: 4845 09bd fe7c a4bd 105d 3f3d 1d82 b53d
000001f0: 9114 643d 4825 eebc d6b4 9dbd 99eb 103d
00000200: d3e6 a93d a430 89bd 0850 5a3d 7ef8 113d
00000210: 328d 753d 02d0 febc f50b 6cbd e947 e0bc
00000220: ec71 bfbc 0d45 9f3c 71b7 bf3b 1288 a13d
00000230: 5664 8abd 6d79 893a c738 45bd 3fcc b13d
00000240: 38c9 80bd 705b a5bd 29ef 74bc b21a a1bd
00000250: bec2 3ebd bce1 883c 5dfd d5bc a447 a93c
00000260: a11a 9dbb bb01 b3bc c8c0 cb3c d538 ba3d
00000270: af01 843d 2be8 12bd bf64 b2bc db77 a5bd
00000280: e6bc 7d3d a17a b9bd 9bf6 1abd fc55 9abd
00000290: 8578 67bd b65f 1ebd cd45 7fbd 2a44 163d
000002a0: c953 e93c 7a70 a83d 5609 b63b dcc4 c53c
000002b0: 5571 463d 22ea 713d 9cab 16bd 875b e0bc
000002c0: e26d 26bd 91d3 a7bd ea6f 413d b778 7a3d
000002d0: 2bba 8bba c567 86bd 0cdd 62bd 8a93 bebb
000002e0: a1e1 2ebd 94b3 8abc b49b aeb8 955d ad3d
000002f0: 209b 25bd fc2c 9c3d ecd2 a2bc 8d58 593d
00000300: 3507 db3c c801 933d c7e4 afbd 9d2e 4e3b
00000310: 1b6c 86bd 8291 0bbc d720 b9bd 5654 dd3c
00000320: 387f 01bd b26e 97bd 2159 92bd f2e8 a93c
00000330: 4786 5d3c d2c7 233d f381 a7bd 99b3 ff3c
00000340: 9b7a aabb 148c 34bd 4a50 19bb 955f 9dbd
00000350: f31c 80bd 3fb0 663d 2623 9a3d 82ef 35bd
00000360: ac7e 88bc d0c8 9bbd 7207 733d 1393 8c3d
00000370: 11f1 66bd 299f 6abc 55a2 66bd cf18 993c
00000380: bb67 7e3d fc92 1dbd 9928 bd3d 231d a6bd
00000390: c606 9cbd a539 2d3d ae8a 9bbd 9b4f cebc
000003a0: c4b2 a23d d90f 323d 4d18 6dbd fed5 103d
000003b0: f6c7 993c 47d4 2abd a962 183d 416a 87bd
000003c0: c5e5 a6bd 9832 053d 6399 713c a3af a1bd
000003d0: 5823 08bd 20a9 99bd f79e 43bc adb4 b03d
000003e0: a618 b43d c9d5 8dbc 947c 19bd 43a5 4d3d
000003f0: d0c1 82bc 118b 593d bc28 8fbd bae4 893c

policy_network.3.weight f4 [256]
0.6725332 0.56092954 0.7301932 0.908626 0.8237516 0.56080806 0.78764063 0.66534567
0.5164907 0.6627349 0.61245394 0.892943 0.7743994 0.4789513 0.62948406 0.6306287
0.70750886 0.49900597 0.40217015 0.7597092 0.7560637 0.62246615 0.69972867 0.8212222
0.33670568 0.7862442 0.4547186 0.84129405 0.53057516 0.8788963 0.8748438 0.67128533
0.7684139 0.7059404 0.9102697 0.54933405 0.55958104 0.61153567 0.7339496 0.7139738
0.78012246 0.5080543 0.75404644 0.84792006 0.7751387 0.89542234 0.619726 0.5697888
0.8349794 0.37238175 0.9501274 0.685467 0.62058496 0.8669618 0.79322463 0.6099107
0.5435657 0.89651185 0.690916 0.6711624 0.71998256 0.7516513 0.5755245 0.58845
0.90190536 0.7414555 0.7000448 0.677392 0.50618404 0.8721395 0.7781378 0.6574218
0.9035216 0.89910275 0.7289449 0.8818001 0.79135334 0.66319746 0.813399 0.8169708
0.7159009 0.8631804 0.728485 0.51080173 0.8318127 0.8933679 0.80675536 0.865812
0.86982167 0.90498877 0.5774908 0.60672736 0.72024614 0.61271155 0.70045716 0.5777034
0.6005911 0.6099516 0.69982976 0.6253188 0.5628591 0.7508152 0.73287356 0.6816425
0.47403055 0.78998876 0.49808177 0.7021765 0.5228387 0.80676866 0.6147451 0.8059951
0.6574905 0.49460363 0.6257715 0.63398 0.56109774 0.6688301 0.71262074 0.8081902
0.8539207 0.7467087 0.59720063 0.3706599 0.7024561 0.6809055 0.7396704 0.8636458
0.83901274 0.74551374 0.7006491 0.51456976 0.87128884 0.8394138 0.8422751 0.6918583
0.45457572 0.7129139 0.6558989 0.5150242 0.50795454 0.70510197 0.880552 0.81530136
0.662097 0.6726798 0.7856349 0.6565 0.84474605 0.74463534 0.83362 0.56288904
0.5872088 0.7734425 0.9231697 0.5807968 0.8066081 0.42901388 0.9073961 0.39892846
0.66023564 0.60431653 0.6915794 0.8736926 0.7370528 0.8923864 0.8821117 0.9166676
0.5320172 0.87140906 0.7236641 0.7428193 0.7890525 0.608921 0.69614065 0.68433636
0.7385575 0.72335696 0.87137264 0.86034787 0.76480234 0.73205316 0.47198513 0.6112551
0.65572524 0.68698287 0.61914945 0.6411019 0.5801367 0.5383656 0.76778525 0.6214329
0.6630167 0.78451794 0.5869523 0.74131083 0.83672464 0.63500404 0.9084864 0.9188431
0.44841477 0.66547334 0.7535661 0.5669639 0.9110617 0.71475035 0.71039546 0.7183867
0.8956531 0.556618 0.70521706 0.672074 0.72828376 0.49398962 0.7122488 0.851565
0.69931114 0.8174473 0.4765068 0.7037781 0.885376 0.4007863 0.8731758 0.4681475
0.6194762 0.65232086 0.90414256 0.6297283 0.54549533 0.55633444 0.75673765 0.8774013
0.75565165 0.62046456 0.7842375 0.74102443 0.6135918 0.75882816 0.7441793 0.82933325
0.3497989 0.3748264 0.7384119 0.9107051 0.6570035 0.7546541 0.5216882 0.8811677
0.83784854 0.5914219 0.8514927 0.5454442 0.6431953 0.87927896 0.8736835 0.8254772
00000000: 232b 2c3f 1499 0f3f f1ed 3a3f b79b 683f
00000010: 63e1 523f 1e91 0f3f d1a2 493f 1854 2a3f
00000020: bc38 043f ffa8 293f c8c9 1c3f ea97 643f
00000030: 0a3f 463f 1b39 f53e de25 213f e270 213f
00000040: 4d1f 353f b67d ff3e 3fe9 cd3e 4d7c 423f
00000050: 648d 413f f159 1f3f 6b21 333f 9e3b 523f
00000060: b064 ac3e 4d47 493f e0d0 e83e 0c5f 573f
00000070: c6d3 073f 59ff 603f c3f5 5f3f 5bd9 2b3f
00000080: c6b6 443f 83b8 343f 6f07 693f 28a1 0c3f
00000090: b440 0f3f 9a8d 1c3f 1fe4 3b3f fdc6 363f
000000a0: 1bb6 473f d90f 023f 3009 413f 4a11 593f
000000b0: 7d6f 463f 663a 653f 5da6 1e3f aedd 113f
000000c0: 36c1 553f d2a8 be3e 8d3b 733f c47a 2f3f
000000d0: a8de 1e3f 35f1 5d3f c510 4b3f 1c23 1c3f
000000e0: 1f27 0b3f cd81 653f dfdf 303f 4dd1 2b3f
000000f0: c750 383f 386c 403f 9355 133f a9a4 163f
00000100: 45e3 663f 07d0 3d3f 2336 333f 9069 2d3f
00000110: 4795 013f 8944 5f3f 0a34 473f cc4c 283f
00000120: 314d 673f 992b 663f 229c 3a3f a7bd 613f
00000130: 2296 4a3f 4fc7 293f eb3a 503f 0025 513f
00000140: 4845 373f 64f9 5c3f fe7d 3a3f e7c3 023f
00000150: adf1 543f c2b3 643f 8587 4e3f dba5 5d3f
00000160: a2ac 5e3f 58ad 673f 70d6 133f 7c52 1b3f
00000170: 0d62 383f aada 1c3f 2951 333f 5fe4 133f
00000180: 57c0 193f ca25 1c3f 0b28 333f e514 203f
00000190: 8917 103f 6d35 403f 9a9d 3b3f 1f80 2e3f
000001a0: 22b4 f23e b43c 4a3f 9304 ff3e d7c1 333f
000001b0: c2d8 053f 6488 4e3f ef5f 1d3f b255 4e3f
000001c0: 4c51 283f b03c fd3e 9032 203f 834c 223f
000001d0: 1aa4 0f3f 7338 2b3f 506e 363f 8ee5 4e3f
000001e0: 8c9a 5a3f 4d28 3f3f 24e2 183f 22c7 bd3e
000001f0: 2ad4 333f d34f 2e3f 0a5b 3d3f e417 5d3f
00000200: 8ac9 563f fdd9 3e3f bd5d 333f d8ba 033f
00000210: c90c 5f3f d3e3 563f 579f 573f a01d 313f
00000220: 26be e83e 8681 363f fee8 273f a0d8 033f
00000230: 4f09 023f 9081 343f db6b 613f 97b7 503f
00000240: 307f 293f be34 2c3f 5e1f 493f 6210 283f
00000250: 4741 583f 6ca0 3e3f 1f68 553f 7f19 103f
00000260: 5153 163f 5400 463f d954 6c3f 19af 143f
00000270: de7d 4e3f b5a7 db3e 1c4b 683f 5a40 cc3e
00000280: 3405 293f 7db4 1a3f 590b 313f 51aa 5f3f
00000290: 7eaf 3c3f 6f73 643f 13d2 613f baaa 6a3f
000002a0: 4732 083f aa14 5f3f 0d42 393f 6829 3e3f
000002b0: 58ff 493f 3fe2 1b3f 4636 323f ab30 2f3f
000002c0: 1b12 3d3f ec2d 393f 4712 5f3f c23f 5c3f
000002d0: 16ca 433f d667 3b3f 09a8 f13e 377b 1c3f
000002e0: 9cdd 273f 1cde 2f3f 9480 1e3f 411f 243f
000002f0: d783 143f 54d2 093f 938d 443f 3a16 1f3f
00000300: 76bb 293f 2bd6 483f 8242 163f 8cc6 3d3f
00000310: 9633 563f a08f 223f 9192 683f 4d39 6b3f
00000320: 9f96 e53e 765c 2a3f b5e9 403f 8c24 113f
00000330: 573b 693f e1f9 363f 7adc 353f 31e8 373f
00000340: 8649 653f 847e 0e3f 1b89 343f 0b0d 2c3f
00000350: ce70 3a3f 35ec fc3e f055 363f 2a00 5a3f
00000360: 0e06 333f 3a44 513f b3f8 f33e cd2a 343f
00000370: 00a8 623f dd33 cd3e 7388 5f3f 07b1 ef3e
00000380: fe95 1e3f 80fe 263f e375 673f e035 213f
00000390: 95a5 0b3f ef6b 0e3f 8fb9 413f 5f9d 603f
000003a0: 6372 413f c4d6 1e3f cac3 483f c7b3 3d3f
000003b0: 5a14 1d3f 9042 423f 8982 3e3f 2f4f 543f
000003c0: d718 b33e 3fe9 bf3e 9008 3d3f f823 693f
000003d0: 6231 283f 0331 413f 5c8d 053f 3594 613f
000003e0: 3e7d 563f 6d67 173f 6dfb 593f 3ba2 0b3f
000003f0: 72a8 243f 6d18 613f b9a9 5f3f 7952 533f

policy_network.3.bias f4 [256]
0.0026896535 0.08378997 0.17428227 -0.26354426 0.24108158 0.21640779 0.18997416 -0.13894084
0.125235 0.103760794 -0.23947957 0.18337731 0.041052915 0.0018087614 0.19263676 -0.161929
-0.18158786 0.055164505 0.08427103 0.13799968 0.092871666 0.020524513 -0.08561964 -0.13961239
-0.029374354 0.094706565 -0.02465291 -0.020243399 0.026281444 -0.22740866 0.26418677 0.17948478
-0.16829881 -0.030479874 0.2591481 -0.030393932 0.031313762 -0.10391361 0.13695654 -0.16992272
0.10526094 0.08558616 -0.016564546 0.2565715 0.17845438 -0.25755805 0.27790082 0.046495687
-0.14372699 -0.1458215 0.26233244 0.17652673 0.0650669 0.18495956 -0.039925918 -0.07703698
0.037052996 -0.26051447 -0.11322788 -0.13556439 -0.062349886 -0.24127875 -0.05864196 -0.07286695
0.2646757 0.043357924 -0.030041927 -0.023292951 -0.013240045 -0.22182932 0.17767881 -0.20982751
0.2426162 -0.25076333 0.1760109 -0.2505269 -0.18541737 -0.0066268817 0.12894805 -0.18424486
0.041567385 0.16833517 0.08805521 0.05802419 0.18813549 0.24970418 -0.22510688 -0.23713052
0.22900099 0.24213006 -0.06055185 0.09920632 0.056478687 0.0019345774 -0.0018258352 0.2323875
0.023088852 -0.14624782 0.0558283 0.10004316 -0.19290648 0.1213241 -0.074160814 -0.23548363
0.018733189 -0.056895915 -0.16061881 -0.21034186 0.11265846 0.19959758 -0.06087337 -0.12271983
0.106190056 0.021596504 0.014109631 0.09431071 0.038401667 -0.014736401 -0.23892461 0.16021958
-0.2476896 0.07570649 -0.12538967 -0.023626417 0.019592013 -0.097043015 0.009015063 -0.21817288
-0.25184727 -0.20586368 0.0979285 0.13785891 -0.1837652 -0.080889575 0.24761808 -0.07664
0.0808834 -0.16522811 0.12074303 0.10977368 0.06396978 -0.055670507 -0.22735317 0.14849745
0.16249996 0.051508393 -0.07801854 -0.022410095 -0.24080461 -0.152698 0.22581396 -0.12653328
-0.0027021058 0.1279929 -0.25046566 -0.18470418 -0.21442954 0.06666767 0.26432395 -0.0065593086
-0.115977585 0.11779701 0.22474408 -0.22686 0.018674308 0.1958921 -0.2597297 -0.21975964
0.20113611 0.2529758 0.07870051 -0.11018867 0.095092446 0.1968278 -0.10141036 -0.13958916
0.14163305 0.13198447 0.2257318 -0.25439408 -0.017307745 0.0039579417 -0.09600858 -0.15831576
0.009986975 -0.097009905 0.024540748 -0.12964754 -0.096945174 0.024158355 -0.10863456 0.20078327
0.083098955 -0.23168 0.04018973 0.051162712 0.17688663 -0.02935429 0.24002796 -0.26284343
0.005322646 -0.0356071 -0.21389954 -0.054844573 -0.2715973 0.04021966 -0.052717723 -0.10467861
0.2366418 -0.09453135 0.25374806 -0.0021162087 0.105695404 -0.030672202 0.1073 0.19384989
-0.0015010918 0.14467877 -0.14156236 -0.1450934 0.1914211 0.04121626 0.2031193 -0.10123475
0.19830495 -0.042036306 -0.27011135 0.16195492 -0.11407679 -0.092233345 0.122285046 -0.24081732
0.01161832 -0.14178522 -0.11651917 0.12375507 0.078649186 0.09914287 0.11040768 0.20012057
0.076856636 0.12408274 0.031973526 0.23977822 0.0395519 0.22061177 0.034343217 -0.23165897
-0.13290249 -0.16420756 0.25623938 -0.04442895 -0.044827554 0.2159088 -0.20089038 0.18755485
00000000: e644 303b 139a ab3d 0d77 323e 46ef 86be
00000010: 17de 763e 019a 5d3e 9688 423e 8246 0ebe
00000020: 9b3d 003e 8a80 d43d 223a 75be 43c7 3b3e
00000030: 1a27 283d f613 ed3a 9242 453e b7d0 25be
00000040: 2bf2 39be 2df4 613d 4a96 ac3d ca4f 0d3e
00000050: 8033 be3d 0623 a83c 5a59 afbd 8df6 0ebe
00000060: 7ca2 f0bc 84f5 c13d e6f4 c9bc 7cd5 a5bc
00000070: 2f4c d73c d1dd 68be 7d43 873e dcca 373e
00000080: 8656 2cbe eeb0 f9bc 0faf 843e b2fc f8bc
00000090: dc42 003d a9d0 d4bd 563e 0c3e 3900 2ebe
000000a0: 0c93 d73d cc47 af3d 5fb2 87bc 575d 833e
000000b0: bfbc 363e a6de 83be 0449 8e3e 4372 3e3d
000000c0: 2b2d 13be 3b52 15be 7050 863e 6cc3 343e
000000d0: cb41 853d 0a66 3d3e 5c89 23bd 90c5 9dbd
000000e0: e2c4 173d 2762 85be 05e4 e7bd 64d1 0abe
000000f0: 9862 7fbd c711 77be 8d32 70bd 443b 95bd
00000100: 9383 873e 1498 313d 7d1a f6bc dcd0 bebc
00000110: c6ec 58bc 3a27 63be 6ff1 353e 06dd 56be
00000120: 6270 783e 0d64 80be 343c 343e 1045 80be
00000130: 0dde 3dbe 5026 d9bb f50a 043e afaa 3cbe
00000140: 9042 2a3d 0e60 2c3e 4a56 b43d c6aa 6d3d
00000150: 97a6 403e 74b2 7f3e 6b82 66be 58d2 72be
00000160: 3c7f 6a3e f1f0 773e 3705 78bd af2c cb3d
00000170: 3256 673d a591 fd3a dd50 efba fdf6 6d3e
00000180: d524 bd3c fdc1 15be 37ac 643d 6ee3 cc3d
00000190: 4789 45be c578 f83d a0e1 97bd 9f22 71be
000001a0: 5876 993c b10b 69bd 4279 24be db63 57be
000001b0: 7bb9 e63d 4f63 4c3e 5b56 79bd 8954 fbbd
000001c0: 2c7a d93d 27eb b03c 152c 673c f925 c13d
000001d0: 114b 1d3d f270 71bc a7a8 74be 9a10 243e
000001e0: 58a2 7dbe 010c 9b3d 2666 00be 308c c1bc
000001f0: 6e7f a03c 7dbe c6bd eab3 133c b668 5fbe
00000200: 20f2 80be eecd 52be bd8e c83d e32a 0d3e
00000210: f22c 3cbe 6fa9 a5bd 988f 7d3e 6ff5 9cbd
00000220: 32a6 a53d 8f31 29be 1f48 f73d 06d1 e03d
00000230: 9702 833d c206 64bd 45cf 68be b70f 183e
00000240: 6466 263e 77fa 523d 2fc8 9fbd 6095 b7bc
00000250: 7c95 76be dd5c 1cbe c63b 673e f191 01be
00000260: d015 31bb 9210 033e 093d 80be 1823 3dbe
00000270: 6b93 5bbe 0f89 883d 7855 873e 78ef d6bb
00000280: a885 edbd 8f3f f13d 5023 663e fd4d 68be
00000290: ddfa 983c f097 483e 4bfb 84be ac08 61be
000002a0: a0f6 4d3e 0b86 813e bc2d a13d 99aa e1bd
000002b0: d4bf c23d 3a8d 493e 3cb0 cfbd 76f0 0ebe
000002c0: 4108 113e f026 073e 3d26 673e f13f 82be
000002d0: f9c8 8dbc 9fb1 813b 25a0 c4bd 871d 22be
000002e0: 69a0 233c 21ad c6bd ae09 c93c 53c2 04be
000002f0: 318b c6bd bee7 c53c cc7b debd 219a 4d3e
00000300: c92f aa3d 863d 6dbe fc9d 243d fe8f 513d
00000310: c521 353e 6878 f0bc e4c9 753e 6a93 86be
00000320: 9769 ae3b c0d8 11bd 7b08 5bbe b4a4 60bd
00000330: cd0e 8bbe 5fbd 243d 8aee 57bd bd61 d6bd
00000340: 3a52 723e a799 c1bd 44eb 813e 17b0 0abb
00000350: d576 d83d 4544 fbbc 1ac0 db3d 9680 463e
00000360: 48c0 c4ba ac26 143e b9f5 10be 5d93 14be
00000370: e503 443e 62d2 283d 81fe 4f3e 2a54 cfbd
00000380: 7410 4b3e 432e 2cbd 094c 8abe 83d7 253e
00000390: 18a1 e9bd d6e4 bcbd 9570 fa3d d198 76be
000003a0: c45a 3e3c 2530 11be 9aa1 eebd 4c73 fd3d
000003b0: d312 a13d 6b0b cb3d 6c1d e23d 68ec 4c3e
000003c0: 0367 9d3d 171f fe3d acf6 023d 6c88 753e
000003d0: 2c01 223d 0de8 613e 79ab 0c3d 0238 6dbe
000003e0: 9717 08be 0726 28be cf31 833e 21fb 35bd
000003f0: 199d 37bd 3217 5d3e 35b6 4dbe 610e 403e
