Results/GOOGL/DeepRL; DATA_KIND(AutoPatternExtraction); BEGIN_DATE(None); END_DATE(None); SPLIT_POINT(2018-01-01); StateMode(5); WindowSize(50); BATCH_SIZE10; GAMMA0.7; REPLAY_MEMORY_SIZE20; TARGET_UPDATE5; N_STEP10/model.pkl (torch, 249013 bytes, 14 tensors)

policy_network.0.weight f4 [128, 200]
00000000: 57b3 12be 6fcc acbd 7a25 9dbd 0420 1cbe
00000010: 84d2 45be 8749 02be 0caa 28be cc66 5dbe
00000020: c24f 5abe 5e36 6bbe f08d 77be 8c59 67be
00000030: 4332 7ebe 4ee0 eabd 9c10 27be 0892 2dbe
00000040: 56eb 42be 2548 5cbd 42b2 93bd 9633 0fbe
00000050: f0cc 03be 3177 eabd e9c6 c7ba 0f85 eabd
00000060: 53c0 bfbc 4df7 bd3c 6098 283c e242 7fbd
00000070: 6ab8 56bc e721 303d 1f1b 793d ff19 8a3d
00000080: 24f2 3c3d b23f 5c3d 435b 303d 0639 8ebb
00000090: b651 a03d 144f 003e 917f a73d 6a01 403d
000000a0: 6589 8b3d 7a67 e83d ef68 703d 7fab a83d
000000b0: 127f 07bd 7508 b73d be3a 133d b268 7e3d
000000c0: 8ab6 863d 0ea3 383d 7b49 92bd f7ce f2bc
000000d0: 618d e93c 6213 c5bc c0cf 21bd daab 973d
000000e0: 98fc b5bc 9cf9 b23d 41ae 80bb d19a 013c
000000f0: d9be 00bd 055b a2bd 7ccb 4abd fd39 c0ba
00000100: adff e03c 8af6 88bc 5a4f 02bc 942a 893d
00000110: 7149 653c ea25 d43c 3a49 d33b 66f2 c43c
00000120: ace0 04bc 201a 98bc 4e31 d6bc 7ade 7ebd
00000130: 33c0 d5bd 373e 2cbe 59fe f4bd 5901 81bd
00000140: f326 d2bd 4658 f33b 97f0 063c 1c76 c8bc
00000150: 6c0a 1fbd f236 e53c 310a e7bc cf4e e73c
00000160: 6596 babc db57 783d 3f0b 25bd a756 53bd
00000170: 86fd 423d c7a3 fa3d 1393 6d3d 6888 283d
00000180: dc30 ce3d 7943 d63c 9787 ac3c 44c9 48bd
00000190: a989 acbb 770b 1fbc 7e4f ffbc ea6d 403d
000001a0: 6f83 4dbb 6a15 3b3d 0803 d03c c3fe 723d
000001b0: d43b bdbc 01ef a13d b237 043e 9b53 313d
000001c0: 8a49 cbbc 55df e1bb 9bf6 3dbb 60af cebc
000001d0: 5def 653d d5bc 02bd 6b1d 1f3e 2b5c ce3d
000001e0: 0691 c63c b134 f63d 53fd d23d 82c0 823d
000001f0: 78e2 0c3e 42a9 2c3d 2c5f 883d 49a9 053d
00000200: a6b9 c63d d0e5 923c 1da7 dbbc 2bcb 7abd
00000210: 2031 183d f4bf 0b3d 0451 8cbc b2ab d4bc
00000220: d23a 333d 19be 043e 508f 673d 3408 cb3d
00000230: 5d6e ea3c ffad 6a3c f1f5 773d 0076 843c
00000240: 92c4 2dbd f244 b9bb 345d 88bd df21 7fbd
00000250: 3dbb 08be ea14 f6bd 0245 2ebe b0f8 1d3c
00000260: 2841 0fbd c78e e5bd fc20 03bd 6fa4 89bd
00000270: 8f90 05be ef25 f6bd 7c0e 9fbc 50b2 3dbe
00000280: 8f8c d0bd e49b b8bd 1570 d7bd ca99 f3bd
00000290: 3e01 05be 8e6b e1bd 7591 07be bab0 39be
000002a0: b5d1 63bd 9632 41bd 026e aebd d98e 853d
000002b0: 671a 56bd 3b10 48bd 7b3d 03bc 9b19 abbd
000002c0: a42c 8cbd 36f4 38bc a35e 1bbd be7a 97bd
000002d0: 9652 31bc dc25 30be 4b12 31be d81b c6bd
000002e0: 1468 1abe f67d d6bd a7a1 c0bc ce9c c13b
000002f0: 7aad 26bd 6670 8cbc 8ad8 963d 8433 abbc
00000300: d6d1 b73d 9878 d4bc 0b1f a7bd 7a43 68bc
00000310: aa5e 10be f7fd e7bd c904 2dbe 776a 73be
00000320: e775 c2bd df8d 60be aa99 19be 9548 12be
00000330: 9262 3fbe a273 b4bd 0697 54be b93b 06be
00000340: 4a71 72bd 9b4b 18be f2be 72bb 0a1c 53bc
00000350: bf03 92bd bb41 8d3a 8b7e 8b3b 6a2b d6b8
00000360: 6796 c5bb 8722 103d 1f9e 2ebc 3f09 62bd
00000370: 1d84 623c e04d acbc 0077 9dbd 8448 813d
00000380: 9dbc a83d fbfb 983d 3998 cc3c 8333 b93d
00000390: c14a 763d e975 6b3d 87aa c23c d60c cb3d
000003a0: 0a74 aabc d53e bb3d 8ba1 563b 847b bf3d
000003b0: 665a 1e3d ede7 e33d c951 f73d e287 173e
000003c0: bf3a e03d 71a0 203e 262d f73d fe49 f43d
000003d0: 750b e63c 83e9 513d 08eb ef3d b1bf abbc
000003e0: d0b4 9c3d 9761 a238 ffa4 d03d a586 88bc
000003f0: d630 0f3c 8b2f 043d d91b ff3d 01b8 913c
-0.14326225 -0.0843743 -0.07673164 -0.15246588 -0.19318587 -0.12723361 -0.16471118 -0.21621245
-0.21319488 -0.22969958 -0.24175239 -0.22592753 -0.24823861 -0.11468564 -0.1631493 -0.16950238
-0.19035086 -0.05377974 -0.07211734 -0.13984522 -0.12871146 -0.11448515 -0.0015241775 -0.1145116
-0.023407137 0.023189211 0.010290235 -0.062319644 -0.013105491 0.04300108 0.06081688 0.067432396
0.04612936 0.053771682 0.043055784 -0.004340294 0.07828085 0.12530166 0.08178628 0.04687635
0.06813315 0.113478616 0.058693822 0.08235835 -0.033080168 0.0893716 0.035944693 0.062111564
0.06577785 0.045077376 -0.071429215 -0.029639704 0.028509798 -0.024057094 -0.039504766 0.07405825
-0.022215173 0.087390155 -0.0039270227 0.007910446 -0.031432007 -0.07927517 -0.049510464 -0.0014665719
0.027465666 -0.016719121 -0.007953489 0.06697574 0.013994561 0.025896985 0.0064479383 0.024041366
-0.008110207 -0.018567145 -0.026146557 -0.06222389 -0.1043705 -0.16820608 -0.119625755 -0.06299085
-0.10261335 0.0074262945 0.008236072 -0.024470381 -0.0388283 0.027980302 -0.028203102 0.028235821
-0.022776792 0.06063066 -0.04029393 -0.05159631 0.04760506 0.12238269 0.05800159 0.041145712
0.10067913 0.02615522 0.021060748 -0.049020067 -0.005265434 -0.009707323 -0.031165835 0.046979822
-0.0031358858 0.04567472 0.02539207 0.05932499 -0.023099817 0.079069145 0.12911871 0.043292623
-0.02481534 -0.0068930783 -0.00289861 -0.02523011 0.056136478 -0.031918366 0.15538566 0.100761734
0.024239074 0.12021769 0.10302224 0.06384374 0.13758266 0.042153604 0.066587776 0.032632146
0.097033784 0.017931849 -0.026813084 -0.061228912 0.037156224 0.034118608 -0.017128475 -0.025960777
0.043757267 0.12963142 0.056533158 0.09913674 0.028617078 0.01432371 0.060537282 0.016169548
-0.042423792 -0.005653971 -0.06658402 -0.06228816 -0.13352676 -0.12015708 -0.17018512 0.009641811
-0.034974247 -0.11208873 -0.03201388 -0.06720816 -0.13043426 -0.12018954 -0.019416086 -0.18525052
-0.101830594 -0.09014109 -0.10519425 -0.11894567 -0.12988755 -0.110068426 -0.13239081 -0.18133822
-0.055619914 -0.047167383 -0.08517076 0.06521387 -0.052271273 -0.048843604 -0.008010264 -0.08354493
-0.06844452 -0.011288693 -0.03793205 -0.07396458 -0.010822913 -0.17201942 -0.17292134 -0.096732795
-0.15078765 -0.10473244 -0.023514582 0.005908585 -0.040692784 -0.01714344 0.0736552 -0.020898588
0.0897557 -0.02593641 -0.08160218 -0.014176244 -0.14098611 -0.11327737 -0.16896357 -0.23771082
-0.09495144 -0.2192912 -0.15000024 -0.142855 -0.18689945 -0.08811118 -0.20760736 -0.1310872
-0.059190072 -0.14872591 -0.0037040082 -0.012885103 -0.07129621 0.0010777035 0.0042570285 -0.00010212402
-0.0060298922 0.035189178 -0.010657816 -0.0551846 0.013825444 -0.021033227 -0.07688713 0.063126594
0.082391 0.074699365 0.02497493 0.09043028 0.060129885 0.057485495 0.023762954 0.09914558
-0.020807285 0.09142844 0.0032750096 0.093497306 0.03866043 0.11128221 0.12076146 0.14797929
0.10948705 0.15686204 0.12069158 0.119281754 0.028081635 0.051248085 0.117147505 -0.020965429
0.07651675 7.7429395e-05 0.101877205 -0.016665766 0.008739671 0.032271903 0.124564834 0.017787935

policy_network.0.bias f4 [128]
00000000: 2585 69bc 7e01 e0bb 730b 8bbc 4e66 353d
00000010: 7910 0d3e bfb6 16bc 0794 823d fc53 70bd
00000020: c0f5 90bd a043 d0bd 8268 88bd 8f54 09bd
00000030: 0739 35bd a4eb 783d 62af f03c b8d3 af3d
00000040: 83e6 003e 7199 ca3d 6f6d cd3d 43ba d9bc
00000050: 59b1 a33d 1f01 b1bc 5bfc 6abd 33dd 0abe
00000060: bbee 3cbd e160 a3bb 1f84 473d eb4a 48bd
00000070: b46e cbbd 80bc 2cbc f2ee 4dbd f4fc 04be
00000080: fe46 34bc e3c0 04bd d63c 563d bcc6 033d
00000090: ab06 1abd aa03 71bd ff57 76bd f19c fd3d
000000a0: ee22 a0be 91da 5f3d 0fcf 0bbe 8acc 06bd
000000b0: 852c 003c b6ce 5e3d 47fc 6fbd 6093 573d
000000c0: 86ef 2bbd 2751 58bd 9fd8 7abc 5e2f bfbc
000000d0: 1cb8 f8bd da92 97bd 75b9 47bd 172f 2e3d
000000e0: e62e af3d fd15 8f3d 9d38 a1bb 68c7 823d
000000f0: 02c1 953d 01de f23d f950 893d 85d1 77bd
00000100: 669d 113d 107b 96bc e5e9 983c ca8d 63bb
00000110: 3229 83bd 908c 883d 9300 4abd dc5e b43d
00000120: 3e62 a63d 7f1f 6b3d be0d c23d dbdf 183d
00000130: f760 e43b e348 d6bd 1754 fc3d 1df5 13bc
00000140: ca59 273d 6733 bc3d 8bc0 4e3d d2f9 193d
00000150: c012 f43d 9d5c 17bd 1ef1 613c 0c82 cbbd
00000160: c4f9 2bbe 0867 19bd e9d2 e13d 8f58 d53d
00000170: 8aac 7a3d b36c e2bc b932 f63d dcbc 6dbd
00000180: 8370 a73d 99f8 9d3d 4bb5 56bd d6a5 e13c
00000190: 2d63 40be 33a4 55bd 027b 6c3e a049 dcbd
000001a0: 6820 983b 30f3 fbbd 8d09 7a3d 5aa5 a83a
000001b0: 3de4 b8ba 865a 683d 24b6 98bd b49c 503d
000001c0: 04ee 923d 06c4 87bd 70ea b7bc d95a 8e3d
000001d0: 68eb 22be 7648 273d 8362 323d 6dc3 9b3d
000001e0: ffbf a7bd 0e12 0cbc e7c9 023e 38ce 0cbd
000001f0: 43e3 063e 16e9 e8bd 0fd0 34be 2246 643d
-0.014252936 -0.0068361154 -0.016973233 0.04428702 0.13775815 -0.0091988435 0.0637589 -0.058673844
-0.07078123 -0.101691484 -0.06660558 -0.033527907 -0.04424384 0.0607716 0.029380504 0.08585304
0.12587933 0.09892548 0.100306384 -0.026578074 0.07992811 -0.02160698 -0.05736957 -0.13560943
-0.04612611 -0.004985914 0.048709985 -0.048899572 -0.09933224 -0.010542989 -0.050276704 -0.12987119
-0.011003254 -0.032410514 0.05230411 0.03217195 -0.037604015 -0.058841385 -0.060142513 0.1238345
-0.3127665 0.0546518 -0.13653205 -0.032909907 0.007823114 0.054396354 -0.0585902 0.052630782
-0.041976474 -0.052811768 -0.015310436 -0.023338016 -0.12144491 -0.074010566 -0.04876085 0.042525377
0.08553867 0.06986616 -0.004920079 0.0638569 0.07312204 0.1185875 0.067048974 -0.060502548
0.035550497 -0.018369228 0.018666217 -0.0034721964 -0.06404342 0.06667435 -0.049316954 0.088071555
0.08124207 0.057403084 0.09475277 0.03732286 0.006969567 -0.10463121 0.12320726 -0.0090306075
0.040857114 0.09189492 0.050476592 0.037591763 0.11917639 -0.036953557 0.013790397 -0.09936914
-0.16794497 -0.037451774 0.11026556 0.10417282 0.061199702 -0.027639722 0.12021393 -0.05804144
0.08175757 0.07713432 -0.05241899 0.027544897 -0.18787833 -0.052158546 0.23093799 -0.1075623
0.004642535 -0.12302244 0.061044265 0.0012866661 -0.0014106106 0.056726955 -0.074566156 0.050930694
0.07174304 -0.066291854 -0.022450656 0.069509216 -0.15910113 0.04084059 0.04355098 0.07605634
-0.08190917 -0.008549226 0.12772332 -0.034376353 0.13172631 -0.113725826 -0.17657493 0.055730946

policy_network.1.weight f4 [128]
00000000: b518 853f b055 783f 2ccb 6f3f 0dcc 663f
00000010: 0fd7 723f 1405 703f fdef 973f 2a3e 823f
00000020: 9260 743f 4415 763f 6217 803f 469d 843f
00000030: 6fe5 813f 9e1e 7e3f 94e2 6b3f 2a90 7d3f
00000040: 5e66 853f e642 623f 25ae 893f ef26 743f
00000050: 2263 833f 8964 843f 31b9 743f 0049 843f
00000060: 3f73 813f 418f 763f f01f 7f3f b892 6a3f
00000070: dde4 823f c66d 813f 5a0b 823f 0f33 883f
00000080: bd87 813f 03bb 873f b3ce 823f 7d28 803f
00000090: 155c 673f b90a 633f 42e4 7b3f d4e4 833f
000000a0: 63d5 9f3f 10c3 8e3f 0f40 833f db15 6d3f
000000b0: 8516 753f 6090 693f 4d92 813f 33fb 7c3f
000000c0: a9bf 803f 473e 983f 1c6a 6d3f bbb9 8b3f
000000d0: 4fb7 8d3f 510d 7e3f a139 6c3f 377c 833f
000000e0: 2a3f 8b3f dfe6 803f 9523 893f 1982 783f
000000f0: 92e0 7a3f 4c2d 763f 067f 803f fd57 723f
00000100: 2af0 863f a3ab 763f ced6 8c3f 9b0d 743f
00000110: 9353 653f 3cce 843f f37c 853f 11a8 813f
00000120: b28d 833f bb2a 893f 0beb 8e3f 0fcd 7a3f
00000130: cf7e 723f ff31 7e3f 9bdb 833f 490f 873f
00000140: 1684 683f 095d 863f 07ad 763f 479d 803f
00000150: aed1 7d3f 3b85 893f d7b7 823f fb6f 753f
00000160: 4322 8a3f ec95 893f e49c 8d3f a9de 873f
00000170: be14 843f dc4e 7e3f 53ab 773f 2f85 7a3f
00000180: c42e 723f 9e0b 863f e1b2 7d3f b620 793f
00000190: 5076 873f 1267 773f 1368 843f f9ae 7b3f
000001a0: f142 6e3f 3e35 873f b496 6c3f 5383 6f3f
000001b0: 9415 823f f935 983f 8f4d 6b3f 55f8 843f
000001c0: 2c5f 883f 6a5a 823f b3bd 873f 593e 843f
000001d0: 3a31 7a3f 23db 853f e934 5e3f cca6 6f3f
000001e0: b5be 683f 4892 833f e5ad 703f d19e 7b3f
000001f0: 9a7e 883f 4d4b 963f 33d4 6c3f 3816 8c3f
1.0398165 0.9700575 0.9366939 0.90155107 0.94859403 0.9375775 1.1870114 1.0175221
0.95459855 0.961262 1.0007136 1.0360496 1.0148143 0.9926547 0.92142606 0.990481
1.0421865 0.8838333 1.075627 0.9537191 1.0264628 1.0343181 0.9559508 1.0334778
1.0113295 0.9631234 0.9965811 0.91630125 1.0226094 1.0111625 1.0159714 1.0640582
1.0119549 1.0603946 1.021933 1.0012356 0.9037488 0.88688236 0.9839517 1.0304208
1.2486995 1.1153278 1.0253924 0.92611474 0.9573749 0.91235924 1.0122772 0.988208
1.005849 1.1894006 0.92740035 1.0916055 1.1071566 0.9923907 0.92275435 1.0272282
1.0878651 1.0070456 1.0713984 0.97073513 0.9799892 0.9616287 1.0038764 0.9466551
1.0542042 0.96355647 1.1003053 0.9533326 0.8958065 1.0375438 1.0428756 1.0129415
1.0277617 1.0716165 1.116548 0.97969145 0.94724745 0.9929504 1.0301393 1.055154
0.9082655 1.0497142 0.9635777 1.0047997 0.9914807 1.0743784 1.0212353 0.95873994
1.0791706 1.0748878 1.1063504 1.0614825 1.031883 0.9933908 0.96745795 0.9785947
0.9460261 1.0472295 0.9910107 0.9731554 1.0582981 0.9664165 1.0344261 0.9831386
0.93070894 1.0563123 0.92417455 0.9355976 1.0162835 1.1891471 0.9191522 1.0388285
1.0654044 1.0183842 1.0604767 1.0331527 0.97731364 1.04575 0.86799484 0.93613887
0.90915996 1.0279016 0.9401534 0.9828921 1.0663636 1.174173 0.9251129 1.0944281

policy_network.1.bias f4 [128]
00000000: 102c 1cbc df43 bebc 61b6 553b 1fba 793b
00000010: 8a12 89bc 64f7 02bc 053c 02bd 1a78 93bc
00000020: 5da1 e0bb 0c9f 9ebc 1a83 4e3c 54f2 d0bc
00000030: 29d0 08bb cd6f fcbb acde c4bb 2bd9 483c
00000040: 05a3 8d3c 3b6c 103c cf0f 6cbc 6b4e a53c
00000050: a7ef 813c 0483 923b 0b66 feba f1fb c33c
00000060: 768f 943c 4fd7 21bc 91da 06bd d60e 133c
00000070: 00fc 9338 6c8b 1e3d e26a f9ba f9a0 86bc
00000080: ecc2 5abc f655 9abc 7b42 9b3b 9624 d6bb
00000090: 261c 4f38 72e9 b6bb 2107 49bb bddf a4bc
000000a0: ee1b 39bc d17a 1fbc 21eb d2bb ac20 9dbb
000000b0: 5826 4abb 419b adbc 4b2a 99bc 50ef 853c
000000c0: d48a 193a e36f 81bc 7958 7abc 9313 a539
000000d0: ac82 95bb 0908 533c 250d d8bc 3427 133d
000000e0: 75ad 32bc 5df5 923c c0d4 38bb a090 8cbc
000000f0: 3957 cc3c 2f49 f0bc 2c3b 1bbc 68e5 73bb
00000100: fd4f 27bb 9884 12bc 1a41 ba3b 08bb a9bc
00000110: 721a 72ba 64ed dfba 539b a8bc 508c feba
00000120: 6a32 013c 5f55 633c b369 4c3c 1257 493c
00000130: fdeb 9bbc 2f94 2dbc 24b7 e53a 7d9f 093a
00000140: b2b6 c83c c5a3 ca3a 7249 6b3b 0e3b 22bc
00000150: 9cd4 0c3c 1f0b b6bb 3b5b 4a3c 2313 7abc
00000160: f59d b33b d7fd 9a3b b16a e63b e4a4 97bb
00000170: 6864 7f3b 20ed fcbb fc8f 8abc 0629 4d3c
00000180: c9fc 90bc ac01 e33a 56ff 1b3c de01 cf3a
00000190: e53c 253d b64c acbc 3017 3bbb 245e 8e3c
000001a0: 21d6 f3ba 68a9 2fbc de68 85bb ac9e 15bb
000001b0: e48a 363c 9c77 66bc 6db0 82bc ddf0 163b
000001c0: bfb4 183c 2a59 b8bc 683d 623c 1d26 a3bc
000001d0: 0258 66ba 24d5 3cbc 2ab5 02bb cfd9 473c
000001e0: d927 d13b 65b9 c6bb 5439 193c 518e 0bbc
000001f0: d23c 0c3d 2d5d ffbb 971a 043c 40b5 97bb
-0.00953199 -0.023225723 0.0032609927 0.0038105322 -0.016732473 -0.007993553 -0.03179552 -0.018001605
-0.0068551735 -0.019362949 0.012604499 -0.025506176 -0.0020876026 -0.0077037574 -0.00600799 0.012258808
0.017289648 0.008814867 -0.014408066 0.020178994 0.015861345 0.0044711847 -0.0019409073 0.023923846
0.018134814 -0.009877994 -0.032923285 0.008975705 7.056445e-05 0.03870718 -0.0019029046 -0.01643418
-0.013352137 -0.018839817 0.0047381497 -0.006535123 4.937886e-05 -0.005582028 -0.0030674415 -0.020126218
-0.011298163 -0.009733872 -0.006436721 -0.0047951546 -0.0030845609 -0.021192195 -0.018696925 0.016349465
0.0005857174 -0.015800422 -0.015279883 0.00031485836 -0.0045626964 0.012880334 -0.026373455 0.03592606
-0.010905613 0.017939264 -0.002820298 -0.017158806 0.024943935 -0.029331772 -0.009474557 -0.0037215594
-0.0025529854 -0.008942746 0.0056840302 -0.020719066 -0.0009235508 -0.0017084298 -0.020581877 -0.0019420478
0.007885555 0.0138753345 0.0124763725 0.012288826 -0.019033426 -0.010594412 0.0017525894 0.0005249901
0.024501178 0.0015460184 0.003590193 -0.009901775 0.008595612 -0.005555525 0.012350853 -0.015263352
0.0054814764 0.004729967 0.0070317616 -0.004627811 0.003896976 -0.007718697 -0.01691436 0.012521988
-0.017698662 0.0017319224 0.009521326 0.0015793403 0.040341277 -0.021032672 -0.0028547756 0.017378874
-0.0018603244 -0.010721542 -0.004071339 -0.0022830172 0.011141513 -0.014066603 -0.015953267 0.002303175
0.009320437 -0.022503454 0.013808586 -0.019915635 -0.0008786918 -0.011525426 -0.0019944408 0.012197926
0.006382924 -0.006064581 0.009352047 -0.008517818 0.03423769 -0.00779309 0.00806298 -0.004629761

policy_network.1.running_mean f4 [128]
00000000: aebe 44c0 ee73 0240 a3f6 cebf c7ac cf3f
00000010: 636b db3f 6ad7 8bbe 4873 e83f fe24 47c0
00000020: 99a4 f43f dd8e 00bf 5b0d ddbf 3e9c 393f
00000030: d5be 60bf 2561 7ebf 2eb8 5740 7aa2 8b3f
00000040: f63c 80bf 055c 16bf 615e 383f f889 1cc0
00000050: 5fe9 7abf 6114 733f a0cb ad3f 200e 0ebf
00000060: 5136 013f 0566 69be aa4c 2a40 ed9f 9ebe
00000070: 1857 21be e995 713f 0c67 493f c96a 9cbf
00000080: 89c6 a03f a99f 27be 8275 923f 3c62 bcbf
00000090: 996d 0ec0 a226 523e eb5d 2ec0 2f86 843f
000000a0: 00b2 afbf 639e 94bd 98cd 6bc0 40b3 19bf
000000b0: 6dfc 0dbf 7c01 9f3f d908 3dc0 691f 0640
000000c0: 0df6 debf 834a 89bf 94f0 dc3f abad 323f
000000d0: 5e3a cabf 6faf 19c0 43ad 1440 acc0 583f
000000e0: 9a86 873f b27f 963f b0d5 13bd 31e5 8b3f
000000f0: e37c d0bf 3f1b 043f 1e68 2e3f 3e3b 3740
00000100: b8c2 fd3f 54f0 f73e 6a3e 40bf 0286 d2be
00000110: c6b9 e43f 576f e43e 303f 2e40 518e 2440
00000120: 479c 433f 58ca 5040 9ba8 a8bf 7089 6cbf
00000130: aaec 2dbe 358c 04be 32fa 8140 7220 07c0
00000140: aed7 0d3f f1ba 9dbf ac26 1140 fdac b33f
00000150: 3cc4 5640 e3f5 3ac0 8fbf f23f e3c7 5ec0
00000160: 12ce ddbf 423f 123f e0e7 9b3e a40b fcbd
00000170: 9aee 45bf 2892 8fbe d2fd fdbf c5d9 83bf
00000180: 0d24 de3f eac7 bebf 5188 d6bf bc94 18c0
00000190: 310d 503e 334a cc3e 3665 8bbe ebea 8d3f
000001a0: 9740 25c0 a84d 2d3f 492d 14b9 6213 1440
000001b0: b859 f83f 0a6d 9f3e 7e75 a23f 3211 d33f
000001c0: 4afb 16c0 8d54 8abf 44ed 06c0 9686 cd3e
000001d0: 85ec 72c0 a863 c23f b21b 90bf c0fa 00bf
000001e0: ece3 003e b2b3 7f3f bbd3 41c0 fe44 f0bf
000001f0: 9554 1440 6a11 fcbf 764d 1140 f683 bb3f
-3.0741382 2.0383258 -1.6169018 1.6224602 1.7142147 -0.27312785 1.8160181 -3.1116328
1.9112731 -0.5021799 -1.7269701 0.7250403 -0.87791187 -0.9936698 3.3706164 1.0908959
-1.0018604 -0.5873416 0.7201901 -2.445921 -0.98012346 0.9495297 1.3577766 -0.55490303
0.50473505 -0.22792824 2.6609292 -0.3098139 -0.1575588 0.9436937 0.7867286 -1.2220088
1.2560588 -0.163695 1.144211 -1.4717479 -2.2254393 0.2052255 -2.7244823 1.035345
-1.3726196 -0.07256772 -3.6844234 -0.6003914 -0.55463296 1.2422328 -2.953665 2.0956671
-1.7418839 -1.0725864 1.7260919 0.69796246 -1.5799062 -2.4013326 2.323075 0.84668994
1.0587952 1.175772 -0.03609246 1.0929319 -1.6288112 0.51604074 0.6812762 2.8629909
1.9825048 0.48425543 -0.75095236 -0.41117865 1.7869194 0.44616196 2.7226067 2.5711863
0.76410335 3.26235 -1.3176454 -0.92397213 -0.16984811 -0.1294411 4.0617914 -2.1113553
0.55407226 -1.2322675 2.2679853 1.4037167 3.3557272 -2.9212577 1.8964709 -3.48095
-1.7328513 0.57127774 0.30450344 -0.12306908 -0.773172 -0.28041196 -1.9843085 -1.0300833
1.7354752 -1.4904759 -1.676035 -2.384078 0.20317532 0.3990036 -0.27225655 1.1087316
-2.5820673 0.6769662 -0.0001413125 2.313683 1.940238 0.31137878 1.2692106 1.6489623
-2.3590875 -1.0807053 -2.1082315 0.40141743 -3.795686 1.5186663 -1.1258452 -0.50382614
0.12586945 0.9988357 -3.028548 -1.8771055 2.3176625 -1.9692814 2.2703528 1.4649646

policy_network.1.running_var f4 [128]
00000000: c9e5 363a 3ab3 ab3a d556 f13a dedd b239
00000010: 8ad8 013a ee18 d93a f103 a839 e44c 373a
00000020: 5bd0 5e3a fc96 3b39 800f 243b 0c7e ac3a
00000030: 06e3 493a 5514 c23a 4b71 243b ca7b f838
00000040: 0b5c c33a 8d15 e439 f41e 843a 4d2b 383b
00000050: 1ec6 613a dd2c 4b3a 3e0b 973a 6d6c 933a
00000060: 0038 d23a 6fad 193a a1d4 353b 2d3f 7d3a
00000070: 39f7 863a 5a3d e839 4c8f e839 2b0f 103b
00000080: fd1c 913a a774 df3a 59b5 a73a 4cf6 eb3a
00000090: d8e5 633a 1d78 5c3a 78bd 983a fee6 043a
000000a0: eb00 693a a530 a93a bd47 093b 78bc 823a
000000b0: d04c 633a 70c1 193a fd9c 333b ecc8 d73a
000000c0: 7507 0a3a a709 953a a6ef 143b 187d 9e3a
000000d0: 116f 2b3b 5743 f73a 6dc3 ba3a f695 763a
000000e0: 5268 0d3b f530 373a d9e9 973a 90c3 283a
000000f0: 30ad 833b 564f e13a dbbc 1c3a 58c1 8d3a
00000100: 38fa cb3a 4924 443a cf8d 223a bd69 7b3a
00000110: 0dd8 b53a 2140 a13a abd3 853b 6ba9 f239
00000120: 503b dc3a 7354 843b 57c7 9b39 5dcf bb3a
00000130: 15a1 3239 a9f7 503a 9fb5 723b 8780 843a
00000140: a11e 8c3a dbeb 0b3b b704 833a cf62 e039
00000150: dc20 583b 5a91 653b 44e7 c13a 2e6c 103b
00000160: 2471 503b 3159 2f3a 7a7d 6c3a 1b52 963a
00000170: 2df5 583a bb61 423a 8fff 703a 6e0a 513a
00000180: c3a5 de3a e8cf 3f3b 0a24 483a afa7 2c3a
00000190: 6f19 a73a 5884 053a 3545 053b 8bf9 fc39
000001a0: 4b48 493b 14f1 323b 3fc6 263a 5030 0a3b
000001b0: c010 8e3a 73fb 963a 3422 ff39 0f12 2d3a
000001c0: f15e 913a 390f dc39 af60 ef39 f99e c63a
000001d0: a479 6c3b 179e 943a 406d 133a aa2c 5e3a
000001e0: d40e 5a3a dabf c439 9067 fb3a 93f4 f13a
000001f0: cf86 083b 893a 023a 62bb e13a a7b2 223b
0.00069769897 0.0013099678 0.0018412719 0.0003411611 0.00049532263 0.0016563216 0.00032046394 0.00069923536
0.00084996753 0.00017889956 0.0025033653 0.0013160123 0.00077013706 0.0014807085 0.0025091942 0.00011848619
0.001490475 0.00043503605 0.0010080026 0.002810198 0.00086125906 0.00077505206 0.0011523736 0.0011247523
0.0016038418 0.00058623304 0.0027745145 0.0009660598 0.0010297067 0.000442962 0.00044357253 0.0021981697
0.0011071261 0.0017048315 0.0012795135 0.0018002479 0.0008693612 0.0008410232 0.0011653146 0.0005069821
0.00088883814 0.0012908174 0.00209473 0.0009974381 0.0008670809 0.0005865311 0.0027406805 0.0016463078
0.00052653934 0.0011370674 0.002272585 0.0012091724 0.002615873 0.0018864673 0.0014248915 0.0009406501
0.0021577072 0.0006988191 0.0011590078 0.00064378325 0.0040184483 0.0017189782 0.00059790694 0.0010815067
0.0015562242 0.00074822136 0.00062009407 0.00095906464 0.0013873592 0.0012302437 0.0040840707 0.00046284063
0.0016802344 0.0040383874 0.00029712424 0.0014328767 0.0001703541 0.00079714746 0.0037034524 0.0010109105
0.001069028 0.0021350298 0.0009995912 0.00042798228 0.003297857 0.0035029263 0.0014793654 0.0022037136
0.0031805718 0.0006689011 0.0009021383 0.0011468561 0.000827628 0.00074150757 0.00091933546 0.00079742714
0.0016986657 0.002926821 0.0007634765 0.0006586266 0.0012748669 0.0005093268 0.002033544 0.0004825111
0.0030713256 0.0027304338 0.00063619384 0.0021085925 0.0010838732 0.001151903 0.00048662873 0.0006602117
0.0011090917 0.00041973012 0.00045657667 0.0015153579 0.0036083246 0.0011338618 0.00056238845 0.00084752834
0.00083182496 0.00037526974 0.0019180644 0.001845973 0.0020832305 0.0004967829 0.0017221982 0.0024825723

policy_network.2.weight f4 [256, 128]
00000000: a9e4 17be be78 f5bd c34c 473d 2bcb f43d
00000010: 57d9 53bd 1dbd 483d 3545 aabd c954 78be
00000020: 4ccd 4fbd 1ca1 b6bc 84c9 2d3d 8d57 9eb9
00000030: 8d83 21bd 09b4 4fbd 9167 a6bc e718 62bc
00000040: f530 aa3d 6f77 d33d 07cc d3bb e70b ea3c
00000050: 95bc e03c bdfd e63c 6f98 003e 372b 293d
00000060: 67d1 09bd a40f 7b3d ca81 cdbd 53ea 2cbc
00000070: affa e3bd 7446 da3c c0ec 7d3c 9075 573b
00000080: ed51 2c3d b29c 533d 1034 c53d e47f 283d
00000090: 8ac1 c2bc be3c acbd 0d86 15be cfab ae3d
000000a0: 443e 433d 42be d5bd dab3 c0bd 5942 83bd
000000b0: b4b7 43bd 0c92 7cbd 2820 0e3c 05b5 33bc
000000c0: f52a 8d3d d771 32bc a379 afbd 60d8 8abd
000000d0: 9867 22bb 5e4a 02be 1217 1abe adca 003e
000000e0: 0e79 5abd c7df 92bd 5a2b b0bd 2d32 f93d
000000f0: 8bbd be3b 1e73 f33c 28cf 5c3d 0ba5 72bd
00000100: 45ee c6bc b7a8 a9bc 100c 203e a301 4bbd
00000110: 1b59 183e f5b1 b73d d2eb 4fbd 7b2d 143d
00000120: 1a69 e23c f69a 96bd ae94 f73d 2cb0 05be
00000130: 771f 25bd 409d 09be 7569 073c 7707 ff3b
00000140: 00fb da3d c90a 79bb ee45 a0bc 9b3e 99bd
00000150: 662d 9dbc eed4 1abd 52e9 6e3d db1b 35bd
00000160: 9bbf 9abc fb84 0e3e 9af7 4a3e 3988 adbc
00000170: dad3 073b 1552 abbc 55a6 6bbd a132 d8bd
00000180: 8c3b 8f3c 1102 0f3e 5ca6 123d cee3 6b3d
00000190: ec7a 793d f4cc 7dbd 848b df3d efe5 693d
000001a0: a6e1 80bc 7e3f 67bd 018f 03bd 9df7 6d3d
000001b0: 8ece da3c d66b 02bd f2a3 6abc 2ca6 3ebd
000001c0: 1d96 163e fc21 0abe 4ee1 053c de01 7fbc
000001d0: 2a0e 0a3d d0f7 993c df9e 12bb 672e 3c3c
000001e0: 79c3 f2bc bfe6 6d3d d23d 03be 7d36 fabc
000001f0: 9bdf b43c 271c 96bd 30f1 0f3c 3300 95bd
00000200: a477 0bbc 9bd6 fabd bb6b 533d 33d0 423d
00000210: 9c08 5dbc c0d5 dfbd 0d10 fbbd f580 e7ba
00000220: 552d 96bd 5ff9 2fbd 455e 3cbd ae40 643d
00000230: 9634 4abc 01ac 813d 5cb5 303d bbdb a93c
00000240: ed2f c43c 9419 57bd e6aa d23c c651 3c3c
00000250: e5b7 903d 4864 d0bd 1e54 0bbc 8a9f da3d
00000260: 5b68 213e bf2e 403d df29 a83c 85f3 91bd
00000270: 54ea 2fbd 1583 acbd f851 08bd aa2e 87bd
00000280: 16d0 da3d 0899 33bd b956 85bd 6e9a 0f3d
00000290: dafb 713d ed45 99bd 96b1 cbbd 941a 153d
000002a0: 0f4e 883e 82cf 4fbd e2b3 603c 32db b43c
000002b0: f146 57bd 105c dabd f8a1 adbd e9de 063d
000002c0: 7026 0c3e 2f8b d5bc b2b6 b1bd 81ec d3bd
000002d0: 66e1 663d 79dd 60bd b01d be3c e877 80bc
000002e0: 5f57 fcbd f1dd 11be e033 28be 8888 9c3d
000002f0: 1da8 afbd 7295 22bd f035 6b3d acff 053e
00000300: 40b4 19be f4ba e8bb 7a40 943d 51e6 15bd
00000310: 6321 b93c 3ef5 4fbb e68a a33d 38de fa3d
00000320: 4883 d73d 1751 973d c928 953b 1338 f8bc
00000330: 0818 1e3d 762b 3d3d 4ec0 28bc 1966 cd3d
00000340: f31b 1b3d 2cea 55bc 1633 12bc f2a4 41bd
00000350: eb40 09bd 78f3 5a3c 8905 d9bd b526 ac3d
00000360: bd56 423e 0b44 853d 2780 873d 2822 e8bd
00000370: 734f 333e e1c6 143d 2c98 c6bd e629 26bd
00000380: 9e8b 9fbc b6e7 c13d 5ae1 debc 6199 1fbd
00000390: d940 05bd e7f2 e93d 5c92 053c 3a6c 12bd
000003a0: 78b3 d0bb 1be3 08be e263 913c 163d 373c
000003b0: 3113 c1bd 55a8 bd3c caaf 363d 08ca 26be
000003c0: 0d4a 6b3e 7dec 21be 4905 b53c 0270 60be
000003d0: b30a 06be c5ea dbbd 854e 1f3d 3e85 83bc
000003e0: 358e 553c 37eb ccbc bc5b 673d 8bb0 fbbc
000003f0: 052a 4cbd f6f6 f33d 635f e53d 1692 87be
-0.1483332 -0.1198592 0.04865719 0.11952814 -0.051720943 0.049008477 -0.083139814 -0.24251093
-0.050732896 -0.02229362 0.04242851 -0.0003020134 -0.039432097 -0.050708804 -0.020313056 -0.0137998825
0.08310119 0.103255145 -0.006463531 0.028570129 0.027433673 0.028197164 0.12558149 0.04130098
-0.033646967 0.061294213 -0.10034521 -0.010553914 -0.111317985 0.026644923 0.01549834 0.003287647
0.042070318 0.05166311 0.09629071 0.04113759 -0.023773927 -0.08410023 -0.14601918 0.08528864
0.047666803 -0.104366794 -0.09409304 -0.06409139 -0.047782615 -0.06166272 0.008674659 -0.010968451
0.06892959 -0.010891399 -0.08568122 -0.067795515 -0.0024780985 -0.12723681 -0.15047863 0.12577315
-0.053338103 -0.071715884 -0.08602019 0.121677734 0.005820935 0.029717978 0.053908497 -0.05923943
-0.024283538 -0.020710332 0.15629601 -0.049562108 0.14877741 0.089694895 -0.050762005 0.036176186
0.027638007 -0.07353775 0.12088905 -0.13055485 -0.04031321 -0.13438892 0.008264889 0.0077828723
0.10692406 -0.0038000813 -0.019564595 -0.07482644 -0.019186687 -0.03780072 0.05832798 -0.04421602
-0.018890193 0.13917916 0.19821015 -0.02118312 0.0020725639 -0.020913163 -0.057531673 -0.10556532
0.017484449 0.13965632 0.035803184 0.0575903 0.060908243 -0.061963037 0.10915282 0.057104047
-0.015732598 -0.056457035 -0.0321188 0.05809747 0.026709821 -0.03184112 -0.014321314 -0.046545193
0.14705701 -0.13489527 0.008171393 -0.01556441 0.033704914 0.018794924 -0.0022372527 0.011485673
-0.029634224 0.058081385 -0.12816551 -0.03054356 0.02207928 -0.073295884 0.008785531 -0.072754286
-0.008512411 -0.12247964 0.05161641 0.047561835 -0.013490822 -0.109294415 -0.12258921 -0.0017662334
-0.07332865 -0.04296243 -0.04598834 0.055725746 -0.012341639 0.06331635 0.043141708 0.020734658
0.023948634 -0.052514628 0.025716256 0.011494106 0.07066325 -0.10175377 -0.008503942 0.10674961
0.15762465 0.04691958 0.020527778 -0.07126526 -0.042948082 -0.084234394 -0.033281296 -0.06600697
0.106842205 -0.043847114 -0.06510682 0.035059385 0.059078075 -0.074840404 -0.09945981 0.0364023
0.26622054 -0.050735004 0.013714762 0.022077177 -0.05255789 -0.10662091 -0.08478159 0.032927427
0.13686538 -0.026067344 -0.086774245 -0.10347844 0.0563673 -0.054898713 0.023207515 -0.015682176
-0.12321352 -0.1424482 -0.16426039 0.07643229 -0.08576987 -0.039693303 0.057424486 0.13085812
-0.15010166 -0.0071023647 0.072388604 -0.0365966 0.022598928 -0.003173187 0.07985477 0.12249416
0.10523087 0.073885135 0.004551981 -0.030300176 0.038597137 0.046184026 -0.010299755 0.10029239
0.03786845 -0.013056319 -0.008923313 -0.047276445 -0.033509176 0.013363712 -0.10596759 0.0840582
0.189784 0.06507119 0.0661624 -0.1133464 0.17510776 0.03632248 -0.09696993 -0.0405673
-0.019475754 0.094680235 -0.027207065 -0.038964633 -0.032532547 0.11423283 0.008152571 -0.035747744
-0.0063690506 -0.13367884 0.017747823 0.011183998 -0.094274886 0.023151556 0.04460124 -0.16288006
0.22977467 -0.1581287 0.022097247 -0.21917728 -0.13090019 -0.10738138 0.03889324 -0.016054746
0.013034393 -0.025014503 0.05648397 -0.03072383 -0.04984476 0.119123384 0.11199834 -0.26478642

policy_network.2.bias f4 [256]
00000000: c52f be3d f3ae a9bd 2f12 3d3b 179c 4bbd
00000010: 8924 833d 3009 a0bd 4c93 383d e008 76bd
00000020: 9304 b63c 19f1 5dbd d791 6abc 7651 33bd
00000030: 88a7 36bd b8c7 a6bd 649d 31bd 2553 82bd
00000040: 2291 c7bc a21e d03c c8e0 e0bc 4cf4 a63c
00000050: fa23 a53d 48ac 03bd 2e05 b2bd 01eb 23bd
00000060: 6bd7 9c3d ad11 663d 3326 95bc 1104 7c3d
00000070: be7b 70bc 4409 8a3d b4f4 ffbc 8c91 ab3d
00000080: 70db a9bd 0fb7 94bd 8136 0bbd 7a2d b73d
00000090: 04ad 24bd 7ea9 84bd 96ea 833d 1e83 45bc
000000a0: 5a8d f93c bc72 003b 3198 173d 6890 a23d
000000b0: f57f e83a c3e6 433d 2097 ac3c 8cad 7c3d
000000c0: d7cb 0bbd e0f6 38bc 41b9 a6bd f0de 9a3d
000000d0: eb5e ce3c 6f19 a53c ace9 233c d2ae 78bd
000000e0: b917 4dba 5b1e 4ebd 1108 213c 9fe7 54bd
000000f0: 528c 77bd 7d87 48bd e3e3 2e3d d560 8abc
00000100: 9b90 89bd c54d 3f3d 6c4e c4bc b4ab 79bb
00000110: 086f 603c e83b 733d 7aee 5a3c ee1c b0bd
00000120: fc1d 033d 3db2 dcbc e708 663d c50a 82bb
00000130: b43f 913c 7917 7ebd cc87 813d b63a b03b
00000140: d0fc b33c eca7 233d 38da aa3c 40ac 513c
00000150: 8f37 9f3d 9cac 5dbd 0df0 613d 40e8 87bb
00000160: f769 7cbd 39e0 a53d 306f 36bd c3f6 a7bd
00000170: 31c8 aebc 52b5 86bc 5eba a83d 5061 8e3c
00000180: 7252 583c 68a7 0fbd 2ba5 2d3d e129 1c3d
00000190: 442d 64bc 82f3 a8bd c59b dc3a fddd 073d
000001a0: 47fa de3c 8958 50bc f976 433d 16d2 ba3a
000001b0: 9984 793d 8862 a03d 315c ab3b 253f a6bd
000001c0: 3787 4abd 140a a6bd b467 7dbc b8dc 8bbd
000001d0: 4303 683a d354 e6bc 6318 dd3c 1c7f a73b
000001e0: eb5e b939 16d4 07bd 2de2 8ebc a804 0d3d
000001f0: 2c87 9d3d b913 9cbd e886 e2bc 1b0f c63c
00000200: 9906 073d eff5 c73c e481 603d 2dba 3cbd
00000210: 0d42 163d e3e5 483d 317c acbd c81d f3bc
00000220: aabe c1bc 9cd2 9b3d ade6 9fbd 2685 9ebd
00000230: f263 643d 0e6b 9c3c 25fb 3f3d c11e 623d
00000240: eb11 9e3d d100 45bb 3ada 4e3d 8144 24bc
00000250: 88e6 b13d d655 31bb 899d 59bd 82da ca3c
00000260: 6d0f 353d 6a92 9939 b8f6 c7bb 3455 b43c
00000270: 9c5b a73d c95a fbbc f2f4 283d c1fb 9c3b
00000280: b95d a23c 4ea7 5abd 8b3a 903d 020b 613d
00000290: cec4 203d ff1d b7bc 549d be3c d5ff ac3d
000002a0: 46ef 81bc b2c7 12bb 3ee0 76bc 027c 9f3c
000002b0: fd1c 7ebd 2d5a 9c3d 0f40 143d 51cb 2dbd
000002c0: 3a93 a43d 9c97 e53c 3441 d5bc 4628 8ebd
000002d0: 4a44 853d b26e 4e3c 8214 193c b91b 1ebc
000002e0: 9a9f b03d 6392 22bc 0d03 623d aeeb a4bd
000002f0: f8af 603d 9bcc b2bd 71d1 7cbd 024a 19bd
00000300: 7386 be3b 4cd5 92bd c0cc 4c3d 8edb 293b
00000310: 6c03 abbd e5c6 503d ff06 e9bb 04d1 353d
00000320: 6157 9a3d 0d53 aabd e66e f3bb ce4e 8e3d
00000330: b18a 913d 63aa 8d3d 13f7 7cbd 021d 273d
00000340: 20ff 873a 7350 d63c c196 973d 3828 ae3d
00000350: c1de 13bd f842 2b3d a0cd 43bd e188 963c
00000360: 4596 ffb9 82fd 1dbd e106 1a3d ac3d 91bd
00000370: b164 863d 6371 2cbd e345 fabc 7a74 723d
00000380: b398 533c 24a3 a13c d765 0abc 8a13 2bbd
00000390: ff1a 4bbc 47f3 68bd 1653 de3c 2f4a a3bd
000003a0: e2a6 88bc fc74 233c 2531 573d 8c5f 1cbd
000003b0: 6e1a 85bc 9bc3 113d 791c 863d 4a29 edbc
000003c0: b06a 943c c62f 23bd d0ea ed3c c1a2 9ebd
000003d0: 0af0 8cbd 1b63 feba 849d 09bd 67da b53d
000003e0: 1336 53bd 67c3 edbb 72ec 06ba ef4c 0fbc
000003f0: 415e 30bd 87d6 9b3c 0bfb c2bc 5438 24bd
0.09286455 -0.08285322 0.002884995 -0.049709406 0.06403453 -0.078142524 0.04506235 -0.060067058
0.022218978 -0.054185007 -0.0143169975 -0.04377886 -0.044593364 -0.08143562 -0.04336299 -0.06363515
-0.024361197 0.025405232 -0.027450934 0.020380162 0.080635026 -0.032146722 -0.08692394 -0.04001904
0.07658275 0.0561692 -0.018206691 0.061527316 -0.01467794 0.067400485 -0.031244613 0.0837737
-0.082938075 -0.07261478 -0.033987526 0.08944221 -0.040204063 -0.064776406 0.06441228 -0.012055187
0.03046291 0.0019599637 0.037010375 0.079376996 0.001773833 0.047827493 0.021068156 0.061688945
-0.034129944 -0.011289328 -0.08140803 0.07562053 0.025191745 0.02015373 0.010004442 -0.060713597
-0.00078236643 -0.050321918 0.009828583 -0.051978704 -0.060436554 -0.048957337 0.0426978 -0.016891876
-0.067170344 0.046705026 -0.023963176 -0.0038096728 0.013698347 0.059383303 0.013362521 -0.08599268
0.032011017 -0.02694046 0.056160834 -0.003968569 0.017730571 -0.062034104 0.06324729 0.0053780926
0.021971136 0.039955065 0.020856008 0.012797415 0.07774269 -0.05411969 0.05516057 -0.0041475594
-0.061624493 0.08099408 -0.04453963 -0.08201363 -0.021335693 -0.016443882 0.08238672 0.017380387
0.01320325 -0.03507176 0.042393845 0.038125876 -0.013926808 -0.082495704 0.0016831091 0.03317069
0.02721895 -0.012716421 0.047720883 0.0014253284 0.06091747 0.07831293 0.005229496 -0.081175126
-0.049445357 -0.08107391 -0.015466619 -0.06829208 0.00088505837 -0.02811662 0.026989168 0.005111588
0.0003535667 -0.033161245 -0.017441833 0.03442827 0.076917976 -0.07620949 -0.027652219 0.024177125
0.032965276 0.024409262 0.054811373 -0.04607599 0.036684085 0.049047362 -0.08422125 -0.029677287
-0.023650486 0.0760853 -0.0780767 -0.0774024 0.055759378 0.019094016 0.04687037 0.05520511
0.07718261 -0.00300603 0.050501086 -0.010026098 0.086865485 -0.002705922 -0.053128753 0.024762396
0.044204164 0.0002929152 -0.006102409 0.022013284 0.0817177 -0.030682938 0.041249223 0.0047907536
0.019820081 -0.05338221 0.07042416 0.05494214 0.039250188 -0.02235317 0.02326838 0.084472336
-0.015861165 -0.002239686 -0.015068112 0.019468311 -0.062039364 0.07634387 0.036193904 -0.042430226
0.08035894 0.028026395 -0.026032068 -0.06941275 0.06507166 0.012599634 0.009343268 -0.009650164
0.086241916 -0.009922597 0.05517869 -0.08052765 0.054855317 -0.08730432 -0.061723176 -0.037424095
0.0058143674 -0.071695894 0.049999952 0.0025918218 -0.08350262 0.05097093 -0.0071114297 0.044388786
0.075361975 -0.08316622 -0.0074289916 0.069486246 0.071065314 0.06917264 -0.061759066 0.04079915
0.0010375716 0.026161408 0.07401801 0.08503765 -0.036101107 0.041811913 -0.04780352 0.018375816
-0.0004874935 -0.038571842 0.037604216 -0.07091841 0.06562174 -0.04210032 -0.030550903 0.059193112
0.012914824 0.019731112 -0.008447132 -0.04176668 -0.012396573 -0.056872632 0.027139228 -0.07973134
-0.016681138 0.009976622 0.052537102 -0.038177058 -0.016247954 0.035586935 0.065483995 -0.028950352
0.018117279 -0.039840482 0.029042631 -0.077458866 -0.06881721 -0.0019408198 -0.033597484 0.088795476
-0.05156524 -0.00725596 -0.00051469274 -0.00874637 -0.043058638 0.019023193 -0.023801347 -0.04009278

policy_network.3.weight f4 [256]
00000000: 81ba 483f 4e6a 483f ed17 4e3f fe7b 383f
00000010: e6de 3f3f 9305 3e3f 2e6b 4a3f 05f8 4b3f
00000020: d35a 383f f0e4 343f cb80 283f ce27 563f
00000030: f576 4c3f 3b4d 4b3f 04f5 3a3f ff64 5e3f
00000040: 4ee6 4b3f 4667 4e3f 51ae 303f b713 553f
00000050: 235e 4f3f bbc5 593f 4aae 3a3f 2f5d 3d3f
00000060: 3a02 5a3f 8f9f 433f 22a4 553f e7f9 373f
00000070: a180 3c3f d810 3a3f e4ca 5a3f 49c6 293f
00000080: 931c 493f cf35 3e3f 6e47 5c3f 11e4 403f
00000090: 2708 3d3f f1aa 393f 54db 573f 607e 563f
000000a0: 0b0e 403f 4a7f 553f 920d 163f 7ea3 393f
000000b0: 3444 593f 68c5 343f b242 3f3f 4f74 353f
000000c0: 2b78 4e3f e089 333f 6f3b 6a3f 0525 3c3f
000000d0: c510 5e3f 1deb 503f 2a56 423f 794c 4d3f
000000e0: 5e0b 643f 9e52 343f c31c 3e3f e340 463f
000000f0: 6842 3e3f 8d7e 2e3f feb2 3e3f 7c9c 3e3f
00000100: e776 4e3f a16d 473f 084a 4d3f 8614 2e3f
00000110: 4f1f 233f f781 3a3f 51fc 3e3f e859 5f3f
00000120: 2e37 433f 5ca3 233f 395a 483f 4fa4 463f
00000130: d1a1 423f 6a32 313f 96f4 503f f677 533f
00000140: d1fc 433f 2d3a 453f 7a33 3e3f 2ceb 463f
00000150: d4ce 643f b994 523f 18e9 3d3f 05b3 2b3f
00000160: d83b 333f ae12 543f 0333 403f 98ca 303f
00000170: ceeb 473f 4e03 5d3f 9301 4d3f b01c 263f
00000180: 3e91 343f ccf0 4f3f da77 683f 883f 2b3f
00000190: 3ae1 493f 5fce 313f d9eb 3d3f ed9d 383f
000001a0: b72a 3b3f 4491 3d3f ab0e 3d3f f033 233f
000001b0: d124 403f 6fb0 373f 5209 4d3f a004 593f
000001c0: 5bab 3a3f f78c 343f bb96 423f e288 513f
000001d0: c917 473f 98e2 433f 2298 383f fba6 393f
000001e0: 70e1 5c3f 4e25 323f c527 4f3f 8b1d 323f
000001f0: 8075 513f fcb7 363f c0c0 553f 2afc 403f
00000200: 1afa 5e3f e79e 4b3f 3a7a 513f 0752 5f3f
00000210: 9d86 453f 3e7c 3d3f ff94 433f 97d8 293f
00000220: b070 453f 5245 323f 79d0 483f d34b 333f
00000230: b74e 553f 420a 533f 7a02 333f 2070 3d3f
00000240: c14c 533f 69c3 453f 5e09 323f 954b 383f
00000250: c6be 3d3f 013f 2c3f f9d4 313f beab 3e3f
00000260: d6e8 393f 79a4 463f 754e 2d3f 1c89 523f
00000270: 6374 1f3f fdb2 363f b01a 443f 9a79 6a3f
00000280: 57e2 1f3f 7482 403f 9e50 2c3f 852d 453f
00000290: 4a79 1c3f cd3c 383f 85b5 333f 512b 3f3f
000002a0: 6def 503f d004 3e3f 4a59 313f 339c 243f
000002b0: af38 323f 9965 4d3f 1723 5d3f a890 4c3f
000002c0: c41e 503f 75af 513f a23c 4b3f 2b35 333f
000002d0: aff7 373f b7d9 453f eb48 253f 41cd 473f
000002e0: d076 613f 74f9 4c3f 34fd 473f f1a6 323f
000002f0: 1c91 663f 6480 423f 5037 483f 6886 2c3f
00000300: f489 1a3f 9ece 403f 9e4b 393f cdeb 313f
00000310: bc28 3b3f a12e 483f 3ac1 513f ead0 303f
00000320: 6703 483f ddf2 363f 20b3 493f 2c14 3d3f
00000330: 1701 393f f6fb 4d3f b743 333f 5060 513f
00000340: 7fef 5e3f 5be3 1f3f dfd8 243f 1c55 213f
00000350: 98b8 3e3f 1384 2c3f fb5a 303f 1cb4 323f
00000360: 43ba 563f 17bd 333f 1d4c 3f3f 9fb5 353f
00000370: af3a 463f c41c 4d3f 8ba9 453f 0558 413f
00000380: 2219 2c3f fd0f 373f b62d 473f 50a9 623f
00000390: 3fe1 453f f256 313f 17e0 493f 80ee 5c3f
000003a0: 4d00 383f 21f3 443f 414b 243f 86b6 363f
000003b0: 15d4 463f 8e63 473f 3959 4b3f 6807 2f3f
000003c0: 25eb 633f 4c55 513f 12fb 413f 5362 333f
000003d0: 7718 503f 83ea 3d3f 34b3 1d3f e14f 4b3f
000003e0: 1175 2e3f 74fb 493f 265d 3b3f 703f 2b3f
000003f0: 7935 563f 5d0d 3a3f ba8c 4c3f 7241 2a3f
0.7840958 0.7828721 0.8050526 0.720642 0.7494949 0.74227256 0.79069793 0.7967532
0.72013587 0.7066183 0.6582152 0.8365449 0.79869014 0.7941472 0.73030114 0.8687286
0.7964829 0.8062633 0.69015986 0.8323321 0.81003016 0.8506734 0.72922194 0.7397031
0.8515965 0.7641534 0.8345357 0.71865696 0.7363377 0.7268195 0.85465837 0.66318184
0.78559226 0.74300855 0.86046493 0.75348 0.73840564 0.7252646 0.84319043 0.8378658
0.7502143 0.8339735 0.58614457 0.72515094 0.84869695 0.7061372 0.74711144 0.708806
0.8065211 0.70132256 0.9149694 0.7349399 0.8674434 0.81608754 0.75912726 0.80194813
0.89079845 0.70438564 0.74262637 0.7744276 0.7432008 0.6816185 0.7449187 0.74457526
0.8065018 0.77901655 0.8019109 0.68000066 0.6371965 0.7285456 0.74603754 0.8724656
0.7625607 0.6392114 0.7826267 0.77594465 0.7602816 0.6921755 0.8162321 0.8260492
0.7655764 0.77041894 0.74297297 0.77702594 0.89378095 0.8225818 0.741838 0.6707004
0.7001319 0.82841 0.7507784 0.69059134 0.78094184 0.8633317 0.8008053 0.64887524
0.7053412 0.812268 0.9080788 0.66893816 0.78859293 0.6945552 0.74188 0.72115976
0.7311205 0.7404978 0.73850507 0.63751125 0.7505618 0.7175359 0.80092347 0.8477268
0.7291772 0.70527595 0.76011246 0.8184949 0.7777067 0.7651763 0.72107136 0.72520417
0.8628149 0.6958817 0.8092006 0.6957633 0.81819916 0.7137449 0.8349724 0.7538477
0.87100375 0.7953934 0.8182713 0.8723454 0.7715853 0.74017704 0.76399225 0.66346115
0.7712507 0.69637024 0.78443104 0.70037574 0.83323234 0.8243753 0.69925654 0.73999214
0.8253899 0.772513 0.69545543 0.7199033 0.7411922 0.67283636 0.69465595 0.7448081
0.72620904 0.77594715 0.6769784 0.8224046 0.6228697 0.71366864 0.7660322 0.915918
0.6245474 0.75199056 0.6731051 0.7702258 0.6112257 0.71967775 0.7019885 0.7467547
0.81615335 0.74226093 0.6927687 0.6430084 0.6961774 0.8023315 0.8638167 0.7990823
0.81296945 0.8190835 0.79389393 0.70003 0.7186231 0.7728533 0.6456439 0.7804757
0.8807192 0.80068135 0.7812073 0.6978598 0.9006517 0.7597716 0.782094 0.6739259
0.6036675 0.7531527 0.7238101 0.6950043 0.7310903 0.7819615 0.81935465 0.6906878
0.7813019 0.7146433 0.7878895 0.73858905 0.7226729 0.80462587 0.700252 0.81787586
0.8708419 0.6245629 0.6439342 0.6302049 0.7450042 0.6738903 0.68888825 0.69806075
0.8387796 0.70210403 0.74725515 0.70980257 0.77433294 0.8012202 0.7721183 0.7552493
0.6722585 0.7150877 0.77804124 0.885396 0.77296823 0.69273293 0.7885756 0.8630142
0.7187546 0.76933485 0.6417733 0.7137226 0.7766736 0.77886283 0.7943302 0.68370676
0.8903068 0.8177078 0.7577373 0.70071906 0.8128733 0.7418596 0.6160157 0.7941876
0.6814738 0.7889931 0.7318901 0.6689367 0.8367534 0.7267664 0.7990223 0.6650611

policy_network.3.bias f4 [256]
00000000: 4b5a 0dbe 1cde bf3d fa2f 25be 08be 77bd
00000010: ee3d c73d 60f0 db3d 9dd6 7bbb 4c3b 1a3e
00000020: a869 8d3e 8d13 62bc 4e96 bd3d 3af6 78bd
00000030: efe5 fe3c b20f 85bd f804 353d ed81 d9bb
00000040: 04ad 0e3e 5a8a afbd 087b 22be d80c 8bbd
00000050: 0e79 90be 9ceb 3d3e 3229 2f3b 2b13 08be
00000060: e431 ab3d 280a 4abe 688a 4b3d f466 c6bd
00000070: ffe3 1cbe dc2b bdbc a7de 823b 7b9d 183c
00000080: 0aba f6bd cb1a 6fbe ca06 a43d e7e7 82bd
00000090: a1ee 823e 5755 12be 1c0e e2bd db24 b13d
000000a0: 2eec 7cbd 191f d5bd 48e8 32be e512 563d
000000b0: 799e d1bd 262a 97bc dcb3 07be f14c 0a3e
000000c0: b13a 163b 3d83 31be 0edf 50be 8a6f 033c
000000d0: d2fd 52be f6d5 23be 14c1 c73d a931 1a3e
000000e0: 13d9 52be f023 0d3d a75a 213e c377 23be
000000f0: 3483 06be e1ca 183d be6a c6bc f762 a73d
00000100: fc62 9b3d b2b8 ccbd e673 88bc 4f3f 1b3e
00000110: 9b14 3f3e cf95 27be f681 aebd e65c c43d
00000120: 8cac 383e 15fe 693c 5b8a a43d 64a3 113e
00000130: 8c94 a23d 24d9 79be c809 5fbe b5bc 953d
00000140: 2bdd 1dbe 1877 773d 4338 74bd 60df fabd
00000150: 8aca 303e 4302 643e 5632 81bd 68c6 6c3e
00000160: 73b9 db3d 98f5 d1bd 937d dbbd 8804 a9bd
00000170: c3d8 85be d6d3 4dbd 5708 173d f67f 133d
00000180: e679 d7bd 1b68 31bd 9b6d 083e 2c53 5ebe
00000190: e6a2 c6bd ef23 453c 3f83 543e 6130 143d
000001a0: ef31 87be c651 49be 8417 68be 2e37 213d
000001b0: 4439 9e3d f806 5c3d 4603 e83a 1e17 b5bd
000001c0: a79a 1b3e 02a9 4a3d a8a3 54bd 0276 853c
000001d0: b8d9 b23d c8c1 11be a959 cebc 478c 0dbe
000001e0: 943e 57bd f3fe 14bb 5245 85bc 1afb 403e
000001f0: 6413 d73d 218c 713d fea0 ea3c 4f7e c2bd
00000200: ac55 953d ba51 393e 559b 813d 250a 1e3d
00000210: 4b72 833c 17a4 0ebe 9942 0f3c 8dd4 cfbb
00000220: 1bd9 48be 47d5 06bc 0d61 7cbe 7e2f 743d
00000230: 2135 dc3d 3856 883b e0f9 a5bd bf1c 0e3e
00000240: 2d92 b53c c9e4 d83d a883 b3bd 3fe9 2bbe
00000250: fc41 b03d a0cd ea3c c3a1 46be a43d 123e
00000260: e1af 70bb 3ccc 16be 00e6 943d a2d7 b93c
00000270: 493e 27be a703 5cbe 3526 a83d a300 91bd
00000280: b35a 30bc 2aec 71be 5aee 33be 056a 863e
00000290: b83f 983d 59ef 453c a5c8 ad3d 3926 9f3c
000002a0: a877 17be 2920 a93d b9de 9dbe 2936 9f3d
000002b0: 8f09 1c3e 7c9f 593d 0eb1 cc3d 73bd b83b
000002c0: e7b2 06be e6de 98bc ac47 34bd 6479 e23d
000002d0: 8880 983b 63b7 a4bd b356 993c 5d15 e83d
000002e0: 6833 083e 839c 07be ee80 a2bd 1ee9 1c3c
000002f0: 76a2 23bd 2795 ea3b c584 093b 025f cf3b
00000300: b0b5 37be 8d93 393e 3c48 0b3d 385a cc3d
00000310: fb9c 9cbd 94fc 3f3e 3380 49be a60c 9b3d
00000320: d860 5a3c 1a39 433e 4152 b9bc 0efb d03d
00000330: aef8 8d3d e94a 253c 5a9a 8ebd c21c a2bd
00000340: a9cd d03d 4066 113d aa9a 9d3c 415c e33d
00000350: ac33 07bd e99c 1abe 97f0 0dbd b90e c43c
00000360: 4fbf 0e3e 79a2 7ebd 715b fe3c 4812 b43d
00000370: 9a9e 0fbe ab83 3e3d 672f c23d 27ab 34be
00000380: 96d5 0bbe 9c22 823d 1b0a 13be 439d c2bd
00000390: 0e4c a5bd 897c 54be e260 e9bb a3b1 b2bc
000003a0: 37f4 103e 2b02 b2bd 3ea4 8dbd 8617 1bbe
000003b0: 5d9f 403c ddde 603e ea5f b53d 8139 2cbd
000003c0: e662 a3bd 3035 bfbd 5358 79be 53fb 533b
000003d0: 370d 26bc 503c 41bd 1eba 403c 672d 22be
000003e0: 8778 3d3d 25ed 483e 2a1d c83b 8422 93bd
000003f0: f141 223d 2611 c4bd 06dd 1d3e 3362 2f3e
-0.13803975 0.09368536 -0.16131583 -0.060483962 0.09728609 0.10739207 -0.003842748 0.15061682
0.27619672 -0.013798607 0.09257184 -0.060781695 0.0311155 -0.06497134 0.04419419 -0.006637803
0.13933188 -0.0857131 -0.15867245 -0.06789559 -0.28217357 0.18546909 0.0026727435 -0.13288562
0.08359125 -0.19730437 0.04969254 -0.096876055 -0.15321349 -0.023092203 0.0039938274 0.00931489
-0.12047203 -0.23350064 0.080091074 -0.06391888 0.25572684 -0.14290367 -0.110378474 0.08649608
-0.061748676 -0.10406322 -0.17471421 0.052264113 -0.102353044 -0.018452715 -0.13252205 0.13505913
0.0022923166 -0.1733522 -0.20397589 0.008022198 -0.20604637 -0.15999588 0.097536236 0.15058006
-0.2059062 0.0344581 0.15757237 -0.15963654 -0.13135988 0.037302855 -0.02422082 0.08173173
0.07587239 -0.09996165 -0.016656827 0.15160869 0.18660204 -0.16365741 -0.08520882 0.095880315
0.18034571 0.014281769 0.08034202 0.14222485 0.07938489 -0.24399239 -0.21781075 0.07311384
-0.154164 0.06041631 -0.059623968 -0.12249637 0.17264763 0.22266488 -0.06308429 0.23122561
0.10728731 -0.102519214 -0.10717311 -0.082528174 -0.2614194 -0.05025085 0.036873188 0.036010705
-0.10521297 -0.043312173 0.13323061 -0.21711415 -0.09699039 0.012032493 0.20753191 0.03617895
-0.26405284 -0.196601 -0.2266522 0.039359264 0.07725766 0.053717583 0.0017701171 -0.088423
0.15195714 0.049477585 -0.051913887 0.016291622 0.08732933 -0.14234078 -0.025189238 -0.13823043
-0.052549914 -0.002273497 -0.016268406 0.18845788 0.10501745 0.058971528 0.02864122 -0.09496748
0.07291731 0.18097582 0.06328455 0.038583893 0.01604571 -0.13929783 0.008743905 -0.0063424767
-0.19614069 -0.00822956 -0.24646397 0.059615605 0.10752321 0.0041606687 -0.081043005 0.13878153
0.022164429 0.10590512 -0.08765346 -0.16788195 0.086063355 0.028662503 -0.19397645 0.14281327
-0.0036725926 -0.14726347 0.072704315 0.02268583 -0.16332354 -0.21485768 0.082104124 -0.070801996
-0.010763812 -0.23625246 -0.17571393 0.2625276 0.074340284 0.012080991 0.084855355 0.019427406
-0.14791739 0.08258087 -0.30833986 0.07774002 0.15238021 0.05313061 0.09994708 0.0056378185
-0.13154183 -0.018660974 -0.044013664 0.1105831 0.004653994 -0.08042791 0.0187181 0.113322
0.1330086 -0.13243298 -0.07934748 0.009577064 -0.039949857 0.0071588936 0.0020983678 0.0063284645
-0.17940402 0.18122692 0.034004435 0.09978145 -0.07647129 0.18748695 -0.1967781 0.07570772
0.013328753 0.19064751 -0.02262223 0.10204135 0.069321975 0.010088661 -0.06963034 -0.07915641
0.101954766 0.035497904 0.019238789 0.111015804 -0.033008263 -0.15098919 -0.034653272 0.023932802
0.13940166 -0.062166665 0.031049462 0.08792549 -0.14025345 0.046512287 0.094816975 -0.17643414
-0.13655695 0.063542575 -0.14359324 -0.095026515 -0.08071147 -0.20750631 -0.007122145 -0.02181322
0.1415566 -0.0869182 -0.06916092 -0.15145692 0.011756745 0.21960016 0.08856185 -0.042047027
-0.07977848 -0.093363166 -0.243501 0.0032345846 -0.010134987 -0.04717666 0.011763124 -0.15837632
0.046257522 0.19621713 0.0061069923 -0.07184318 0.039613668 -0.09573583 0.15416345 0.17127304
