Results/BTC-USD/DeepRL; DATA_KIND(PatternBased); BEGIN_DATE(None); END_DATE(None); SPLIT_POINT(2018-01-01); StateMode(5); WindowSize(15); BATCH_SIZE10; GAMMA0.7; REPLAY_MEMORY_SIZE20; TARGET_UPDATE5; N_STEP10/model.pkl (torch, 155829 bytes, 14 tensors)

policy_network.0.weight f4 [128, 18]
00000000: 523b d83d ced8 c6bb 08f8 9bbd 7c28 0bbe
00000010: 0abc 4e3e 90cd 6dbe b360 743e 031f 6bbe
00000020: 7fb8 26be 5e62 9c3d 226a 163d f04e ddbd
00000030: 209a b53d dd33 81bc 7241 703d 8c98 67bb
00000040: d892 053e c93a 08be def0 65be 9f20 1d3d
00000050: fd6c 353d 223b a53c 0941 5dbe 4e21 77bc
00000060: eb94 4cbc 1d2b 993e 0188 c93d c8a6 3c3e
00000070: 7418 553d e226 8e3d dfe8 e1bd 5f00 c43d
00000080: 2ab9 f6bd b10f 403e 479d 2fbe 7195 443e
00000090: eddb 913e fb9f 9c3d 1a40 00bd 2d39 38be
000000a0: 8594 263d 531d 983e bee1 15bb a8af e73d
000000b0: dc88 12be 0a5f 9d3d 88b0 193e 79b9 7f3e
000000c0: 223a 373e 475e 263e f819 5a3e 3d1f 0fbe
000000d0: 0da4 5dbe 463e 5d3e 8a93 d53d 2b69 64be
000000e0: 9494 233e 123d f0bc 06a4 1f3e ad0b 453b
000000f0: dcfd 283e 76b7 ed3c 3832 b5bd d89c 2dbe
00000100: 3161 343e 3c07 6abe f1d8 88be e8b8 1f3e
00000110: 03f6 503d 373b 41bd e00c 17be 77ca edbd
00000120: c11e 80bd 74df a93d a5bf a0bd 60f8 943d
00000130: d8aa c43d 727f 8bbe 07fc 1fbd 3377 c5bd
00000140: ddcb a33d 87d9 473e 40b2 4ebd ceeb 60bc
00000150: b69d 2dbe 5297 663e 3d03 253e 24b8 6fbe
00000160: 356f 7a3e 6d86 ebbd 3204 85bd 0b66 33bd
00000170: a24a 26be d776 13be 8f17 25be 9739 8dbb
00000180: f4c9 9ebe f6ba bcbd 83cd 6cbe 3439 6a3e
00000190: a5fe 2b3e 6020 1c3e d3ab 823e 1098 173e
000001a0: dd77 553e 0710 35be 3433 b43e 24d9 7c3e
000001b0: 2815 063e 952b e1bd 15d0 c9bd 56b9 85bd
000001c0: 28b3 b93d fb31 45bd b58f 42be adc9 96be
000001d0: d6d7 1f3b 0611 6abe 47c1 013e bc0e 1e3d
000001e0: 53a2 f83d f4aa ac3c a4b8 423e 5899 3abe
000001f0: 70ef 6ebe 9e07 fcbd 5721 f73d fd4f a43d
00000200: c57a 1e3d aead 5cbe 4c5f 6d3e a157 e2bd
00000210: 6e37 a53d ffb3 b7bc e533 363e e471 ca3d
00000220: 44f1 d2be 110a ed3d 591a 9d3c b230 813d
00000230: 8d9f 90bd ca7e 29be 3247 463e 7022 d8bd
00000240: b2a2 6a3e cf03 23bc 3695 f83d 37b1 c13d
00000250: 70a8 f2bd d44a 443d 123b 0abe 3dfc 6b3e
00000260: 9d90 f8bd 82e3 1e3e b68a a2bd 0fdf 4a3e
00000270: a36e 483e b0ae fc3d 0eb8 a83d e4e6 423e
00000280: f686 123e cf1b 0a3e af9b 02be c815 4d3c
00000290: 655e 0dbe 6ab0 6abe ea87 40be 8e42 afbd
000002a0: 887e 373d 5857 46be a9cc 32be 5c2e 573d
000002b0: d776 923d e061 253d ee5e a8bc 14bb 4fbe
000002c0: 45ae 183e da29 4d3e a2d4 31be cc80 51be
000002d0: fef0 7abe 3759 afbc df53 64be 0073 d2bd
000002e0: e5ce 42be 6402 ec3c 6e2b 053e 1a62 f3b9
000002f0: 71bb 263e cd46 4b3e fe4d 7c3e 616f 903d
00000300: a239 47bd 6c1e 4d3e 24bc 3f3e 7cbc e33c
00000310: 77b3 ffbd edcd 68be aff3 7c3e 53cd c1bd
00000320: d089 843e 1311 9a3e 20e6 073c 7ffe d8bd
00000330: 477e d03d 9bb3 f93c e495 763e 6e0e 0e3e
00000340: edf0 5e3d 91d7 01be 874c 5b3d 6991 e4bd
00000350: a3e5 8c3d cf41 093e 1996 d83d 8cca bf3d
00000360: a9a8 b53c fd7b 0bbe bcba 4abd 7dc6 693d
00000370: 31ed 58bd d1e3 233e cfac bb3c ff70 953e
00000380: 7397 c5bc 80cf 243e 3c4d 40be 7f06 013e
00000390: 6289 d83d e4a3 94bc 0d1f 9ebd a41f e53d
000003a0: b29a 09bd db27 243e c113 ebb9 a27c e6bb
000003b0: ffb0 26be 3cf2 85be c0a0 5c3e 6dcd 28be
000003c0: cb30 a8bd e5e6 153e 9ab6 4bbe 0693 443e
000003d0: 9879 a3be 8514 a4bd 4f13 29bd 3011 6bbe
000003e0: 0662 f43d 4315 afbd 9295 693d 0c77 a3bd
000003f0: 647d 18bd 621f 08bd ca1a 3ebe 7a71 243e
0.105581895 -0.0060683256 -0.076156676 -0.13589662 0.20188919 -0.23222947 0.23865013 -0.22961049
-0.16281317 0.076359496 0.03672231 -0.10806072 0.08867288 -0.0157718 0.058656164 -0.0035338728
0.13044298 -0.13303675 -0.22455165 0.038361188 0.044293392 0.020169798 -0.2160684 -0.015083624
-0.012486677 0.29915705 0.09840394 0.18422997 0.052025273 0.0694101 -0.11030745 0.09570383
-0.12047036 0.18755986 -0.1714984 0.19197632 0.28488103 0.07647701 -0.031311132 -0.17990561
0.040668983 0.29709873 -0.0022870149 0.11312801 -0.1431002 0.07684143 0.15008748 0.24973096
0.1789327 0.16246901 0.21298969 -0.1397676 -0.21644612 0.21605787 0.104285315 -0.22305743
0.15974647 -0.029325996 0.15589914 0.0030066774 0.1650309 0.029018145 -0.08847469 -0.16954362
0.176152 -0.22854322 -0.26728013 0.1559788 0.051015865 -0.047175612 -0.14751005 -0.11610883
-0.06255866 0.082945734 -0.07849053 0.07273936 0.09602898 -0.2724567 -0.03905871 -0.09641876
0.07997868 0.19516574 -0.05046296 -0.013728095 -0.16954693 0.22518662 0.16114517 -0.23410088
0.24456485 -0.11500249 -0.06494941 -0.043798488 -0.16239408 -0.14400803 -0.16122268 -0.0043098438
-0.31013453 -0.092153475 -0.23125271 0.22873384 0.16796358 0.15246725 0.25521716 0.14804101
0.20846505 -0.17681895 0.35195315 0.24692208 0.13094008 -0.10994641 -0.098541416 -0.06529491
0.090673745 -0.04814337 -0.19000132 -0.2945074 0.0024390123 -0.22858056 0.12671386 0.03858827
0.12140336 0.02107761 0.19015747 -0.18222558 -0.23333526 -0.1230614 0.12066906 0.08023069
0.0386913 -0.21550629 0.23180884 -0.1105187 0.08067213 -0.022424696 0.17793234 0.09885004
-0.41199696 0.11574186 0.019177603 0.06308116 -0.07061682 -0.16552272 0.19363096 -0.105534434
0.22913626 -0.0099496385 0.12137835 0.09457629 -0.11848533 0.047922924 -0.13499096 0.2304544
-0.12136958 0.15516475 -0.07936613 0.19811653 0.19573455 0.123380065 0.08238231 0.1903339
0.14309296 0.1348717 -0.12754701 0.0125174 -0.1380554 -0.22918859 -0.18801847 -0.08557616
0.044798404 -0.19369256 -0.17460884 0.052534446 0.07151573 0.040376544 -0.020553079 -0.20286208
0.14910229 0.20035496 -0.17366269 -0.20459288 -0.24505994 -0.021404846 -0.2229762 -0.10275841
-0.19024237 0.028809734 0.13004848 -0.00046421663 0.1628244 0.19851227 0.24639127 0.07052494
-0.048638947 0.20031136 0.18724114 0.027799837 -0.12485402 -0.22734804 0.24702333 -0.094629906
0.25886393 0.30091152 0.008294612 -0.10595416 0.101803355 0.03048115 0.24080616 0.13872692
0.054428983 -0.12679888 0.05353978 -0.11160547 0.06879737 0.1340401 0.10575504 0.093648046
0.02217515 -0.13621517 -0.04949449 0.05707406 -0.05296058 0.16004874 0.02290955 0.29187772
-0.024120068 0.1609478 -0.18779463 0.12600134 0.10573079 -0.018144555 -0.07720766 0.111876756
-0.033594795 0.16030829 -0.0004483741 -0.0070339004 -0.16278456 -0.26161373 0.21545696 -0.16484614
-0.082124315 0.1463886 -0.19893876 0.1919671 -0.31928706 -0.08011726 -0.04127818 -0.22955775
0.11932759 -0.08548977 0.057027407 -0.07981691 -0.037228957 -0.033233054 -0.18564907 0.16058913

policy_network.0.bias f4 [128]
00000000: f5c9 243e f562 e8bc 6f1f 67be fb06 83be
00000010: 6556 2bbc 0eb1 94bd cc47 7d3c f798 efbd
00000020: 0313 d4bd c159 08be d41b 0b3d b7a1 a3bd
00000030: 2833 583e 5d15 a9bc 328a 2ebe 6ce5 c23d
00000040: 2995 a6bc 30cd e2bd 1fb2 1d3e ebb3 29bd
00000050: 7187 40be dc76 2fbd 5c43 203e ca0e f93d
00000060: 9595 473d 9e2c 373e b38d 3dbe 8f5f 373e
00000070: 552c 2d3e 5796 a6bd 8be0 71be d57f 363c
00000080: 030d d23d 3022 683c f88a 483e a9a0 3ebe
00000090: bcdc 573e 0234 d2bd 6ac7 ab3d 6e97 013e
000000a0: a8ab e0bd b2e5 26be 43f0 453e 4451 313e
000000b0: 6288 c23d a819 593e 2c1d 1e3e 0ea5 3ebe
000000c0: 3bc0 3d3e a1f8 c53d 5be3 efbd ae55 fb3d
000000d0: f0d5 3c3d 4fb7 75be 3071 a1bd 5107 18be
000000e0: f451 5cbd 6008 6d3e 1fe4 223d 225d 12be
000000f0: 0bce d9bc b828 6dbd f6b5 393c e58c 073e
00000100: 7ed1 163e 85e4 2f3e ed7a 533e 635c 1a3e
00000110: d1b1 053e 1458 543e edfd 593e 10a9 223e
00000120: a851 edbc 9373 61be 4f7d 43be 4c59 7abe
00000130: 3e20 b43d ad4d fdbd 12d3 5c3e 356f f93c
00000140: 8713 b83d b4a5 b73d 8196 b7bd b410 4e3e
00000150: 4cef 72be 6967 1cbe 4a7a 79bd 9567 fbbc
00000160: 9edc e53c 65fe d8bd eb33 f5bd f461 853d
00000170: b32e 333d 1746 18be cf41 d2bd 5370 b53d
00000180: 253b 1bbe def9 2c3e 80cb 1ebe cfa0 353d
00000190: fb31 30bd 0ba9 743d f452 a9bd 3fcf 3ebe
000001a0: 4466 27bc 3d86 963d 637e edbd c4e7 07bd
000001b0: 0768 973d 095b f0bd 810d 33be 708e 50bd
000001c0: 55c6 8a3d 680a 0b3c 54d6 233c 5563 1b3e
000001d0: d771 4e3e 0857 f2bc d9f7 193d 67c8 6d3e
000001e0: 1a42 5d3e 9e6d 883e 4a70 7b3e 9e83 4a3d
000001f0: 1dc4 41bd 9b7b 2a3e ef9a 03be dfb4 a73d
0.16092665 -0.028367499 -0.22570585 -0.25591263 -0.01045761 -0.07260333 0.015459012 -0.116990976
-0.10355189 -0.13315488 0.033962086 -0.07989829 0.21113265 -0.02064007 -0.17044905 0.09516415
-0.020334797 -0.11074293 0.15399979 -0.04143135 -0.18801667 -0.042837963 0.15650696 0.12161024
0.048726637 0.17888114 -0.18511085 0.17907546 0.16911443 -0.08134144 -0.23620813 0.011138876
0.10256388 0.014168307 0.19584262 -0.18615974 0.21080297 -0.10263826 0.083876446 0.12655422
-0.10970241 -0.1629856 0.19329934 0.17316157 0.09498669 0.21201193 0.15440816 -0.18617651
0.18530361 0.09666563 -0.117132865 0.122722015 0.046102464 -0.23995708 -0.07882917 -0.14846541
-0.053789094 0.23147726 0.039768334 -0.1429334 -0.026587507 -0.05790016 0.011334887 0.13237341
0.14728352 0.17177017 0.20652361 0.15074305 0.13056113 0.20736724 0.21288271 0.15884805
-0.0289696 -0.22016744 -0.1909077 -0.24448127 0.08795212 -0.12368331 0.21564892 0.030448535
0.089880995 0.08967152 -0.08964253 0.20123559 -0.23724097 -0.15273823 -0.06090764 -0.03068904
0.0280593 -0.10595397 -0.11972793 0.06512824 0.043745708 -0.14870487 -0.10266458 0.08859315
-0.1515928 0.16892192 -0.15507317 0.044342812 -0.043016415 0.059731524 -0.08267775 -0.18633746
-0.010217253 0.07349823 -0.11596372 -0.033180013 0.073928885 -0.117361136 -0.1748562 -0.05091709
0.0677611 0.008486368 0.00999983 0.15174611 0.20160614 -0.029582515 0.03758988 0.23220979
0.21607247 0.2664613 0.24554554 0.049441926 -0.04730617 0.16648714 -0.12852071 0.08188795

policy_network.1.weight f4 [128]
00000000: 98c6 823f cc38 763f 6046 833f 659d 823f
00000010: c451 843f 0863 833f ac55 793f 589c 7c3f
00000020: 0668 743f 6d8e 803f 4777 803f e340 703f
00000030: 4b1b 7d3f b93c 823f b599 7d3f fbdd 823f
00000040: 2167 893f e51e 803f 8d35 7f3f 8694 813f
00000050: 78b2 823f 7cb1 863f c64d 813f b6e2 683f
00000060: b0a5 783f 9714 743f ed8d 7b3f c90e 783f
00000070: db04 7d3f 9412 7c3f b073 783f c808 753f
00000080: b88e 6e3f 9cf1 763f 9485 803f 76a5 673f
00000090: 52d0 7c3f 2c29 853f 0ac7 723f 3fee 713f
000000a0: 23bc 773f 7f6f 763f 84a5 783f c905 863f
000000b0: 67ce 7c3f 2597 863f e2ca 8b3f c6a3 703f
000000c0: 803d 873f cc0d 773f 2496 7e3f b00d 6e3f
000000d0: f943 833f f70b 893f 6080 7d3f e1f7 823f
000000e0: c7e0 883f 5fd9 813f 3262 803f 3c3e 873f
000000f0: f9f6 773f ef8f 743f 450a 813f 23bb 793f
00000100: b24d 873f b52c 843f 0cdb 7c3f 6575 823f
00000110: 4c08 793f 472b 743f 5eb2 813f c9ec 833f
00000120: e17e 813f 2208 7e3f 3ec2 853f 4663 763f
00000130: b2c5 6f3f cfad 843f 7fa7 793f 9879 793f
00000140: a107 823f 5856 893f 09c9 7e3f 1882 7c3f
00000150: 8849 753f 2c46 743f 16cb 813f e3b4 7e3f
00000160: 8d50 873f 7d6d 813f 00dc 833f 7271 883f
00000170: 735c 853f d433 8b3f f287 803f 951a 7e3f
00000180: 4268 7e3f 52f8 883f 88b2 7d3f 2049 783f
00000190: 9d47 813f 73f7 723f 5872 853f aa0e 843f
000001a0: 1df4 793f 8573 7c3f 692a 843f 87a3 793f
000001b0: f985 8d3f 7baa 7b3f 49a1 763f f2bd 823f
000001c0: ac37 7b3f 608d 753f edf1 6f3f 2c06 853f
000001d0: 9e0a 7b3f 9058 853f a9d2 833f 44cd 7c3f
000001e0: 7cfa 7e3f f0d6 7f3f 9270 833f 5beb 803f
000001f0: 84a1 783f 252e 803f 4e99 833f f0a3 863f
1.0216856 0.96180415 1.0255852 1.0204283 1.0337453 1.0264597 0.9739635 0.9867606
0.9547123 1.0043465 1.00364 0.9384901 0.9886977 1.0174781 0.99062663 1.0223993
1.0734597 1.0009428 0.99691087 1.0123451 1.0210714 1.0522914 1.010186 0.90970933
0.9712782 0.9534392 0.98263437 0.9689756 0.98835534 0.9846585 0.97051525 0.95716524
0.9318652 0.96462417 1.0040765 0.9048685 0.9875537 1.040319 0.9483496 0.9450416
0.9677145 0.9626388 0.97127557 1.0470515 0.98752445 1.0514876 1.092129 0.939999
1.0565643 0.9650543 0.99447846 0.92989635 1.0255119 1.0706776 0.9902401 1.0231897
1.0693597 1.0144461 1.0029967 1.0565867 0.96861225 0.95532125 1.0081259 0.9755117
1.0570586 1.0326144 0.9877174 1.0192076 0.97278285 0.95378536 1.0132558 1.0306636
1.0116845 0.9923116 1.0449903 0.9624523 0.93661034 1.0365542 0.97521204 0.9745116
1.0158578 1.0729475 0.99525505 0.9863601 0.95815325 0.95419574 1.0140102 0.9949476
1.0571457 1.0111538 1.0301514 1.0659621 1.0418838 1.0875192 1.0041487 0.9925931
0.99377835 1.0700781 0.9910054 0.9698658 1.009998 0.9490883 1.042552 1.0316975
0.9763811 0.9861377 1.0325443 0.9751515 1.105651 0.9830701 0.9633985 1.0214217
0.98131824 0.95918846 0.93728524 1.0392509 0.98063076 1.0417652 1.0298663 0.9875071
0.9960096 0.99937344 1.0268729 1.0071825 0.97121453 1.0014082 1.028116 1.051878

policy_network.1.bias f4 [128]
00000000: 10b4 02bb ac0d 91bc 7774 543d 778f 94bc
00000010: 5d44 693a 422f 373d 8c43 023d bfba a63c
00000020: 0b7a 8b3c 771e bd3c dd41 0d3d 8156 f53a
00000030: f8fc 59bd c5f2 da3c 2a00 043d 81fe aabc
00000040: 32ca 6ebc ed80 153d 2152 08bd 42d2 acbc
00000050: 2ab8 5e3d 1e48 2fbd 2931 3f3c 0dda 18bd
00000060: 27a1 bf3c 50cf 00bc 17d3 ecbc 928e 9ebc
00000070: 2fa5 c53c f411 51bc 2dc7 9c3b 8f7f 0b3d
00000080: 6ae2 ee3b cf78 25bb 85c1 033d f195 c03b
00000090: a9c4 26bd bf4d b6bb bbed 4fbd 82b1 68bc
000000a0: a3a6 f6bb 79c8 fe3c 7cd2 02bd 582f 673d
000000b0: 657b 043d c508 223d adc0 bf3c 61ae 8a3c
000000c0: 8bf6 db3c 3d70 19bd fcaa 873b a881 b83c
000000d0: 4118 bdbc fe18 783c c404 21bb bb59 063c
000000e0: 1473 cf3c eed5 eb3c bbaf fd3c 10d0 cd3b
000000f0: afe1 4c3d 7555 1d3d 098f 113d 5a99 d1bb
00000100: 6ceb 023d 7f7d 193d 80b2 cdbc 54c3 4b3c
00000110: aa73 e4bb d316 9bbc 564c b7bc 7601 90bb
00000120: 248d 053c 39f7 a9bc 5a26 0bbd 548b 1b3d
00000130: c378 223d 4210 90bc 24ce 8d3a ae9b 08bc
00000140: 1206 a4bc edb3 c33c 2c0c 72bc c4c3 d2bb
00000150: 8ed0 c6bc 2da5 7fbb 627e 25bd e6ca ddbc
00000160: d3b2 19bb 4e66 8abc afa1 17bd 0319 b4bc
00000170: 7d05 9a3c 0c51 803b bde0 f3bb be5c c6bc
00000180: f852 c2ba 6af0 33bd eb56 2ebd b07a 08bc
00000190: 2128 a93c 4792 403b a1ea f23b f00b 0cbc
000001a0: 4c61 6b3d 286f 93bc 39be 793c c16e 90bb
000001b0: a0f9 88bc 1404 7dbc 3f37 8cbc 5192 c13b
000001c0: d0e9 adbb 16a7 243c b544 b63c a6f5 b33c
000001d0: 49c6 6fbc 4c13 6e3d 3934 a1bb 7adb b1bb
000001e0: 709c a03c 27a3 c33c e6af a23c caeb 9abc
000001f0: 6a6d d43b 748d 6e3c 4c15 133c 9b7f 4c3c
-0.0019943751 -0.017706715 0.051868882 -0.018134816 0.00088984316 0.044722803 0.0318027 0.02035272
0.017025968 0.023085816 0.03448664 0.0018717797 -0.053219765 0.02672709 0.03222672 -0.02087331
-0.014574574 0.036499906 -0.03328145 -0.021096352 0.05437485 -0.042793386 0.011669436 -0.037317324
0.023392273 -0.007861927 -0.02890925 -0.019355092 0.024126617 -0.012760628 0.004784486 0.034057196
0.0072901743 -0.002524901 0.032166976 0.0058772494 -0.040714893 -0.0055634673 -0.050763827 -0.014202477
-0.007527189 0.031101452 -0.031939015 0.056441635 0.03234424 0.039559145 0.023407305 0.016928853
0.02685096 -0.037460554 0.004140256 0.022522762 -0.023082854 0.015142677 -0.002456949 0.008200104
0.025323428 0.028788533 0.030967584 0.0062809065 0.050019916 0.038411576 0.0355368 -0.0063964548
0.031962797 0.037473198 -0.02510953 0.012436707 -0.006971796 -0.018931782 -0.022375267 -0.0043947054
0.008151326 -0.020747768 -0.03397212 0.03797467 0.03966595 -0.017585877 0.0010818881 -0.008337898
-0.020022426 0.023889506 -0.01477341 -0.0064320285 -0.024269368 -0.0039008365 -0.04040373 -0.027074289
-0.0023452535 -0.016894486 -0.037019428 -0.021984583 0.018801445 0.0039159115 -0.0074425624 -0.024214145
-0.0014825752 -0.04393045 -0.04256336 -0.008330032 0.020649018 0.0029384063 0.007413224 -0.008547768
0.057465836 -0.01799734 0.0152431065 -0.004407734 -0.016720593 -0.015442867 -0.017116187 0.005907335
-0.0053074136 0.010049602 0.022249559 0.02196772 -0.014634677 0.05812387 -0.0049195555 -0.005427775
0.019605845 0.023881508 0.019859266 -0.018911261 0.0064827697 0.014560092 0.008977246 0.012481595

policy_network.1.running_mean f4 [128]
00000000: 8ecd 433d 28f7 f0bc dd7d 9abd 1a96 89be
00000010: 9835 03be 4aed b3bd d9be 4bbc 5c32 19be
00000020: 2487 9dbd b10f 35be 25f6 723d 9dde e3bd
00000030: 18f9 8f3e ebdc f1bd fc52 64be 7c17 113e
00000040: bf09 af3d 45d4 c4bd 39f5 823e 3565 32be
00000050: f9c0 7bbe d316 b2bd 25b3 b93d abf9 ef3d
00000060: e514 063e 59aa 8c3e ce57 59be 15b0 5b3e
00000070: 5952 653e db66 06be 0fb3 8ebe 22e6 84bc
00000080: 41b1 68bc 687a 783b b261 113e 2210 2dbe
00000090: e3c2 2c3e 7ef2 97be a152 313e 6396 073e
000000a0: 9881 27bd 6681 8fbe 328b 2f3e 900d 773d
000000b0: c173 013e b6cd a23e a54f 8c3e 8783 39be
000000c0: fd7e d33d a4a5 733d e788 07be fe0a 083e
000000d0: 9f27 ae3d 8705 67be 8c84 5ebd 29cc d0bd
000000e0: ce59 1ebe 59d2 a23e 56dd ec3d f1b9 2abd
000000f0: d347 a2bc 1982 76bd 8403 3bbd 2bab 383e
00000100: d31f 383e 3d62 4c3e 828c 7d3e b888 003d
00000110: 641e 453e 1888 923e 03c0 253e 5067 2a3e
00000120: a8fc 35bb 6f3e 7cbe b77b 03be a07e 82be
00000130: 1744 ca3d baa9 4dbe ffdc 703e 5510 efbc
00000140: 1988 843c 2c4b 0d3e effb afbd c655 2b3e
00000150: 42d7 67be 23af 65be bac4 f0bd 01dc b7bd
00000160: ac65 9ebc b004 f5bd f082 67be badc 2fbc
00000170: c6a8 76bd d7a4 80be 07ff 54bd 743c 29bd
00000180: 0626 7abe b2c7 763d eb9a 9fbd 9acf 943d
00000190: c5e0 6cbd c6e2 a73d 32fe 1abe 305b 51bd
000001a0: 2747 84bc 21b0 dc3d 956b 08be 0ed3 06be
000001b0: 41e8 a0bd 2077 78bd f1ee 67be 4f83 a6bc
000001c0: 34eb c53d 9b69 cc3d 2963 b1bd 4f5d ef3d
000001d0: 87ae 093e 569c 7b3d 20b6 7ebc ab10 213e
000001e0: 9855 963d c778 b93e 9f82 b63e 60fb 143d
000001f0: 8617 b2bd 4e53 5a3e 7df7 20bd 3499 bcbc
0.047803454 -0.029414728 -0.07543538 -0.2687233 -0.12813413 -0.08785494 -0.012435638 -0.14960617
-0.07691792 -0.17681767 0.059316773 -0.111264445 0.2811973 -0.11809715 -0.22297281 0.14169115
0.08546781 -0.096108 0.25577715 -0.1742142 -0.24585332 -0.086957596 0.09067372 0.11717542
0.13093908 0.27473715 -0.21224901 0.21453889 0.22394694 -0.13125174 -0.27870986 -0.016223017
-0.014202417 0.0037914757 0.14197424 -0.16900685 0.16871218 -0.29677194 0.17316677 0.13240962
-0.040895075 -0.2802841 0.17142943 0.06031567 0.12641813 0.3179757 0.27404514 -0.1811658
0.103269555 0.05948414 -0.13235818 0.13285443 0.08503651 -0.22560702 -0.054325625 -0.101951905
-0.15463945 0.31801108 0.11565654 -0.041681234 -0.01980964 -0.060182665 -0.04565765 0.18034045
0.1798089 0.1995935 0.2476063 0.031380385 0.19249874 0.28619456 0.16186528 0.16640973
-0.0027769003 -0.24633192 -0.12840162 -0.25487232 0.09876268 -0.20084277 0.23521803 -0.029182592
0.016178178 0.13798207 -0.085929744 0.16731939 -0.22640708 -0.2243009 -0.117562726 -0.08977509
-0.01933559 -0.11963785 -0.22608542 -0.010733778 -0.06021955 -0.25125763 -0.052001026 -0.04131742
-0.24428567 0.060249038 -0.0779322 0.07266159 -0.057831544 0.081975505 -0.1513603 -0.051112354
-0.01614721 0.107757814 -0.1332229 -0.13166448 -0.07856799 -0.06066048 -0.22649743 -0.020326285
0.09664002 0.0998108 -0.086614914 0.11687719 0.13445483 0.06142839 -0.015546352 0.15729015
0.073405445 0.36224958 0.3564653 0.036372542 -0.08695893 0.2132084 -0.039298523 -0.023022272

policy_network.1.running_var f4 [128]
00000000: b235 b13c 2b3e 8a3b 53b4 bd3c 36f6 133c
00000010: 1284 8f3c d3e7 c23b d879 973b 50e4 2f3c
00000020: a4c9 8d3b 35bd 493b e10a cb3b ad20 323c
00000030: 96cc d53b 00e4 183c 40a4 213c ddd3 a73b
00000040: 81eb 673c 3e02 2a3b a028 a83c e722 ab3c
00000050: 60a6 e83b 9e51 2e3c 536d 133c e5cc 3c3b
00000060: f1d8 0f3c d2d8 f43c a129 323c 3242 5e3b
00000070: 2ec6 c13b 949a 013c bcf9 8b3b fca6 4c3c
00000080: 23b4 543c 7aa3 5a3c afd5 3c3c 832d a93b
00000090: c2be 203c 7a61 283d 99c2 923c 3ad5 ce3b
000000a0: 716c ef3b 64ba 7e3c 2944 1a3c ebf0 c03c
000000b0: 4fc1 4a3c 45b9 3e3c b986 a63c 676f 1c3c
000000c0: a558 373c 2989 b33c f4a5 ad3b 91d9 293c
000000d0: 977d fd3b dd4c 213c 3afb c53b d35b c33b
000000e0: 6ab6 833c 9be7 f23b 3cb8 3b3c 56d0 563c
000000f0: 9ced f13b 5721 393c 841f 873b 97a7 a83b
00000100: 45e5 b33b 6352 993b 2fbf 673b 7311 823c
00000110: 5e5f 3a3c a376 e33c 7a4d a63c eda6 013c
00000120: 06e8 123c 3fcf a83b 3682 a73b 22cc ee3b
00000130: cc07 be3b a058 ad3c 46f0 c73b 204c 593c
00000140: f922 7c3c f8f0 433c 4395 1c3c 0388 4c3c
00000150: 7bdb 293c eb09 c93c 55ad 043c f4a0 0b3c
00000160: 20c0 803c 3289 a73b 6239 933c e728 113c
00000170: f349 723c 55c8 013c 75b3 4c3c 357f b73c
00000180: 397c 063c 8a61 633c 185c dd3b f231 033c
00000190: ef90 253b cf30 773b 00bb 443c 246c dc3c
000001a0: 45a2 1f3c 57d7 9a3b 01ef 273c 1861 3d3c
000001b0: ca97 be3c 3875 d33b 07da e93b 1ea6 613b
000001c0: af6b 043c aeec 803c 872e ab3c fef1 cb3b
000001d0: a46a 183c 4cd8 033c f942 033c c15c c03c
000001e0: 7cff d43c 59c6 323c a605 1b3c 25c0 ae3b
000001f0: 3240 983b 83dd b43b 9c4e 3c3c 937d 1e3c
0.02163205 0.004218837 0.023157274 0.009030869 0.01751903 0.0059480458 0.004622679 0.010735586
0.004327016 0.0030782942 0.006196365 0.010872048 0.0065246327 0.009331703 0.00986582 0.0051216916
0.01415527 0.0025941278 0.020527184 0.020890666 0.0070999116 0.010639576 0.008998233 0.002880865
0.00877975 0.029888544 0.010874183 0.0033913967 0.0059135174 0.007910389 0.004271714 0.012490984
0.012982401 0.01334464 0.0115255555 0.005162896 0.009811105 0.041108586 0.017915057 0.0063120397
0.0073066284 0.015547369 0.009415665 0.023552379 0.01237519 0.011640851 0.020327913 0.009548045
0.011190568 0.021915989 0.005299324 0.010366813 0.0077359187 0.009844986 0.0060419114 0.005961874
0.016078193 0.0074128634 0.011457499 0.013111195 0.0073830616 0.011299453 0.00412363 0.0051469314
0.0054899775 0.0046790107 0.0035361757 0.015877461 0.011375276 0.027766531 0.020300616 0.007913333
0.0089664515 0.005151659 0.005111958 0.007287518 0.0057992693 0.021160424 0.006101641 0.0132627785
0.0153891975 0.011959307 0.009557071 0.0124836 0.01036727 0.024540862 0.008097966 0.008522261
0.015716612 0.0051127905 0.017971698 0.00885985 0.014788139 0.007921298 0.012493958 0.022399524
0.008208328 0.013878236 0.006755363 0.008007513 0.002526339 0.0037718301 0.012007475 0.026907034
0.009743278 0.0047253775 0.010249854 0.0115587935 0.023265738 0.0064531825 0.0071365866 0.003443129
0.008082314 0.015737858 0.02089621 0.006223916 0.009302769 0.008047175 0.008011573 0.023481729
0.02600073 0.010911548 0.009461796 0.005332964 0.0046463246 0.0055195703 0.011493351 0.009673494

policy_network.2.weight f4 [256, 128]
00000000: a38b 263d 6fd5 b43c 76c4 0b3d 0ae5 3e3d
00000010: 7fb7 e93b f98e 393d d0d4 1f3d f59b 4a3d
00000020: c193 99bd 90e2 883d 2116 82bc 00cf 4abd
00000030: c871 a0bc 1343 78bd 6a9c 113d 6401 f5bc
00000040: c27b 57bd 3221 13be 4282 06bd 25b6 92bc
00000050: 2983 9d3c acc9 babb b907 363d 56e4 a9bb
00000060: 3a17 fe3d 27e8 0fbd 43a9 6d3d 1d14 12bc
00000070: b5fb 833d 3c82 da3c b27f c73d 7c99 103d
00000080: 9d89 74bd d7bd 113e ab63 8bbd a6ca aebd
00000090: d85a a4bd 5a42 a8bc 7ed2 c03d 56ad 243d
000000a0: d0ff 86bd 10f4 5dbc 3945 79bc 272d 87bd
000000b0: 4cb9 823d 7c2d b0bd 43fb 0a3d bfc1 adbc
000000c0: e5cb a13a bdda a83d 30b2 db3d 47ca 64bb
000000d0: 286a 873d c6fa 5cbd 97b1 3b3c 5a02 ae3c
000000e0: 9776 9fbc 471f 9fbd 63d3 9fbc e2b0 e7bd
000000f0: 80c2 43bd bc38 59bd fe9b e03d 6f2f 683d
00000100: 75b7 38bd 52c6 473b 22dd 313d cffc 23be
00000110: 590e d7bc 824c 5abd 94d6 bbbc 9a8a 27bd
00000120: f7a9 f03d 2af5 17bd 011a 3cbd 470a 303c
00000130: 1aa4 10bc 4869 18bd 63f4 7abd 37a1 413b
00000140: 488b 89bc 1f5d 8fbc dc7d 2b3d d144 aebd
00000150: ee7a c3bc f633 6d3d a507 be3c 2cc5 6ebd
00000160: 48e7 d93d 3eff 133d 35f0 abbc fca7 2e3d
00000170: d093 2dbe 3805 3dbd 3a90 79ba b1e5 40bd
00000180: 1533 3dbd a687 0e3d 9e9f c3bd 037b 703d
00000190: 6172 ed3c 9ce9 313e 143d babc c355 75bd
000001a0: 19b2 acbd 9569 91bc 6162 c8bd 9723 8d3d
000001b0: bd34 bfbb eae8 133e 4c9b f0bd 123b e83a
000001c0: f2d7 753b f2e1 a53d b6ad 393d a215 54bd
000001d0: 1959 94bd f220 843c a8f0 473d 6039 f139
000001e0: c64f 693d 1a5c 9cbd 65f6 88bd fb19 f8bb
000001f0: aadc 553c 54f4 a63c 2379 873d d83f 753b
00000200: c145 6cbd db60 813d 6e8c 84bd 37b7 a63d
00000210: bacd fdbd 2b1f dd3c 9ed7 77bd 2154 db3c
00000220: 150e 68bb 899f d5bd 136a be38 9880 2a3e
00000230: 7bba fb3c 10ba 2abe 5324 9dbc 4517 a93d
00000240: c836 c73d 2fe2 a33d 7f71 9f3c 8ab0 febb
00000250: b176 f4b9 4023 5f3d a91b c93a ad0b 54bd
00000260: c063 c33d 25b4 203d fd6b a7bc 1da0 e33c
00000270: aa5e f83c 7a4a b3bd 928a 1cbd b2c2 d43c
00000280: cdd1 a1bd b648 87bc f7e0 543c 55ba cf3d
00000290: f7d7 25be f9ff d1bd a5c6 643d fc38 63bd
000002a0: 25f1 fb3c 543f d8bc aa16 85bd 1882 fdbc
000002b0: cc24 f7bc 589b ca3d 10fa 783d 075f 82bc
000002c0: ec00 c23d 7762 8fbd b4bf d1bd 907e 0cbc
000002d0: a001 243c b7f5 123e be84 d53c 45f3 97bb
000002e0: fcb8 2b3a f2a1 413d d34c 143e e15c 483e
000002f0: 172b d13c b46e 033e 80be 23bd 1892 82bd
00000300: 58ed a03d 9ae6 43bd 794e 763d d217 16be
00000310: 6bc5 d3bb b5db ef3b 8555 823d 4d86 c5bd
00000320: c3bd cf3d 295c 11be 9257 303e ad56 dabc
00000330: f20f a2bc b924 5bbd 3c64 6a3b 0c18 0bbd
00000340: c208 f7bc 34c2 ab3d 6b5f 573d 5291 8ebd
00000350: 774f 62bd 954f 8fbd def2 92bd 6fcd c0bc
00000360: 0b07 48bd 5bf2 d3bd 617a 133c fb03 64bb
00000370: 3deb 633d 15d1 68be 2a3c e43d c3e8 b3bd
00000380: 8b69 0cbd 9f1d 14bb d12e 2d3e 0ac2 a43d
00000390: c48b 4a3d df00 3dbc e24f fdbd 6b3e 42bc
000003a0: 5f78 27bd 156c bd3c 8dc3 043d 82cd f2bc
000003b0: e3af 4fbe 2950 4b3d bbda 023d aeda 3abd
000003c0: 49fe 053e ef8e 8a3d 5903 20bb a892 8fbd
000003d0: 9b63 8fbc 1a5b 173e 738e 80bb 9087 423d
000003e0: 994a 9a3b 5612 a63c b0e6 f23d 2629 323d
000003f0: e439 33bd bd71 043e 6c0c 553d a670 aebd
0.04066051 0.02207443 0.034122907 0.046605147 0.00713247 0.045302365 0.039021313 0.04946514
-0.07498885 0.06683838 -0.015879693 -0.049513817 -0.019585505 -0.060610842 0.03554956 -0.02990789
-0.05260826 -0.14368132 -0.032839067 -0.017909119 0.019227581 -0.0057003107 0.04444096 -0.0051846905
0.12406774 -0.035133507 0.05802275 -0.008915928 0.06444494 0.026673429 0.09741153 0.035302624
-0.05970155 0.14232574 -0.068061195 -0.08534746 -0.080251396 -0.020539451 0.09415148 0.04020437
-0.06591761 -0.013546959 -0.015214258 -0.06600409 0.06382999 -0.086024255 0.033931028 -0.02121055
0.001234409 0.08244846 0.10727346 -0.0034910606 0.066120446 -0.053950094 0.011455915 0.021241356
-0.019465728 -0.077696376 -0.019509977 -0.113130346 -0.04779291 -0.05303262 0.10967253 0.05668586
-0.045096833 0.0030483198 0.04342378 -0.16014408 -0.026251959 -0.05329562 -0.022929467 -0.040903665
0.11751168 -0.03709904 -0.045923237 0.010744638 -0.008828187 -0.03720978 -0.06126822 0.0029545554
-0.016790047 -0.017500458 0.041868076 -0.085092194 -0.023862328 0.057910882 0.023197005 -0.058293507
0.106398165 0.03613209 -0.020988563 0.04264067 -0.16950917 -0.046147555 -0.00095200876 -0.04709405
-0.046191294 0.034797333 -0.09551929 0.058711063 0.028985204 0.17374271 -0.022734202 -0.059896242
-0.08432407 -0.01775054 -0.09784389 0.06891554 -0.0058351443 0.14444318 -0.117483705 0.00177178
0.0037512747 0.08099736 0.04533168 -0.051778443 -0.072435565 0.01612899 0.048813492 0.0004600985
0.056960844 -0.076347545 -0.06687621 -0.0075714565 0.013053099 0.020380177 0.06614902 0.0037422087
-0.05768371 0.06317302 -0.06472097 0.08140414 -0.12392755 0.026992401 -0.060508363 0.026773514
-0.0035408784 -0.104308195 9.079664e-05 0.16650617 0.03072857 -0.1667254 -0.01918236 0.082563914
0.097272456 0.080021255 0.019463299 -0.00777251 -0.0004662774 0.054476976 0.0015343326 -0.051768947
0.0954051 0.0392343 -0.020437235 0.027786309 0.030318577 -0.0875444 -0.03821809 0.025971744
-0.079013444 -0.016514163 0.012993089 0.10142962 -0.16195665 -0.10253901 0.055853505 -0.055474266
0.030754635 -0.026397385 -0.064984635 -0.030945823 -0.030168913 0.09892911 0.060785353 -0.015914453
0.09472832 -0.070012026 -0.102416426 -0.008575097 0.010010153 0.14351545 0.026064273 -0.0046371543
0.0006550697 0.047273584 0.14482431 0.1956668 0.025533242 0.12835199 -0.039976597 -0.063755214
0.0785777 -0.04782734 0.06013343 -0.14657524 -0.006462743 0.0073198923 0.06363968 -0.096447565
0.10143616 -0.14195313 0.17220905 -0.026652658 -0.019782994 -0.05350182 0.003576531 -0.03395848
-0.030155543 0.08386651 0.052581232 -0.069613114 -0.055251565 -0.06997601 -0.071752295 -0.023535458
-0.04883484 -0.1034896 0.009001345 -0.0034792412 0.055644263 -0.22736008 0.11144288 -0.0878463
-0.03428034 -0.0022600663 0.1691239 0.080448225 0.049449697 -0.011535852 -0.12368752 -0.011855702
-0.04088628 0.023122827 0.032413054 -0.02963901 -0.20281939 0.049636994 0.03194688 -0.045618705
0.13085283 0.06765544 -0.0024416058 -0.07010394 -0.01750355 0.14780846 -0.0039232313 0.047492564
0.0047085998 0.020272415 0.118604064 0.043496273 -0.04375638 0.12934013 0.0520138 -0.0851758

policy_network.2.bias f4 [256]
00000000: 9dec 05bd d070 513d 5694 63bd 025a a7bd
00000010: 9536 573d 08bb a8bd 6658 7d3c ef9e 813d
00000020: d7cd 56bc 8cf4 1639 4e43 433d 8a05 0abb
00000030: c199 d6bd 0db8 8fbd 6e54 00bd f65d 613d
00000040: 80bd 613d 3c3e 383d 18d2 53bb b246 afbd
00000050: ef9a 4f3c 3cfb 123b 8295 50bd 2afa 47bc
00000060: 4447 bcbd 3295 97bd 0087 c93c 4089 893c
00000070: 4718 82bd 3f3b 12bc 09be ed3b cadf 803b
00000080: 7c6f bf3b 08f5 d33d 839a 513d f4f5 acbd
00000090: b89a e3bc 3bcb 49bc 112d 2b3d 5892 acbd
000000a0: 7bcb a93c e58b 893d 9bb0 87bd 8e06 3abd
000000b0: 18f6 933d d29d c63d 3984 57bd 86f6 6fbd
000000c0: 9cc7 ea3c 97ea cb3c b43a 7cbc e5e3 643d
000000d0: 41f6 823d c676 82bd 926a 063c b275 603d
000000e0: cc34 e63c 15ca 993d 1cb2 84bd 6a03 27bd
000000f0: b8c8 4cbc 9055 b5bd aada a33d 226d 3a3c
00000100: 8491 23bd cdcb d7bb 0996 7dbd 7933 e93b
00000110: d80f f33c 53ec d3bd aee7 ebbc 839d 0c3d
00000120: 65cf b9bd faae 6c3d aa7c 2abd 11ec 48bd
00000130: 39b3 813d dd0b 74bd 044f 90bd 989e 8dbc
00000140: 44ab 53bc 5ec8 e7bd 4a9b c0bd 8c39 6e3d
00000150: c6bf 4ebc 9f13 abbd 2944 473d a1a6 aa3c
00000160: e5b0 8abd db08 28bd fab0 993d 17b9 87bc
00000170: bea9 4dbc ce53 ec3c 4f27 4e3c 3a12 a1bd
00000180: 0541 7dbd 8bda 95bd 4ff3 9d3d e17a 033b
00000190: 00f5 07bc 6516 ecbc f91e 30bd 07a0 e5bb
000001a0: a41f c6bc a56e cd3d efdf ab3b 540d e53d
000001b0: 7537 583b e2bf 10bd 2d13 acbd 3680 dc3c
000001c0: 4af0 943d 6607 8fbd 36a9 0d3d 39b2 b2bc
000001d0: 22a3 56bc 0c3d 98bd dc11 53bc d29a fa3d
000001e0: c8eb 8b3d 43bc 803d f3a4 033b 4732 bf39
000001f0: 0857 6fbd 4da7 1ebd 5ac3 a8bc 96f0 b93c
00000200: 8fd8 90ba f4fc 05bd 4148 a3bd 4515 713d
00000210: 7732 45bd 43a5 9d3d c606 213d 0577 88bd
00000220: 2e62 40bd 6dc9 a73b 81b8 08bd 3c7b b7bc
00000230: e3f5 4dbd 62db 5bbd 8003 c43b 293f 5d3d
00000240: 5e05 19bc 11d4 9e3d 8739 28bd 75c5 c13d
00000250: 666c 593c bffc 153d 3cdb 813c e096 9d3d
00000260: 4110 86bd e5f5 16bd 2e56 81bd 9aad 073c
00000270: bc15 62bd 4340 e8bb fffc 8ebb 1aba 863d
00000280: 502b a53c 58d9 7b3c ee22 233d d3b3 bcbb
00000290: 1083 94bd ff59 febd 3a34 883b 196a d13d
000002a0: 9c6a 4a3d c159 a0bd d583 913b 3f2b 8abc
000002b0: b81f c5bc 466a 6fbc c16a 3d3c b850 adbd
000002c0: 5c7a 753d 7784 98ba 998f 073c 8f27 39bd
000002d0: 2e73 f83d 8bcc c8bc e6df 663b 9c3f cf3d
000002e0: 8908 003c 0810 78bc 0293 903d 61be 8a39
000002f0: 55b8 e2bc 71f1 33bd 3030 17bd 5987 493d
00000300: 0f87 ca3c d232 44bd 09fa 65bd d364 6bbd
00000310: 3f05 1f3d 184e a7bd bfac 123d 3c51 1bbd
00000320: b6c0 fcbc 1513 843d fe01 de3c 4c5f 3c3d
00000330: 2f57 0a3d 0937 e0bb 1ee4 803d 2e70 d33b
00000340: 9bc0 fc3c 394f 5ebd 852b 463d 5b7e 813d
00000350: cdff ba3c fb8c d9bd cd03 143d 0d91 0cbc
00000360: 0fc7 b4bd f528 6dbb 88e2 ba3d 6dd1 ccba
00000370: a3ef d83a 78a9 79bd e06c ec3d 0355 22bd
00000380: b1bd 4bbd 0152 9e3b e462 dfbd 3ebe 183d
00000390: c334 49bd 04b2 cabd c659 c13c 0367 fabc
000003a0: 7e0d 433d 96e8 2d3d a9c2 24bd 6296 7abd
000003b0: 4332 9a3c 6799 0fbd ea80 febc 68cc 9a3c
000003c0: d25e 333d 51c5 0b3d 0512 46bd 5b5a c2bc
000003d0: 93b1 78bc 1ba3 8bbc 38dc 873d ff03 993c
000003e0: ba7f a3bd f389 1d3c 2647 92bc e611 f2bd
000003f0: 2f5c 1d3d 2a74 783b 0c03 b43d 64ec be3d
-0.032696355 0.051132977 -0.055561386 -0.081714645 0.052542288 -0.082387984 0.01546297 0.06329142
-0.0131105995 0.00014396216 0.04767161 -0.002106043 -0.10478545 -0.07017527 -0.03133052 0.05502125
0.055112362 0.044981226 -0.003232127 -0.08558406 0.012671216 0.002242758 -0.05092383 -0.01220564
-0.0919328 -0.074015036 0.024600506 0.016789079 -0.06352287 -0.008925258 0.00725532 0.0039329277
0.0058421474 0.103494704 0.051172744 -0.08445349 -0.027783737 -0.01231652 0.041791026 -0.0842635
0.02072691 0.06716136 -0.06625482 -0.045416407 0.07224673 0.096980706 -0.05261633 -0.058584712
0.028659634 0.024892135 -0.015394855 0.0558814 0.063946255 -0.063703105 0.008204119 0.054799743
0.028101347 0.07509247 -0.06479284 -0.04077474 -0.012499027 -0.088542104 0.08000691 0.011378558
-0.039933696 -0.0065855742 -0.061910663 0.0071167317 0.02967064 -0.1034781 -0.028796997 0.034329902
-0.090727605 0.05778406 -0.041622795 -0.049053255 0.06333012 -0.059581626 -0.07046321 -0.017287537
-0.012919251 -0.11317514 -0.09404619 0.05816035 -0.012618965 -0.08353352 0.048648987 0.020831408
-0.06772021 -0.04102407 0.07504459 -0.01656775 -0.012552677 0.028848555 0.012582614 -0.078648046
-0.061829586 -0.073170744 0.07712423 0.0020062255 -0.008298159 -0.028819272 -0.042998288 -0.007007602
-0.02418501 0.100308694 0.005245201 0.11184183 0.003299204 -0.035339244 -0.08402095 0.026916604
0.07272394 -0.06983833 0.0345852 -0.021813499 -0.013100417 -0.07433519 -0.012882676 0.12236561
0.06832081 0.06285908 0.002008733 0.00036467818 -0.05843261 -0.03873377 -0.020600963 0.022697728
-0.0011050868 -0.032711938 -0.07972766 0.058858175 -0.04814383 0.07697537 0.0393131 -0.06663326
-0.04696863 0.0051204474 -0.03337908 -0.02239763 -0.050283324 -0.053676017 0.0059818625 0.054015312
-0.009339659 0.07755292 -0.041070487 0.0946149 0.013270473 0.03661799 0.01585161 0.07694793
-0.06546069 -0.036855597 -0.063152656 0.008281136 -0.05519651 -0.0070877387 -0.0043636556 0.06578465
0.020162255 0.015371643 0.039828233 -0.0057587414 -0.07251561 -0.12419509 0.0041566165 0.10225315
0.049418077 -0.07829619 0.0044407644 -0.016866324 -0.024062976 -0.01461274 0.011561097 -0.084626615
0.059931144 -0.0011636157 0.008273982 -0.04520374 0.12131344 -0.024511596 0.0035228669 0.101195544
0.007814535 -0.015140541 0.070592895 0.00026463254 -0.027675787 -0.04393143 -0.03691119 0.049201343
0.024722604 -0.04790003 -0.056146655 -0.0574692 0.038823362 -0.08169192 0.035809275 -0.037919268
-0.03085361 0.06448952 0.02710056 0.04598932 0.03377455 -0.006842498 0.0629351 0.006452582
0.03085356 -0.05427477 0.048381347 0.063229285 0.022827053 -0.10622593 0.036136437 -0.008579505
-0.0882703 -0.0036187742 0.09125239 -0.0015626379 0.001655091 -0.060952634 0.11544204 -0.039631855
-0.04974145 0.004831553 -0.10907534 0.037290804 -0.049122583 -0.09897235 0.023602378 -0.030566698
0.04762029 0.04245814 -0.040224705 -0.061178572 0.018822795 -0.035058405 -0.03106733 0.018896297
0.0437916 0.034123722 -0.04835703 -0.023724725 -0.015179056 -0.017045548 0.066338 0.018678663
-0.07983346 0.009615409 -0.017856192 -0.1181982 0.03841799 0.0037911036 0.08789644 0.09322432

policy_network.3.weight f4 [256]
00000000: 1b68 5a3f 9198 573f 4278 5f3f 009a 593f
00000010: e722 683f eadb 4e3f 047a 6f3f eefb 623f
00000020: 216b 4e3f 4b19 6d3f a345 5b3f 2e7e 613f
00000030: ac08 603f 1eb8 713f 21ff 563f fe41 8b3f
00000040: 6cf4 733f fbb9 4d3f 6772 5f3f 8c0c 6c3f
00000050: 3ae6 4c3f 1634 673f 6238 593f b201 753f
00000060: 7bd8 5d3f b9a6 553f 3227 683f af6c 663f
00000070: fd94 5b3f 2079 713f 8282 563f b38d 553f
00000080: 9ba0 6e3f 403e 5b3f e05e 6e3f cb9e 5e3f
00000090: 35a9 723f 3961 5c3f 45dc 583f 8cb4 623f
000000a0: b721 5f3f 3cc6 543f 40fe 7d3f bd5d 593f
000000b0: 4c72 633f 5a88 623f c5a8 5b3f c6d6 723f
000000c0: 3104 6b3f 0d92 553f 3204 5c3f 09d5 763f
000000d0: e702 663f bc37 6f3f f143 613f bdd5 5b3f
000000e0: 1e65 5f3f 9154 7f3f da9d 793f 9355 693f
000000f0: e411 4d3f 19d3 723f a446 563f c4b4 5a3f
00000100: 5d3e 643f c71d 613f 3b82 503f dee1 743f
00000110: 9914 6b3f 1c74 673f fbf0 6a3f d84d 573f
00000120: b2be 653f 3cc8 423f 8fb6 6f3f 4145 663f
00000130: 495c 6d3f 7bd7 6d3f 2883 823f fb33 6b3f
00000140: bde9 603f 4c37 5f3f aa01 6a3f 8572 5c3f
00000150: 2dfe 6c3f 12f7 5e3f 7687 783f bf25 613f
00000160: c9d2 813f 3f3b 633f 8e40 683f ba7d 6e3f
00000170: 238c 6a3f c243 653f 4b39 4a3f 2191 5e3f
00000180: 0923 643f 16a0 783f 894e 603f 89f8 663f
00000190: b65c 823f 72e8 7d3f 7bad 773f 8f9f 5b3f
000001a0: f826 633f 6f18 5c3f f08a 723f 4ca5 643f
000001b0: 79c9 613f 79f9 683f 5d93 5e3f c67f 703f
000001c0: de6e 5a3f d237 553f 63c2 573f efdb 703f
000001d0: 3baa 693f 8c70 5c3f a3c5 733f 86d4 5b3f
000001e0: c54c 793f 3013 533f 8631 733f 1a2f 523f
000001f0: c7dd 693f 2695 6e3f 9bc5 743f e2a0 4d3f
00000200: c913 723f bfd1 6c3f ea47 643f dd71 653f
00000210: 0d0a 5e3f 1f10 6d3f 247d 813f 45a7 593f
00000220: a084 683f 3197 6a3f aac6 723f 84f5 613f
00000230: db25 693f 757d 563f 10d0 5c3f ff3e 723f
00000240: 636f 623f 2222 5f3f 00b8 5a3f ed9e 6b3f
00000250: 1d53 563f 5c58 703f 5ac2 533f dd52 673f
00000260: 0300 613f 973e 5a3f c725 5b3f a57c 5d3f
00000270: 5eeb 5c3f 371e 873f df04 653f c7ad 783f
00000280: 1862 573f 0f32 663f 7d1d 5e3f 4951 613f
00000290: 0e31 723f ff71 663f 28de 7d3f ee6d 5a3f
000002a0: 507e 5b3f be7b 7c3f 809f 473f cd46 5d3f
000002b0: 3f62 5d3f cd88 613f 51dd 823f 7128 6b3f
000002c0: cedd 5a3f a965 5d3f bce7 4b3f 63d2 633f
000002d0: 9bdb 683f aa6a 693f 5b7b 503f b2a2 7b3f
000002e0: c1a2 813f 6b03 833f 7971 713f 6ba1 773f
000002f0: 5954 6b3f d4e1 713f 3422 683f b9a5 6b3f
00000300: 1ac2 623f 748d 4b3f 0491 663f eab9 563f
00000310: aca2 5e3f 341d 643f 7692 633f 7b86 633f
00000320: 44d5 5d3f 8277 583f 7056 623f 1fdd 593f
00000330: bf59 833f d26f 723f 075f 693f 7c6d 753f
00000340: 76db 793f e126 4f3f 2568 503f 3b25 623f
00000350: fb8e 6c3f ffff 4f3f 208b 683f 0999 5b3f
00000360: 0060 6d3f c5cb 6c3f ef0f 5a3f 1ca0 793f
00000370: 9c69 5d3f 9e25 723f 0b5c 843f c45c 713f
00000380: a2ad 753f 0fd2 683f 2d1a 6d3f 4af2 6b3f
00000390: a44a 613f c4f5 7b3f 7d2d 603f ae5d 673f
000003a0: 3550 613f 3ebf 823f 002f 3d3f a186 613f
000003b0: 3bf3 5d3f 6ccb 573f ced1 773f be79 643f
000003c0: 6c7a 5f3f 6dab 673f ef09 663f 44dd 723f
000003d0: 46a3 413f 2fca 6f3f 7059 663f f49e 7a3f
000003e0: 1709 633f efc0 5f3f a411 6f3f fc7f 763f
000003f0: 4073 763f 50ff 673f 2ff4 633f f755 5a3f
0.853151 0.8421717 0.87292874 0.8500061 0.90678257 0.8080431 0.93545556 0.88665664
0.80632216 0.9261672 0.8565313 0.8808316 0.8751323 0.94421566 0.83983046 1.0879514
0.95294833 0.8036191 0.8728394 0.92206645 0.800388 0.9031385 0.8485166 0.9570571
0.8665845 0.83457524 0.9068481 0.9000959 0.85774213 0.9432545 0.8379289 0.8341934
0.93213814 0.8564186 0.9311352 0.8696105 0.9478944 0.8608585 0.84711105 0.8855674
0.8716082 0.8311498 0.9921608 0.8490866 0.8884628 0.88489306 0.85804397 0.9485897
0.9180327 0.8342598 0.859439 0.96418816 0.8984818 0.9344442 0.87994295 0.85873014
0.8726367 0.99738413 0.9750649 0.911462 0.80105424 0.9485336 0.8370154 0.85432076
0.8915766 0.8793606 0.81448716 0.95657146 0.91828305 0.90411544 0.91773957 0.84103155
0.897441 0.76086783 0.9363794 0.89949423 0.9271894 0.9290692 1.0196276 0.9187619
0.87856656 0.8719375 0.9140879 0.8611224 0.9257534 0.8709575 0.97081697 0.8794822
1.0142452 0.8876228 0.907235 0.93160594 0.9162008 0.89556515 0.7899367 0.869402
0.8911596 0.9711927 0.87619835 0.90222985 1.0184543 0.9918281 0.96749085 0.8579034
0.88731337 0.8597478 0.9474325 0.89314723 0.8819805 0.91005665 0.8694361 0.93944967
0.8532542 0.832883 0.84280986 0.9408559 0.91275376 0.8610923 0.95223445 0.8587116
0.97382766 0.8245115 0.9499744 0.8210312 0.9135403 0.9319633 0.9561402 0.8032361
0.9456144 0.9250755 0.8917223 0.89626867 0.86734086 0.92602724 1.0116315 0.8502086
0.9082737 0.9163695 0.9483439 0.8826525 0.9107339 0.8378518 0.8625498 0.94627374
0.8845121 0.8716146 0.8543701 0.92039376 0.8372057 0.93884826 0.8271843 0.90360814
0.8789064 0.85251755 0.8560452 0.8651832 0.8629664 1.0556096 0.8946056 0.97140163
0.84134054 0.89920133 0.86763746 0.88014656 0.946061 0.90017694 0.9916711 0.8532399
0.8573961 0.98626316 0.7797775 0.8643616 0.86478037 0.88099366 1.022379 0.91858584
0.854947 0.86483246 0.79650474 0.889929 0.9096009 0.9117838 0.81438226 0.9829513
1.0127794 1.0235418 0.9431377 0.9673068 0.9192558 0.9448521 0.9067719 0.9204975
0.88577425 0.79512715 0.90065026 0.8387743 0.8696697 0.8910706 0.88895357 0.88877076
0.8665354 0.84557354 0.88413143 0.8510303 1.0261763 0.94701874 0.91160625 0.95870185
0.97600496 0.809187 0.8140891 0.8833806 0.9240567 0.81249994 0.9083729 0.8578039
0.9272461 0.9249843 0.8518056 0.9750993 0.8648927 0.9458865 1.0340589 0.94282174
0.9596807 0.90945524 0.92618066 0.9216658 0.8800452 0.98421884 0.8756941 0.9037732
0.8801301 1.0214612 0.7389984 0.8809605 0.86699265 0.8429477 0.9680451 0.89248264
0.87296176 0.9049595 0.8985891 0.94868875 0.7563976 0.9366788 0.8998022 0.97898793
0.88685745 0.8740377 0.9338629 0.9628904 0.9626961 0.9062395 0.8904447 0.8528742

policy_network.3.bias f4 [256]
00000000: a62d ee3d 895a b3be bb29 9ebe 1061 983e
00000010: 4ea8 4e3e d2e9 f03e 7a93 44be 2a0c 1b3e
00000020: cf28 96be 57e0 dbbe b4fd 16be e95f d93d
00000030: 1e8d fc3e b152 e03e bcf8 c6be f7ca 00be
00000040: d379 aa3e 807f 13be 8ea6 223e 507f f9bd
00000050: 3bf6 f7be 1f49 9dbe c5ba 793d c404 cb3e
00000060: f5b8 eebe b576 f63e b991 243e 6fe6 2cbe
00000070: 1ea9 0a3a db24 9b3e 19b0 82be c3e3 4e3e
00000080: 0f93 a1bb ff1b efbe 30c7 213e aeee a23e
00000090: f86a 5fbe e0e0 033e 28d0 e6be 65ef c03e
000000a0: 5bde 4c3e 004d 1a3f 583f 143e 4502 bb3e
000000b0: cdfa ed3c 864a d1be 5ec9 1ebe 272c 32be
000000c0: 55aa 2f3e 1479 5d3d c036 da3e ab76 973d
000000d0: 6758 c4be 6adb 263e 887d b83d a44d 513e
000000e0: 1c06 c0be 6ef4 c3be aa59 8c3e b695 8b3e
000000f0: 755f 7abe 0446 90bd e2eb abbe e3bd 2d3d
00000100: 2a89 08bf 02b9 b23e e374 7a3e 143f c13e
00000110: 69f9 e33e bf40 8c3e e902 61be df11 88bc
00000120: 05fa b73e 0b11 b9be 476c a83e 1def 0fbd
00000130: e4c3 ab3d 2b12 943e e0de 753d 23e7 bfbd
00000140: 58e9 253e 084e d43e 7035 8e3e e8aa dcbe
00000150: 5ed0 303e e066 ebbd 4f24 d63e cab9 9cbd
00000160: 23a4 c4be 93f3 033e b9a7 04be 2696 5ebe
00000170: 59cf c4be 5efa a53e caee cc3d a54a 0b3e
00000180: f4f7 01bd 243d 10be b2eb 98be b9bd da3e
00000190: 2cf6 513e 2795 cbbc e67a b9be 0258 3bbd
000001a0: 721a 2e3c 5711 18bf df77 253e e523 bdbe
000001b0: 6083 a7be 5522 41be e36c f03d e76a 523e
000001c0: e783 82bd 30be b63e b33a e33e e51e 403d
000001d0: 4f0d 963e 1027 52be 07d4 9d3e 10ee 3dbe
000001e0: 4a31 1abe c5f6 a73e a182 5c3d f126 28be
000001f0: 9984 283e a982 cf3d ef22 093e 18d9 f2bd
00000200: ab52 b03e aa3d 693e 8f36 1cbf 6bed d6be
00000210: a8f8 c03d 6627 9a3e f01f 35be 894e 573e
00000220: 3871 43be 032d e8bd 2df1 1dbd eb09 1e3e
00000230: 6872 f53d a6ea a7be 6199 e9bd d103 5b3e
00000240: dc5a 443e b22e 60be dfe4 b1be 6ddd 3bbe
00000250: a0e1 abbe dd8d 03be b6e6 973d 6adc 0f3e
00000260: 62f9 8a3e 1790 1dbe 8111 20be a11b a53e
00000270: 956a c13e fafa 9f3e fd9b 68bd 72ec c33d
00000280: fc66 be3c 1868 96be ea53 2e3e 8039 d53e
00000290: 22f8 a73d 3658 7c3e dffc 693e f6cd 04bd
000002a0: 38bb 97bb 6f90 483e 3eec 54bd 3cff 243e
000002b0: 18a5 a8bd b443 ad3d 4790 f03e 209b 803e
000002c0: 4635 083e 565e a3bd 5a1e 043f 085e 76be
000002d0: 96fe 85be dbe2 8f3e 4767 f9be 1ff7 f8bd
000002e0: f051 edbe 3005 51be dcf2 86be bd3c 343d
000002f0: b47a c13e 9460 a1be 6c30 fcbe 30ca a7be
00000300: 1b33 c4be bf8c adbe d985 da3e 76aa 403e
00000310: f743 633d 8afe e5be 2ca7 e6be 8dbd 963e
00000320: 0ac9 843c 68f2 64be 9f06 13be 75fa c2bd
00000330: 8be6 9a3d 9188 c03e 2220 f7bd 96e3 a2be
00000340: 9941 a03e 1cde d73d d0c9 c43e 7876 38be
00000350: 0445 fbbe 56ca 5d3e c0b7 733e 0b98 933e
00000360: 07b5 be3e d5df ebbe 3498 d5be 0b30 853e
00000370: fb24 953e eb19 45bd 4ccf 063d 49ac 9abe
00000380: 3543 083f 5c5c e23e e227 d73d ef9e 9c3e
00000390: 28ec c93d 0584 d23e 1c95 9abe ccce a3bd
000003a0: 530a 6bbe de55 7fbe ccd3 cebe 5673 7cbd
000003b0: d59d 3bbe 2a37 b33e 9020 32be 9436 aa3e
000003c0: 2be1 b13e 5ac7 143e f958 e73e b7c2 a63e
000003d0: 07bc 1abe 3cf2 f1be 86ab c7be c7ec d4bd
000003e0: 1e7b 363e 88d8 56be 828a 74be 32b0 5e3e
000003f0: 5542 e73d c45b aa3e 2af0 28be 0d85 2fbc
0.116298005 -0.3503001 -0.30891213 0.29761553 0.2018139 0.4705339 -0.19196883 0.15141359
-0.2932801 -0.42944595 -0.14745218 0.106139965 0.49326414 0.4381309 -0.38861644 -0.12577425
0.3329607 -0.14404106 0.15883848 -0.12182486 -0.48430046 -0.3071985 0.060969133 0.39652073
-0.46625486 0.4813744 0.16071214 -0.16884778 0.00052894827 0.30301556 -0.25524977 0.20204072
-0.004930861 -0.46701047 0.1579864 0.31822723 -0.21818149 0.12878752 -0.45080686 0.37682644
0.20006697 0.6027374 0.14477289 0.3652517 0.029050255 -0.4087717 -0.15506503 -0.17399655
0.1715482 0.054070547 0.42619896 0.07395681 -0.38348696 0.16294637 0.09008318 0.20439774
-0.3750466 -0.38272423 0.27412158 0.27262658 -0.24450476 -0.070446044 -0.33578402 0.04241742
-0.53334296 0.34906775 0.24458651 0.37743437 0.44526222 0.27393147 -0.21973766 -0.016610084
0.35932937 -0.36145815 0.3289511 -0.035140146 0.083869725 0.2892011 0.060027003 -0.09370258
0.16202295 0.41465783 0.27775145 -0.4309914 0.17266986 -0.11494231 0.41824576 -0.07652624
-0.38406476 0.12885885 -0.12954606 -0.21736965 -0.38439444 0.32417578 0.10006483 0.13602693
-0.031730607 -0.14085823 -0.2986732 0.42722872 0.20504063 -0.024851395 -0.36226577 -0.045738228
0.010626422 -0.5940146 0.16159008 -0.36941448 -0.3271742 -0.18860753 0.117395185 0.20548593
-0.063728146 0.35691977 0.4438072 0.046904463 0.2930703 -0.20522714 0.30825827 -0.18547845
-0.15057865 0.32805458 0.053835515 -0.16421105 0.16456832 0.10132343 0.13392232 -0.118578136
0.3443807 0.22777429 -0.6102075 -0.4197801 0.094224274 0.30108184 -0.17687964 0.21026053
-0.19086158 -0.1133671 -0.03856008 0.15433471 0.11984712 -0.3279621 -0.11406208 0.21388175
0.19175285 -0.21892813 -0.34744927 -0.18346186 -0.33570576 -0.12847085 0.074170515 0.14048925
0.2714339 -0.15386997 -0.15631677 0.32247642 0.37776628 0.31246167 -0.056789387 0.09566583
0.023242466 -0.29376292 0.17024198 0.41645432 0.082016245 0.24643025 0.22850369 -0.032422982
-0.0046304725 0.19586347 -0.05198311 0.16112989 -0.08234614 0.08460179 0.46985075 0.2511835
0.13301572 -0.079769775 0.5160881 -0.24059308 -0.26170796 0.28102764 -0.48711607 -0.121565096
-0.46351576 -0.20412135 -0.26357162 0.044003237 0.37788928 -0.31518996 -0.49255693 -0.32771444
-0.3832024 -0.33896443 0.42680243 0.18815026 0.05548474 -0.4492076 -0.45049417 0.2944149
0.016209144 -0.22358096 -0.14357994 -0.09520427 0.07563504 0.37604192 -0.12066676 -0.3181426
0.31300047 0.10540411 0.3843522 -0.18013942 -0.49076092 0.21659216 0.23800564 0.28826937
0.37247488 -0.46069208 -0.41717684 0.26013216 0.29129776 -0.04812042 0.032912537 -0.30209568
0.5322755 0.4421109 0.10505654 0.30590007 0.09859496 0.41116348 -0.30191886 -0.07998428
-0.22953157 -0.249351 -0.40395963 -0.06163343 -0.18321927 0.35003024 -0.17395234 0.33244765
0.34742102 0.14529172 0.45185068 0.3257043 -0.15110789 -0.47255123 -0.3899805 -0.10396724
0.17820403 -0.20981038 -0.23880962 0.217469 0.11291949 0.33273137 -0.16497865 -0.010712874
