Results/XRP-USD/DeepRL; DATA_KIND(AutoPatternExtraction); BEGIN_DATE(None); END_DATE(None); SPLIT_POINT(2021-10-07); StateMode(5); WindowSize(10); BATCH_SIZE10; GAMMA0.7; REPLAY_MEMORY_SIZE20; TARGET_UPDATE5; N_STEP10/model.pkl (torch, 167093 bytes, 14 tensors)

policy_network.0.weight f4 [128, 40]
0	0x3e5d4ee6	0.21612129
1	0xbe715584	-0.23567778
2	0x3e378a52	0.17923859
3	0x3d8af821	0.06785608
4	0x3e5eabd2	0.21745232
5	0x3eb6067b	0.3555182
6	0x3e1a4d69	0.15068592
7	0x3e6dcf71	0.23223664
8	0x3d68bc8e	0.056820445
9	0xbdd20273	-0.102543734
10	0xbe9735cd	-0.29533234
11	0xbda031a4	-0.07821968
12	0xbe45482e	-0.19265816
13	0xbe67ba96	-0.2262977
14	0xbdda913e	-0.10672234
15	0xbdb2d80e	-0.087326154
16	0xbe2b691f	-0.1673932
17	0xbe69d43f	-0.22834872
18	0xbd9232b3	-0.07138576
19	0x3dd60c24	0.104515344
20	0x3da12c04	0.078697234
21	0x3d8fab76	0.070151255
22	0xbbc1da68	-0.0059159286
23	0x3d5bd1b6	0.053666793
24	0xbe9ca5ea	-0.30595332
25	0x3d15de73	0.036589097
26	0xbea82663	-0.32841787
27	0xbe3360e8	-0.17517436
28	0x3e987166	0.29774016
29	0xbeb09f8a	-0.3449672
30	0xbe0122d4	-0.12610942
31	0xbd8500bf	-0.06494283
32	0xbe6345d4	-0.22194606
33	0xbe6e7db2	-0.23290136
34	0x3e1f11ed	0.15534182
35	0x3e02c10c	0.12768954
36	0x3d060afc	0.03272532
37	0x3e4c1131	0.19928433
38	0xbdbd6c4f	-0.09249174
39	0xbf3df132	-0.7419616
40	0x3da6af22	0.08138873
41	0xbdda9c89	-0.10674388
42	0x3dbadc8a	0.09124096
43	0x3d204c02	0.039134987
44	0xbcbf98a3	-0.023388213
45	0xbe24e395	-0.1610244
46	0xbc1d7966	-0.009611463
47	0x3dd71900	0.10502815
48	0xbd5a1848	-0.053245813
49	0x3dfbee05	0.12301258
50	0x3e691306	0.22761163
51	0xbe390585	-0.18068512
52	0x3c8ff735	0.017573932
53	0x3db99353	0.09061303
54	0xbe52b49c	-0.2057671
55	0x3e0c97dd	0.13729806
56	0x3e3631e4	0.1779247
57	0xbe894760	-0.26812267
58	0x3ceeaf74	0.029136397
59	0x3e01c8f1	0.1267431
60	0xbe3df923	-0.1855207
61	0xbc07e507	-0.0082943505
62	0xbc53e5cc	-0.012933206
63	0xbe820501	-0.25394443
64	0x3e189847	0.14901839
65	0x3d9ab0a2	0.07553221
66	0x3e3b50b5	0.18292506
67	0x3d1ae965	0.03782024
68	0xbe6d1208	-0.2315141
69	0x3dee7b5f	0.11644625
70	0xbc162361	-0.009163708
71	0xbe66b8ef	-0.22531484
72	0xbe140eda	-0.1445879
73	0x3d746f63	0.05967654
74	0x3e10d5cc	0.14144057
75	0x3cbf9f85	0.023391495
76	0x3e06e169	0.13171925
77	0x3ee4d253	0.44691715
78	0x3f0975fd	0.5369566
79	0x3ff434d2	1.907862
80	0xbf60887d	-0.87708265
81	0xbea5b149	-0.3236182
82	0xbf98c5ed	-1.1935402
83	0xbf79ee29	-0.9762903
84	0xbdc1044a	-0.09424646
85	0xbfa0d8e3	-1.2566189
86	0xbf291e05	-0.6606143
87	0x3ed9a83b	0.42511162
88	0xbf1a7f56	-0.6035055
89	0xbea148dd	-0.31500903
90	0x3e550658	0.20803201
91	0xbeaf31c8	-0.34217668
92	0xbe097986	-0.13425264
93	0x3eb5ce94	0.3550917
94	0xbc7a3106	-0.015270477
95	0xbc28748b	-0.010281692
96	0x3d7c22f3	0.061556768
97	0xbe02cafe	-0.12772748
98	0xbe939ee7	-0.2883217
99	0x3dff9d98	0.124812305
100	0xbe67a727	-0.22622357
101	0xbe21f031	-0.15814282
102	0x3e969f50	0.2941842
103	0x3c5134b9	0.012768918
104	0x3cf753ef	0.03019139
105	0xbd01e3ab	-0.03171126
106	0xbe0a07f3	-0.13479595
107	0xbe514ef6	-0.20440277
108	0xbdfd56ef	-0.12370097
109	0xbe1ea2ef	-0.15491842
110	0x3c2d93c1	0.010594309
111	0x3e5a569f	0.21322106
112	0x3dcd7758	0.10032529
113	0xbdd09518	-0.101846874
114	0xbd4475c1	-0.04796386
115	0xbe3e2e8a	-0.1857244
116	0xbe508cee	-0.2036626
117	0xbd0ea100	-0.03482151
118	0x3c8dcc12	0.017309222
119	0x3e1801a6	0.14844379
120	0x3d67c987	0.056588676
121	0xbc03de19	-0.008048558
122	0xbe5ab417	-0.21357761
123	0xbde35600	-0.111003876
124	0x3da271e5	0.0793188
125	0xbdaca111	-0.084291585
126	0xbdb758d2	-0.08952488
127	0xbe291c1c	-0.16514629
128	0xbecc783d	-0.39935485
129	0xbe870b74	-0.26375926
130	0x3d9cc1e9	0.07654173
131	0xbf15736d	-0.5837925
132	0xbce12a39	-0.027485954
133	0xbd71ef14	-0.059065893
134	0xbe964a74	-0.29353678
135	0xbded7976	-0.115954325
136	0xbd909d90	-0.07061303
137	0x3d71f999	0.059075925
138	0xbeb54a99	-0.35408476
139	0xbea05d6d	-0.31321278
140	0x3e27f3e5	0.16401632
141	0xbe0120c3	-0.12610154
142	0xbda9f8f1	-0.08299435
143	0x3e9d7d04	0.30759442
144	0xbd1f0b48	-0.038829118
145	0xbe64f6d8	-0.22359788
146	0x3e348053	0.17627077
147	0xbe46fc30	-0.1943214
148	0xbe735f14	-0.23766738
149	0x3dba88d1	0.09108127
150	0xbe490d48	-0.19633973
151	0xbf08d90a	-0.53456175
152	0x3ecb4f01	0.39708713
153	0xbdea34ed	-0.11435876
154	0xbf195346	-0.5989269
155	0x3e433ebc	0.190669
156	0x3ce178cf	0.027523426
157	0xbeceabc7	-0.4036543
158	0x3dcf926d	0.101353504
159	0xbee9e784	-0.45684445
160	0x3c9c1948	0.019055024
161	0xbc6bc438	-0.014390044
162	0x3d022e47	0.031782415
163	0x3cec1c60	0.028822124
164	0xbe2c36dd	-0.16817804
165	0x3c903333	0.017602539
166	0xbd999992	-0.07499994
167	0xbe0e664c	-0.1390621
168	0x3d126052	0.03573639
169	0x3b1512d1	0.002274681
170	0xbdd6941c	-0.10477468
171	0x3e5f411e	0.21802184
172	0xbd23cb11	-0.03998858
173	0xbe5f56c7	-0.21810447
174	0xbddb7981	-0.107165344
175	0xbc963104	-0.01833392
176	0xbc70f8fe	-0.014707802
177	0x3eca9f91	0.39574865
178	0x3e31b7c9	0.17355265
179	0x3d6b0ed8	0.057387203
180	0x3e8465a8	0.25858808
181	0xbe32df45	-0.17467983
182	0xbc857432	-0.016290758
183	0x3e85c195	0.26124254
184	0xbd43b506	-0.04778006
185	0xbe63c2e5	-0.22242315
186	0xbea04522	-0.31302744
187	0xbeb6e769	-0.35723427
188	0x3dd4b59b	0.10386201
189	0xbed02f77	-0.40661213
190	0x3b14527c	0.0022632172
191	0xbe9d6fa8	-0.3074925
192	0xbe491c67	-0.19639741
193	0xbedaf402	-0.42764288
194	0xbe20b40a	-0.1569368
195	0xbd3b9b5e	-0.045802467
196	0xbeb295ce	-0.34879917
197	0xbec24156	-0.37940472
198	0xbdb4b3f7	-0.08823388
199	0xbf1e6870	-0.6187811
200	0x3e65974d	0.22420998
201	0xbdb1b000	-0.086761475
202	0x3de6724a	0.11252268
203	0xbc6d5f9a	-0.014488125
204	0x3dcba325	0.09943227
205	0xbe816888	-0.25275064
206	0xbc3b38c4	-0.011427108
207	0x3ced5b7d	0.02897429
208	0xbd577af5	-0.052607495
209	0xbdd88ba5	-0.1057351
210	0xbe0712ee	-0.13190815
211	0xbed6325f	-0.41835305
212	0xbe9e634d	-0.30935135
213	0xbe3596b5	-0.17733271
214	0xbee06b66	-0.43831939
215	0xbe80429e	-0.25050825
216	0xbe749aa1	-0.23887111
217	0x3b3ad69e	0.002850927
218	0xbd372507	-0.044713046
219	0xbd59315f	-0.0530256
220	0xbd423e88	-0.047422916
221	0x3b77f5e4	0.0037835771
222	0xbe1a4ee1	-0.15069152
223	0x3e640295	0.2226661
224	0x3df22a2c	0.1182445
225	0xbe57bc12	-0.21067837
226	0xbd1f0d15	-0.038830835
227	0xbe0211bb	-0.12702076
228	0xbe4bb5ee	-0.1989362
229	0xbe3347c1	-0.1750784
230	0xbdf643fd	-0.120246865
231	0xbef69876	-0.48163193
232	0x3e0d9b41	0.13828756
233	0xbeaeae2f	-0.34117267
234	0xbf07ff80	-0.5312424
235	0x3db1e8de	0.08686994
236	0xbe75f97b	-0.2402095
237	0xbeafced7	-0.34337494
238	0x3c62de20	0.013846904
239	0xbee13357	-0.43984482
240	0x3e29d17c	0.16583818
241	0x3c49510d	0.01228739
242	0xbdf15d0e	-0.11785327
243	0xbe387b5e	-0.18015811
244	0x3d8845d1	0.066539414
245	0x3bb14c3f	0.0054107006
246	0x3d6e7bd2	0.058223553
247	0xbbfad0ad	-0.0076542706
248	0xbd1ece2c	-0.03877084
249	0x3d73f9b7	0.05956432
250	0x3e7181ca	0.23584667
251	0xbd240d7d	-0.040051926
252	0x3dec818b	0.11548146
253	0x3e7bf474	0.2460497
254	0x3c5e36a0	0.013562828
255	0x3c2a979c	0.010412123

policy_network.0.bias f4 [128]
0	0x3dda9fc1	0.10675002
1	0xbd9561ed	-0.072940685
2	0x3ed963ef	0.42459056
3	0x3f2a2e8c	0.66477275
4	0xbe98cfc6	-0.2984602
5	0x3eb93723	0.36174878
6	0xbd524d28	-0.051343113
7	0xbef102bf	-0.47072408
8	0xbe4413c8	-0.19148171
9	0x3ed9cdbb	0.42539772
10	0xbcf501c0	-0.029908061
11	0xbea5879c	-0.32330024
12	0xbf06b6ef	-0.52622885
13	0xbeb17910	-0.34662676
14	0xbe4cd098	-0.20001447
15	0x3d3349da	0.043771602
16	0xbec94c0e	-0.39315838
17	0xbf2dbcee	-0.6786641
18	0xbe597cee	-0.21239063
19	0x3c228c95	0.009921213
20	0xbee8cd05	-0.45468917
21	0x3ec1d791	0.37859777
22	0xbf2191ff	-0.631134
23	0xbf144977	-0.579246
24	0x3ed76cfc	0.42075336
25	0x3c8f4db3	0.017493105
26	0xbbfb3a46	-0.007666859
27	0xbf4db5b8	-0.80355406
28	0x3d3a6ac2	0.04551197
29	0xbec64866	-0.3872711
30	0x3ece5ab4	0.40303576
31	0xbc77733d	-0.015103159
32	0x3f3b1c13	0.7308971
33	0x3e72a710	0.23696542
34	0xbcff18ce	-0.031139757
35	0xbd510afd	-0.05103587
36	0xbeec9f0a	-0.46215087
37	0xbef41020	-0.47668552
38	0xbc4a1a70	-0.012335405
39	0xbf152888	-0.5826497
40	0x3f0ae6dd	0.5425852
41	0xbeb61cb7	-0.35568783
42	0x3c561879	0.013067358
43	0xbf766e2d	-0.96261865
44	0xbe753276	-0.2394503
45	0xbbc8d6c2	-0.0061291168
46	0xb8e05c4e	-0.000106983454
47	0x3aa63b4b	0.0012682466
48	0x3e6e5d1e	0.23277709
49	0xbb3e7ea8	-0.0029067192
50	0xbbe7935b	-0.0070671267
51	0x3d19da56	0.037561737
52	0x3edb5096	0.4283492
53	0x3f6fe993	0.9371578
54	0xbefd8a1a	-0.49519426
55	0x3ef05b2f	0.46944568
56	0x3d60e6c2	0.054907568
57	0xbef5456e	-0.47904533
58	0x3ef6f5ca	0.48234397
59	0x3d2a9af6	0.04165169
60	0xbe91ba5e	-0.284625
61	0xbb6fd229	-0.003659377
62	0x3ee40427	0.44534418
63	0xbe111ed9	-0.14171924
64	0xbe9bcdf3	-0.30430564
65	0xbeaff108	-0.3436358
66	0x3e8df0b5	0.27722707
67	0xbea3d9b4	-0.32002032
68	0x3eb22792	0.34795815
69	0xbd82db85	-0.06389526
70	0x3c31ab90	0.010844126
71	0xbec932ac	-0.39296472
72	0xbd17312c	-0.03691213
73	0xbb8f14a0	-0.0043664724
74	0x3f0c2733	0.54747313
75	0x3b88f22b	0.0041792593
76	0xbc3c702f	-0.011501356
77	0x3c5c220d	0.013435853
78	0x3d82752e	0.063700065
79	0x3e6f87a3	0.23391585
80	0x3e25a351	0.16175582
81	0x3f1b38fe	0.6063384
82	0xbf186cac	-0.5954082
83	0x3d0fcb79	0.035106156
84	0x3dd4b505	0.10386089
85	0x3f0c4f8d	0.54808885
86	0x3d7d0244	0.06176974
87	0xbd8afb99	-0.0678627
88	0x3f45fab8	0.7733569
89	0xbf1900b4	-0.597667
90	0x3ee8b5be	0.45451158
91	0xbc5091c9	-0.01273007
92	0xbd22c3bf	-0.03973746
93	0xbf7a26fb	-0.9771573
94	0x3f2f23db	0.68414086
95	0x3dc493d9	0.09598512
96	0x3cbe7606	0.023249637
97	0xbd6c0e27	-0.057630684
98	0xbda64e22	-0.081203714
99	0xbf003df3	-0.50094527
100	0xbe5df932	-0.21677092
101	0x3e7afb89	0.24510016
102	0xbf3249f9	-0.69644123
103	0xbed824d7	-0.42215607
104	0xbf2f156f	-0.6839208
105	0xbd66a89d	-0.056313146
106	0xbd394ae8	-0.04523745
107	0x3ef2d89a	0.4743088
108	0xbe9539da	-0.291457
109	0xb9ae4b7d	-0.0003324411
110	0xbe608468	-0.21925509
111	0x3f498fb2	0.78734887
112	0xbe4c93e8	-0.19978297
113	0xbd89926e	-0.06717382
114	0xbb1ec2f1	-0.002422508
115	0x3e2a660b	0.16640489
116	0xbf48f4be	-0.78498447
117	0x3c5cf99c	0.013487246
118	0x3cd9c3d5	0.026582638
119	0xbf28863a	-0.65829813
120	0x3e5d4952	0.2161
121	0x3d713553	0.058888745
122	0xbc90c45a	-0.017671753
123	0x3cef1559	0.029184984
124	0xbf0b125a	-0.5432488
125	0xbd230cc6	-0.039807104
126	0x3c053098	0.008129261
127	0xbf01a1d6	-0.5063757

policy_network.1.weight f4 [128]
0	0x3f36e6d5	0.7144597
1	0x3fb96565	1.4484068
2	0x3fb5bbd0	1.4197941
3	0x3f6f490e	0.9347085
4	0x3eb5911d	0.35462275
5	0x3ee43c62	0.44577318
6	0x3f15ec9d	0.5856417
7	0x3f395f13	0.72410697
8	0x3f7de9bc	0.99184775
9	0x3fbeb015	1.4897486
10	0x3faa2cc2	1.3294909
11	0x3f9e63f1	1.237425
12	0x3f6e0d3c	0.92988944
13	0x3f38b763	0.72154826
14	0x3f554c80	0.83319855
15	0x3fae3ab3	1.3611664
16	0x3f64ff75	0.89452296
17	0x3f9ed51b	1.2408785
18	0x3f85daf1	1.0457441
19	0x3f6a7e79	0.9159923
20	0x3f89d98d	1.0769516
21	0x3f8b4e38	1.0883245
22	0x3f034205	0.5127261
23	0x3f9aeed8	1.2104139
24	0x3f6b3f29	0.9189325
25	0x3f620c26	0.8829979
26	0x3f55ab3c	0.8346441
27	0x3f71ae0f	0.9440622
28	0x3f76116d	0.9612034
29	0x3f61fbf0	0.8827505
30	0x3f5709e9	0.83999497
31	0x3f823f24	1.0175519
32	0x3f362795	0.7115415
33	0x3f6f60b2	0.9350692
34	0x3f666a8b	0.9000632
35	0x3f84d0f4	1.0376267
36	0x3f0a790c	0.5409095
37	0x3f9a7f79	1.2070152
38	0x3fa69abe	1.3015974
39	0x3fa6ed13	1.3041099
40	0x3f9b25bf	1.2120894
41	0x3f8b81a8	1.0898943
42	0x3f74970c	0.9554298
43	0x3fa0ef42	1.2573016
44	0x3f91631a	1.1358368
45	0x3f26c0b8	0.65137815
46	0x3f8a7116	1.0815761
47	0x3f898b4b	1.0745634
48	0x3f124ce7	0.57148594
49	0x3f4a33af	0.7898511
50	0x3f8dfadf	1.1092185
51	0x3f2e953c	0.68196464
52	0x3f84f464	1.0387082
53	0x3f88f2b1	1.0699064
54	0x3f995e7c	1.1981959
55	0x3faf86af	1.3712977
56	0x3f48e80e	0.7847909
57	0x3f95d4af	1.1705531
58	0x3f9ca984	1.2239232
59	0x3f89bb6c	1.0760322
60	0x3f607b26	0.8768791
61	0x3f88f64f	1.0700167
62	0x3f80c9ee	1.0061624
63	0x3f924ea7	1.1430253
64	0x3f97f3c1	1.1871263
65	0x3f29752f	0.6619443
66	0x3f685a46	0.90762746
67	0x3f810241	1.0078813
68	0x3f72598b	0.9466788
69	0x3f4cd862	0.80017674
70	0x3f9602e9	1.1719638
71	0x3f628c68	0.8849549
72	0x3f0285f0	0.5098562
73	0x3f9a77f0	1.2067852
74	0x3f84521e	1.033756
75	0x3f37af09	0.7175146
76	0x3f98696f	1.1907176
77	0x3fa14836	1.2600162
78	0x3fb9a83b	1.4504465
79	0x3f12c78e	0.57335746
80	0x3e8cf690	0.27531862
81	0x3f89e9a6	1.0774429
82	0x3f80c8a7	1.0061234
83	0x3f527d99	0.82222897
84	0x3f71a20f	0.94387907
85	0x3efad0f0	0.48987532
86	0x3f82f0f1	1.022978
87	0x3f9803db	1.1876177
88	0x3fa4630f	1.284273
89	0x3f6f44c7	0.9346432
90	0x3f907505	1.1285712
91	0x3f9f0df2	1.2426131
92	0x3f52737c	0.82207465
93	0x3f85d171	1.0454541
94	0x3f82b755	1.0212198
95	0x3f3c311f	0.7351245
96	0x3fbf65e6	1.4952972
97	0x3ef0123a	0.46888906
98	0x3f49c40f	0.78814787
99	0x3f7f46a1	0.99717146
100	0x3f6ee82b	0.9332301
101	0x3f1caea2	0.6120397
102	0x3f885c3d	1.0653149
103	0x3f356b79	0.70867115
104	0x3f64d203	0.8938295
105	0x3f7fcd4e	0.99922645
106	0x3f94c5fd	1.1622921
107	0x3f8330e0	1.024929
108	0x3f65c2a5	0.8975013
109	0x3f845e9d	1.0341374
110	0x3ed447f5	0.4146115
111	0x3fa1fd5d	1.2655445
112	0x3ee39cf7	0.44455692
113	0x3f69ff5f	0.9140529
114	0x3f331f71	0.6996985
115	0x3f7707d6	0.9649633
116	0x3f961cf1	1.1727582
117	0x3f436f19	0.76341397
118	0x3f736107	0.95069927
119	0x3f5b5c07	0.856873
120	0x3f74b9d9	0.9559608
121	0x3f2e8b51	0.6818133
122	0x3f84d315	1.0376917
123	0x3f731e16	0.9496778
124	0x3f58d8ee	0.8470601
125	0x3f8b6bf9	1.0892326
126	0x3f85e0d8	1.0459242
127	0x3f7b908d	0.9826744

policy_network.1.bias f4 [128]
0	0x3cf04852	0.02933136
1	0x3db3981a	0.087692454
2	0xbd0788b0	-0.03308934
3	0x3d855788	0.06510836
4	0x3d24fadf	0.04027831
5	0x3da3e92e	0.0800346
6	0xbcfdc903	-0.030979639
7	0xbc978607	-0.018496526
8	0xbcf92186	-0.030411493
9	0x3dc8dc50	0.09807646
10	0x3d99c1e3	0.07507684
11	0xbce91798	-0.028453633
12	0xbd8c9485	-0.06864265
13	0x3d558bbe	0.05213522
14	0x3daa10e8	0.08304006
15	0xbd267172	-0.040635534
16	0x3d4fea61	0.05076063
17	0xbc92d87e	-0.017925497
18	0x3dcd0ecb	0.10012587
19	0x3be3f8ae	0.006957135
20	0xbdc5eb22	-0.09663989
21	0xbd891baf	-0.06694733
22	0x3b2538dc	0.0025210893
23	0xbcad4f68	-0.021156028
24	0x3b03f09e	0.0020132433
25	0x3c809ac1	0.015698792
26	0xbc8d0303	-0.01721335
27	0xbdb35dab	-0.087581
28	0xbd264e5b	-0.04060207
29	0x3dcae674	0.09907237
30	0x3ac88a15	0.0015299941
31	0xbd83483f	-0.06410264
32	0x3db7e95b	0.08980056
33	0xbd5b1147	-0.053483274
34	0xbb4752b3	-0.0030414283
35	0xbc93d1b8	-0.018044338
36	0xbc0ed64b	-0.008718084
37	0xbcb217aa	-0.0217398
38	0x3d4b89a6	0.04969182
39	0xbc0e56e7	-0.008687711
40	0x3c994586	0.01870991
41	0xbb5978d5	-0.0033183594
42	0xbd3709db	-0.044687133
43	0xbd3c0d29	-0.045910988
44	0x3d2d794a	0.042352
45	0x3d7d35c4	0.061818853
46	0xbd6da67c	-0.0580201
47	0xbd0ebcb9	-0.03484795
48	0xbcb201f1	-0.021729441
49	0xbc4f7e60	-0.0126644075
50	0xbd4077dd	-0.04698931
51	0xbcc34553	-0.023836767
52	0xbd09aaf8	-0.033610314
53	0x3d4a7cae	0.04943531
54	0xbd9e6c2f	-0.07735478
55	0x3d07bbb9	0.03313801
56	0xbced606e	-0.028976645
57	0xbda337ce	-0.07969628
58	0x3cd52e7e	0.026023146
59	0xbc3b2aef	-0.01142381
60	0xbce5db8b	-0.028058788
61	0x3c4041e9	0.011734464
62	0xbd95a184	-0.07306197
63	0x3d1bae55	0.038008053
64	0xbcf5068f	-0.029910354
65	0xbd321403	-0.043476116
66	0x3d80870b	0.062757574
67	0xbd23f5a7	-0.040029194
68	0xbdbaa11b	-0.0911276
69	0x3c3aea70	0.011408433
70	0xbd9180c6	-0.0710464
71	0x3dbb81eb	0.09155639
72	0xbc246295	-0.010033269
73	0x3d9cfcb2	0.07665385
74	0x3dcb9655	0.09940783
75	0x3d56bef2	0.052428193
76	0x3c3016a5	0.010747586
77	0xbd2356d2	-0.03987772
78	0x3d1ff5b4	0.03905268
79	0x3d36cf9d	0.04463159
80	0xbc34805f	-0.011016934
81	0x3d35e1d7	0.04440483
82	0xbdaade40	-0.08343172
83	0xbc5057df	-0.012716263
84	0xbc99645d	-0.018724615
85	0xbd4882a5	-0.048952717
86	0xbd4a2e4e	-0.049360566
87	0x3d6cdde3	0.057828795
88	0x3aee274c	0.001816967
89	0x3db6ce70	0.089260936
90	0x3c7561ff	0.014976977
91	0xbda3fc06	-0.08007054
92	0x3d0f6f1e	0.03501808
93	0xbdabfa88	-0.083973944
94	0x3daae648	0.08344704
95	0xbdc12c28	-0.0943225
96	0xbd8ab6e7	-0.06773167
97	0x3d8168d2	0.06318821
98	0x3d01d205	0.03169443
99	0x3dc9e1d0	0.098575234
100	0xbce61ff5	-0.02809141
101	0xbd52ccd0	-0.051464856
102	0xbdacadac	-0.08431563
103	0x3d9298c5	0.07158045
104	0xbdd18867	-0.10231095
105	0xbb1638cb	-0.0022922035
106	0x3cc3a850	0.023883969
107	0xbda378fa	-0.07982059
108	0xbc0e4043	-0.008682313
109	0xbd28cdeb	-0.041212004
110	0xbc19cacb	-0.0093867285
111	0x3c9236ac	0.017848335
112	0x3da2cb3d	0.07948921
113	0xbda28a78	-0.07936567
114	0xbbe4f154	-0.0069867764
115	0xbc8da928	-0.017292574
116	0xbcc5ecb6	-0.024160724
117	0xbc902d65	-0.01759977
118	0xbd248b98	-0.04017219
119	0xbd64a54a	-0.055821694
120	0xbdbda772	-0.09260453
121	0xbcb4b4a2	-0.022058789
122	0x3dcb55c3	0.09928467
123	0xbc4766d4	-0.012170512
124	0x3daee195	0.0853912
125	0x3d964f57	0.073393516
126	0x3d875af1	0.066091426
127	0xbd0b131d	-0.033953775

policy_network.1.running_mean f4 [128]
0	0xbf6ebda6	-0.9325813
1	0x3fc287b5	1.5197664
2	0xc06b00e4	-3.6719294
3	0xc00154cb	-2.0208004
4	0xc00a808f	-2.1640966
5	0xc01f11de	-2.4854655
6	0x3fc80955	1.5627848
7	0x402a86ed	2.6644852
8	0x403c4bd3	2.942128
9	0x3f4f1bb4	0.80901647
10	0x3fa8a4fa	1.3175347
11	0xc09241d2	-4.5705347
12	0x4037f077	2.8740518
13	0xc05e6ac2	-3.475266
14	0xc07518a6	-3.8296294
15	0xbfc3bcbc	-1.5291972
16	0xbf2a5941	-0.6654244
17	0xc09e4f42	-4.947175
18	0xc07d016f	-3.9532125
19	0xbd8d715d	-0.06906388
20	0x403bd40b	2.934817
21	0x40578546	3.3675094
22	0xc088eb23	-4.278703
23	0xc098c5d3	-4.7741485
24	0x3f8cb710	1.0993366
25	0x3f110ff5	0.56664973
26	0xbf5f086f	-0.87122244
27	0x40514574	3.269864
28	0xbf9cb3b0	-1.2242336
29	0xc060c933	-3.5122802
30	0x401e1ded	2.4705765
31	0xbf7ae31a	-0.9800278
32	0xc0551076	-3.3291297
33	0xbf86ec72	-1.0540907
34	0xbf918ec0	-1.1371689
35	0x3f7ea213	0.99466056
36	0x3fe932d9	1.8218642
37	0xc08b9863	-4.362352
38	0x3f67edbd	0.90597135
39	0xc09611f6	-4.6896925
40	0x409a4916	4.8214216
41	0xbe8f967f	-0.28044507
42	0xbfa78f1d	-1.309055
43	0xc004d5eb	-2.0755565
44	0x408169e6	4.044177
45	0x3f925b20	1.1434059
46	0xbe5a25b5	-0.21303447
47	0xbf075232	-0.52859795
48	0x400ce587	2.2015092
49	0xbf68f959	-0.91005474
50	0xbed60d56	-0.4180705
51	0xbfd095d1	-1.629572
52	0x40357156	2.8350425
53	0xc00bab58	-2.182333
54	0x4037f46f	2.874294
55	0xbf2c1aff	-0.6722869
56	0xbf49b017	-0.78784317
57	0x3ff4d6a1	1.9128
58	0x40936c7e	4.6069937
59	0xbfb4b1f9	-1.4116813
60	0x4033f4c8	2.8118153
61	0xbe36979e	-0.17831275
62	0x3f9df4c2	1.2340319
63	0x3ba2011f	0.0049439813
64	0xc0811822	-4.034196
65	0x4031e550	2.7796211
66	0xbfd649a1	-1.674122
67	0x401f1cf5	2.4861424
68	0x4081971d	4.0496964
69	0x3fbcb80b	1.4743665
70	0xbfbd4175	-1.4785601
71	0xc089c6e9	-4.305531
72	0x3fa9e7ed	1.3273903
73	0x3f1019a7	0.5628914
74	0xc04e8485	-3.2268384
75	0x3f24c9f4	0.64370656
76	0x3faf54f2	1.3697798
77	0xbfb352a8	-1.40096
78	0x3fc366ea	1.5265782
79	0xc01cd03a	-2.4502091
80	0xbfa05c2e	-1.2528131
81	0xc05d0191	-3.4532206
82	0x40544cba	3.317183
83	0x3e1fedc2	0.15618041
84	0x3e008473	0.12550525
85	0x40612a98	3.5182247
86	0xbecd1ac1	-0.40059474
87	0x3fc8488e	1.5647142
88	0x409b6a2d	4.856711
89	0xc085af27	-4.177631
90	0x3ef9e9fa	0.48811322
91	0xbd42d125	-0.047562737
92	0x3faf2609	1.3683482
93	0x3f976cd1	1.1830083
94	0xc009479b	-2.1449955
95	0x40860b8a	4.1889086
96	0xbf3f6478	-0.7476268
97	0xc009a3ab	-2.1506145
98	0x3f5a56f3	0.85288924
99	0xc08660b9	-4.199307
100	0x4032eaf0	2.7955894
101	0x40174306	2.3634658
102	0x402ba000	2.6816406
103	0xc082f009	-4.091801
104	0x4046151c	3.0950384
105	0x3fa568be	1.292259
106	0x3f995797	1.1979855
107	0x40877181	4.2326055
108	0xc0881465	-4.2524896
109	0xbf413eaa	-0.7548624
110	0x401bdae1	2.4352343
111	0x4001d234	2.0284548
112	0xbfd3bf6b	-1.6542791
113	0x4049bc1b	3.152106
114	0xbfc92620	-1.571476
115	0x3f19190b	0.5980384
116	0xbfce0e40	-1.6098099
117	0xbfb3c183	-1.404343
118	0xbf90be6d	-1.1308113
119	0x400cc072	2.199246
120	0x4081c9aa	4.055867
121	0xbed6c156	-0.4194438
122	0x3f0d4187	0.5517811
123	0xbf7bde38	-0.98385954
124	0xc057e8e0	-3.3735886
125	0x3f694fe9	0.9113756
126	0x3f4d2a3e	0.8014258
127	0x4028900c	2.633792

policy_network.1.running_var f4 [128]
0	0x3c5dd085	0.013538484
1	0x3d08e822	0.033424504
2	0x3de6c50c	0.112680525
3	0x3d2a526f	0.04158252
4	0x3d17dfcd	0.037078667
5	0x3d475095	0.048660833
6	0x3d08b60d	0.033376742
7	0x3d5eb53b	0.054372054
8	0x3d39f358	0.045398086
9	0x3c990a1b	0.018681576
10	0x3cbccc9c	0.023046784
11	0x3debf6e1	0.11521698
12	0x3d64d011	0.05586249
13	0x3d41fc5c	0.04735981
14	0x3d799169	0.06092969
15	0x3d109bb4	0.03530474
16	0x3c55c704	0.013047937
17	0x3e016be9	0.1263882
18	0x3d8dc460	0.06922221
19	0x3bd8f8c4	0.006621452
20	0x3d6cb6d2	0.05779154
21	0x3d42b8f9	0.047539685
22	0x3d934303	0.07190516
23	0x3df46881	0.11933995
24	0x3c460a6b	0.012087445
25	0x3c1fbc6e	0.009749515
26	0x3d04ce59	0.03242335
27	0x3da4c922	0.080461755
28	0x3cb5ad09	0.022177236
29	0x3d3efda3	0.046628606
30	0x3d037c10	0.032100737
31	0x3d20ba58	0.03924021
32	0x3d9d0384	0.07666686
33	0x3cd64dea	0.0261602
34	0x3c7a5616	0.015279314
35	0x3c8ea144	0.017410882
36	0x3d183d92	0.037168093
37	0x3dea416e	0.11438261
38	0x3d02bd67	0.03191891
39	0x3de22433	0.11042061
40	0x3df4a40c	0.11945352
41	0x3c045e21	0.008079083
42	0x3d2671ac	0.04063575
43	0x3c548e84	0.0129734315
44	0x3dfe1978	0.124072015
45	0x3ceaa6d5	0.028644005
46	0x3bffa37b	0.007801471
47	0x3cb1cd74	0.021704413
48	0x3cc42333	0.023942566
49	0x3d19eb68	0.037578017
50	0x3c237ddc	0.009978738
51	0x3d2c8dcc	0.042127416
52	0x3d0ea4c4	0.0348251
53	0x3d6f70cd	0.058457185
54	0x3d5cf989	0.053948913
55	0x3c4df207	0.012569911
56	0x3c9d5b00	0.019208431
57	0x3cead99a	0.028668214
58	0x3dfee9a6	0.12446909
59	0x3ce5b19b	0.02803879
60	0x3d3b48eb	0.045723837
61	0x3c1f1e9c	0.009711888
62	0x3c31c8bc	0.010851081
63	0x3bd80bc8	0.0065932013
64	0x3dc8e9b8	0.09810203
65	0x3d73c331	0.05951232
66	0x3d12aacd	0.03580742
67	0x3d193250	0.037401497
68	0x3d8a2fa1	0.06747366
69	0x3d016869	0.031593714
70	0x3ccde0cb	0.025131604
71	0x3d969ad8	0.07353753
72	0x3d052bb1	0.03251237
73	0x3cdc7719	0.026912259
74	0x3d8bf55f	0.0683391
75	0x3cc5bb12	0.024137054
76	0x3cce1f2e	0.025161352
77	0x3cdf4aa9	0.02725728
78	0x3cdd18ec	0.026989423
79	0x3d672964	0.056435958
80	0x3c93aa80	0.018025637
81	0x3dcf5a01	0.10124589
82	0x3d9cd215	0.076572575
83	0x3d1ee1cd	0.03878956
84	0x3c0e2b6b	0.008677344
85	0x3d2ea1ab	0.042634647
86	0x3d365e79	0.04452369
87	0x3d1611af	0.03663796
88	0x3de13311	0.10996068
89	0x3d82dbe6	0.063895985
90	0x3b6b7e67	0.0035933496
91	0x3bd56ff2	0.006513589
92	0x3d1a1e81	0.037626747
93	0x3cecbaab	0.028897604
94	0x3d22a60d	0.03970914
95	0x3da5f142	0.08102657
96	0x3c692898	0.01423087
97	0x3d2c1f64	0.042022124
98	0x3d221e1f	0.039579507
99	0x3d871c0b	0.06597146
100	0x3d286193	0.04110868
101	0x3d26dd7d	0.04073857
102	0x3d6ab33a	0.05729983
103	0x3d7b9e7c	0.06143044
104	0x3d905edd	0.07049344
105	0x3ce4aee3	0.027915424
106	0x3ccd7365	0.025079438
107	0x3d884348	0.06653458
108	0x3ddb7188	0.10715014
109	0x3cad0973	0.02112267
110	0x3d065ee0	0.032805324
111	0x3c4c48fa	0.012468571
112	0x3c92f5af	0.017939417
113	0x3d426499	0.04745922
114	0x3cffe4fc	0.031237118
115	0x3bdad1cc	0.006677842
116	0x3be558df	0.0069991197
117	0x3d021db8	0.031766623
118	0x3cdd0024	0.026977606
119	0x3d22a59a	0.03970871
120	0x3d921035	0.071319975
121	0x3d363cc5	0.044491548
122	0x3cb34f10	0.021888286
123	0x3c910c2a	0.017705996
124	0x3d268246	0.040651582
125	0x3d196c86	0.03745701
126	0x3cd8c4ca	0.026461024
127	0x3d4d1140	0.05006528

policy_network.2.weight f4 [256, 128]
0	0x3c8859c9	0.016644375
1	0xbe42c0c2	-0.19018844
2	0x3e6f4a78	0.23368251
3	0x3e7f9344	0.24958521
4	0x3e6fe50f	0.23427223
5	0x3e8b745b	0.2723721
6	0xbe71bbe7	-0.23606835
7	0x3ddbefc0	0.10739088
8	0xbe417e18	-0.18895757
9	0xbcb91b2b	-0.022595963
10	0xbe9aa7b3	-0.3020607
11	0x3e1bc1a5	0.15210588
12	0xbd3daad5	-0.046305496
13	0x3afe027e	0.0019379405
14	0xbd33a348	-0.04385689
15	0x3e9a673e	0.30156893
16	0x3e4a8ffd	0.1978149
17	0x3e288fb7	0.16461073
18	0x3dbaeba6	0.091269776
19	0xbe107fbc	-0.14111227
20	0xbdfdbd5c	-0.12389633
21	0xbe7aefb4	-0.24505502
22	0xbca0a1f4	-0.019608475
23	0x3e730d36	0.23735508
24	0xbcce8e40	-0.025214314
25	0xbe727cc9	-0.23680414
26	0x3dd28ee9	0.10281164
27	0xbe2b46b2	-0.16726187
28	0x3e3d48cf	0.18484806
29	0x3e25c13d	0.16186996
30	0x3dd33d3f	0.10314416
31	0x3e0fefdf	0.14056347
32	0x3cbf77d7	0.023372574
33	0xbdd2f528	-0.10300666
34	0x3ea2eb41	0.3182011
35	0xbe92f067	-0.28699037
36	0xbcefb81f	-0.0292626
37	0x3e40bb3d	0.18821426
38	0xbc3c147c	-0.011479493
39	0x3e53da49	0.20688738
40	0xbe97e996	-0.296704
41	0x3dabd0f6	0.083894655
42	0x3ce1a3c4	0.02754391
43	0xbe638015	-0.22216828
44	0xbe873964	-0.26410973
45	0xbde579ce	-0.11204873
46	0x3e129df1	0.14318062
47	0x3e32b007	0.17449962
48	0x3d1bbb61	0.038020495
49	0x3d9c9721	0.07646013
50	0xbc63d7d4	-0.013906438
51	0x3e17a8bd	0.14810462
52	0xbe031e0f	-0.12804435
53	0x3e54e48c	0.20790309
54	0xbe6e88bb	-0.23294346
55	0x3e372e23	0.17888694
56	0x3e8101e7	0.25196764
57	0xbe82985c	-0.25506866
58	0xbe6d53b2	-0.23176458
59	0x3dfb1485	0.12259773
60	0x3c0f8151	0.008758859
61	0x3e9dafb5	0.30798116
62	0x3ea8d88f	0.3297772
63	0xbe8158f2	-0.25263172
64	0x3df2ab19	0.118490405
65	0xbe4532a3	-0.19257598
66	0x3e247cdb	0.16063254
67	0xbe3a173d	-0.18172927
68	0xbdaf32ee	-0.08554636
69	0xbd942636	-0.07233851
70	0x3e91072a	0.28325778
71	0x3db2906c	0.087189525
72	0xbe8efae3	-0.27925786
73	0xbe0b72d2	-0.13618019
74	0x3e128c02	0.14311221
75	0xbdcea470	-0.10089958
76	0xbea91cf9	-0.33029917
77	0x3e71a9df	0.23599957
78	0xbe27b3cd	-0.16377182
79	0x3e551066	0.20807037
80	0xbccc7e65	-0.024962613
81	0x3e6e3c7d	0.23265262
82	0xbe035d65	-0.12828596
83	0x3e0617b9	0.13094987
84	0xbe8019d2	-0.250197
85	0x3db17707	0.08665281
86	0x3c118fe4	0.008884404
87	0xbe1322dd	-0.14368768
88	0xbe6c9a9e	-0.23105857
89	0x3da68d78	0.08132452
90	0x3e712c7d	0.23552127
91	0xbdcbc134	-0.0994896
92	0xbdc36f41	-0.095427044
93	0xbe16f9ce	-0.1474373
94	0x3e49d565	0.1971031
95	0xbda1a35e	-0.07892488
96	0x3e384370	0.17994475
97	0x3e40106b	0.18756263
98	0xbdd18892	-0.10231127
99	0x3d5d76c1	0.05406833
100	0xbea701dd	-0.3261861
101	0xbea69d34	-0.3254181
102	0xbe1a43c6	-0.15064916
103	0x3d996c7a	0.074913934
104	0xbe5e0561	-0.2168174
105	0xbe3f182a	-0.18661562
106	0xbe196991	-0.14981677
107	0xbe878d61	-0.2647505
108	0x3e500ba6	0.20316944
109	0x3e163da9	0.14671959
110	0xbdb63b9e	-0.0889809
111	0x3d5b9e16	0.05361756
112	0x3e73315e	0.23749301
113	0xbd9d6a93	-0.07686343
114	0x3e8d986e	0.27655357
115	0x3ded2be1	0.11580635
116	0xbe9040dc	-0.28174484
117	0x3e3345be	0.17507073
118	0x3d4ae4d7	0.049534645
119	0xbdcf7386	-0.10129456
120	0xbdaa04a8	-0.08301669
121	0x3db595fb	0.08866497
122	0xbd93a69e	-0.07209514
123	0x3e28d5bd	0.16487785
124	0x3e67e1e8	0.2264477
125	0x3b26106b	0.0025339376
126	0xbded3886	-0.115830466
127	0x3cc9d5a4	0.024638005
128	0x3daabc2a	0.08336671
129	0xbd091478	-0.033466786
130	0xbecb9554	-0.39762366
131	0x3d2ac165	0.04168834
132	0xbd495aae	-0.049158745
133	0xbdba5bef	-0.09099566
134	0x3dd9b10b	0.106294714
135	0xbd743e78	-0.059629887
136	0x3dcaed41	0.09908534
137	0xbd8f6b13	-0.07002845
138	0xbdb17da7	-0.086665444
139	0xbec1a0b8	-0.3781793
140	0x3dbad1eb	0.0912207
141	0xbc0a3909	-0.00843645
142	0xbcd8fbeb	-0.026487311
143	0x3cb29579	0.02179979
144	0xbe89eeae	-0.2693991
145	0xbebbd381	-0.36684802
146	0xbd5acf5b	-0.053420406
147	0xbe3ef2e1	-0.18647338
148	0x3dfbde5e	0.122982726
149	0x3d0faee9	0.035078917
150	0x3df1d805	0.118087806
151	0xbea87060	-0.32898235
152	0xbea1ff5f	-0.31640145
153	0x3b64ab4c	0.003489214
154	0x3d1072e0	0.035265803
155	0x3e1c27af	0.15249513
156	0xbd4dcfdd	-0.050247062
157	0xbe496edf	-0.196712
158	0xbe4cabc0	-0.19987392
159	0xbc568ff3	-0.013095844
160	0xbd23fae5	-0.040034194
161	0x3e253598	0.16133726
162	0x3cf047e1	0.02933115
163	0x3e22e452	0.1590741
164	0xbd325ba1	-0.043544415
165	0xbec6d60a	-0.38835174
166	0x3d848c83	0.06472113
167	0xbebb5f1f	-0.3659601
168	0x3ec3adab	0.38218436
169	0xbe5289d3	-0.20560388
170	0xbdcf1854	-0.10112062
171	0x3eadf930	0.33979177
172	0x3eaa0a75	0.33211103
173	0xbcf2bef7	-0.029632075
174	0x3e291387	0.16511355
175	0xbdc9ba9c	-0.09850046
176	0xbdea1221	-0.11429239
177	0xbd9e54fd	-0.07731054
178	0x3d542e83	0.05180217
179	0x3acfc9d6	0.0015852998
180	0xbe206893	-0.15664892
181	0xbed34e36	-0.41270608
182	0x3da3801d	0.0798342
183	0x3e8f46ab	0.27983603
184	0xbe019bb2	-0.1265705
185	0x3de6eea5	0.112759866
186	0x3ea5e792	0.32403237
187	0xbdefb9d7	-0.11705368
188	0xbd86f3b1	-0.06589449
189	0xbc6fe7cf	-0.01464267
190	0xbd58723c	-0.052843317
191	0xbe804348	-0.25051332
192	0xbead3334	-0.33828127
193	0x3d964d0e	0.07338916
194	0xbe3f3667	-0.18673097
195	0xbd1b02be	-0.037844412
196	0x3ce563a6	0.028001618
197	0x3de7506b	0.112946354
198	0x3d6ded87	0.05808785
199	0xbdb23b34	-0.08702698
200	0x3d3ddd04	0.046353355
201	0x3c9a6474	0.018846728
202	0xbcb3f868	-0.021969035
203	0xbbcfdbdb	-0.0063433475
204	0x3daaa971	0.083331
205	0xbc921f76	-0.017837267
206	0xbddf0eeb	-0.10891517
207	0xbd6446b8	-0.055731505
208	0x3d295d01	0.04134846
209	0xbed9f5da	-0.42570382
210	0x3da81ece	0.082090005
211	0xbe303cf2	-0.17210749
212	0xbd8ce122	-0.06878878
213	0xbce86a2e	-0.028370943
214	0x3cea7e4d	0.028624678
215	0xbd201c20	-0.039089322
216	0x3eb5a0c8	0.3547423
217	0xbe316ca5	-0.17326601
218	0xbe96597e	-0.29365152
219	0x3d76569f	0.060141202
220	0x3d82b96c	0.06383023
221	0x3e8e737e	0.2782249
222	0xbd2afe70	-0.041746557
223	0x3d13cec5	0.036085863
224	0x3e329295	0.17438729
225	0xbe5eb734	-0.21749574
226	0x3dead2cb	0.11465987
227	0x3cef1eb7	0.02918945
228	0x3ddf1319	0.108923145
229	0x3d801032	0.06253089
230	0x3d3002d9	0.042971466
231	0xbd0cd4b6	-0.034382544
232	0x3e345d83	0.17613797
233	0x3cb521d7	0.022110863
234	0xbd031b32	-0.032008357
235	0x3e214499	0.15748824
236	0xbe822715	-0.25420442
237	0x3d915c7b	0.070977174
238	0x3df963ce	0.12177239
239	0xbeb74286	-0.3579294
240	0x3d1309df	0.035898086
241	0x3dc17848	0.0944677
242	0xbdbe8a09	-0.09303672
243	0x3eb9e2b2	0.36305767
244	0x3e95b5e2	0.29240328
245	0xbd92783d	-0.0715184
246	0xbcc92724	-0.024554797
247	0x3d99f480	0.07517338
248	0x3d87472d	0.066053726
249	0xbd6a9816	-0.057273947
250	0x3cb307e2	0.021854345
251	0xbdc1423d	-0.09436462
252	0x3c9a3ac8	0.018826857
253	0xbd9fb20d	-0.07797632
254	0x3e20050d	0.15626927
255	0xbe2f3b4a	-0.1711246

policy_network.2.bias f4 [256]
0	0xbd9ce9ff	-0.07661819
1	0x3da8f4e7	0.082498364
2	0x3d4eacc0	0.050457716
3	0x3d2ddcb9	0.042446826
4	0x3d6e3cbb	0.058163386
5	0xbd1c0cce	-0.03809815
6	0x3d5b8ebd	0.053602923
7	0xbd96aaf9	-0.07356829
8	0xbb9f3824	-0.0048589874
9	0x3da72757	0.081618
10	0x3bdf90fb	0.006822703
11	0x3d923c70	0.07140434
12	0x3ce9ca75	0.028538922
13	0x3d91cac6	0.07118754
14	0xbd95d48d	-0.073159315
15	0x3d83f296	0.06442754
16	0xbcba506f	-0.022743432
17	0xbc484634	-0.012223769
18	0xbd815d18	-0.06316584
19	0x3c162d32	0.009166049
20	0x3caddf02	0.021224502
21	0xbd2d49ff	-0.042306896
22	0xbd40c1b7	-0.04705974
23	0xbc93852d	-0.01800784
24	0x3c68a8cc	0.014200401
25	0xbc8d24d5	-0.017229477
26	0x3d8b1421	0.06790949
27	0xbc3d10cc	-0.011539649
28	0x3b806cdf	0.0039192284
29	0x3daa5f1c	0.08318922
30	0x3da14bc7	0.078757815
31	0xbbb228c9	-0.005436991
32	0x3c2d8edf	0.010593145
33	0x3d668d1e	0.056286924
34	0xbd6d8d52	-0.0579961
35	0xbd6c8987	-0.057748344
36	0xbd97530a	-0.07388885
37	0xbdac6000	-0.08416748
38	0x3cff9565	0.031199167
39	0xbd4a6065	-0.049408335
40	0xbda35186	-0.07974534
41	0xbb8ebee1	-0.0043562506
42	0x3d9d4c5a	0.076805785
43	0x3d10919b	0.03529511
44	0x3d4b6a60	0.049661994
45	0xbd40efd0	-0.047103703
46	0x3d026d0e	0.031842284
47	0x3bddca20	0.00676848
48	0x3ced746a	0.028986175
49	0xbbcf6ebf	-0.0063303406
50	0xbcbe81a5	-0.023255179
51	0xbd710f6d	-0.0588526
52	0xbd9a4d07	-0.07534223
53	0x3d4055b2	0.046956725
54	0x3d99eea3	0.075162195
55	0xbd837f2f	-0.06420743
56	0xbc578cdf	-0.013156145
57	0xbcce7f8d	-0.025207305
58	0x3cc2fc8d	0.023802066
59	0xbd8d5da8	-0.06902629
60	0x3d936c0d	0.071983434
61	0x3c67d725	0.014150416
62	0xbd7576ef	-0.059927877
63	0x3d9f7be9	0.07787306
64	0xbd01bbaa	-0.03167311
65	0xbd500b39	-0.050791953
66	0x3bd03e80	0.006355107
67	0xbd65952c	-0.056050465
68	0x3c6b8a46	0.014376229
69	0x3d2e511f	0.04255783
70	0xbcf9443a	-0.03042804
71	0xbd3475ca	-0.044057645
72	0x3d854465	0.06507186
73	0xbccc703b	-0.02495586
74	0xbc921b20	-0.0178352
75	0x3c50709a	0.012722159
76	0x3dae7338	0.0851807
77	0x3d939b91	0.07207406
78	0xbd11457a	-0.03546665
79	0xbdb22102	-0.08697702
80	0x3da2105e	0.07913278
81	0xbd0c2658	-0.034216255
82	0xbd021527	-0.031758454
83	0x3c782cb5	0.015147378
84	0x3c891c4a	0.016737122
85	0x3c0eba19	0.008711361
86	0x3ce207e8	0.02759166
87	0xbbda9d93	-0.0066716163
88	0xbd59cc4f	-0.05317336
89	0x3d3c0172	0.045899816
90	0xbd8f21cb	-0.06988867
91	0x3d71d2fe	0.05903911
92	0x3cbd0c29	0.023077087
93	0x3c334879	0.010942572
94	0x3d22a2ca	0.03970603
95	0xbd7fc8c3	-0.06244732
96	0xbc8837b5	-0.016628126
97	0x3ce904f3	0.028444743
98	0x3d06bb25	0.03289332
99	0x3d38d383	0.04512359
100	0x3d45dfe5	0.048309226
101	0xbda62daa	-0.081141785
102	0xbd8d426b	-0.06897434
103	0xbd3086c2	-0.043097265
104	0xbd765778	-0.06014201
105	0xbd0e41fb	-0.034730893
106	0xbcabf96a	-0.020992953
107	0x3cc66652	0.024218712
108	0x3d2f7b29	0.042842064
109	0xbd5fa777	-0.054603066
110	0x3d0326ab	0.0320193
111	0xbd99ab1d	-0.075033404
112	0xbd6a0c8f	-0.057140883
113	0xbd5cca1d	-0.053903688
114	0xbd90633b	-0.07050177
115	0xbcb386cb	-0.02191486
116	0xbce3d087	-0.027809395
117	0xbdb64bfe	-0.08901213
118	0xbd6a4dc8	-0.057203084
119	0xbd09c2a6	-0.033632897
120	0xbc0f357b	-0.008740778
121	0xbd98a7b8	-0.07453865
122	0xbd093db4	-0.03350611
123	0x3d9d1e5c	0.07671806
124	0x3c4c80cc	0.012481879
125	0x3cfc6ced	0.030813659
126	0xbd2393de	-0.03993594
127	0xbd0d7246	-0.034532808
128	0x3b8084aa	0.003922065
129	0x3cc7129d	0.024300868
130	0xbd982347	-0.074286036
131	0x3d869d00	0.06572914
132	0xbd96a9d4	-0.07356611
133	0x3ccaf1c8	0.024773493
134	0xbd0288d1	-0.03186876
135	0x3d988739	0.07447667
136	0x3da46605	0.08027271
137	0xbc882982	-0.016621355
138	0xbd96316a	-0.07333644
139	0x3b8355c6	0.0040080277
140	0xbd974ded	-0.0738791
141	0x3ccd3cab	0.025053343
142	0x3c5265a6	0.012841618
143	0xbd6415a0	-0.055684686
144	0x3d8d25ce	0.06891976
145	0xbd39f1d8	-0.045396656
146	0xba930b4f	-0.001121858
147	0x3d4b8867	0.04969063
148	0x3d855950	0.06511176
149	0x3c33354e	0.010938002
150	0x3d9b5b04	0.07585719
151	0x3c2e0cf7	0.010623208
152	0x3d9cafb5	0.07650701
153	0x3d1ae927	0.037820008
154	0xbb8e6bd7	-0.0043463516
155	0x3d83e434	0.06440011
156	0xbddf5ca9	-0.109063454
157	0x3d966e31	0.07345236
158	0x3d9c0810	0.07618725
159	0x3d8d940d	0.06913004
160	0xbcf68afc	-0.03009557
161	0x3dada95d	0.08479569
162	0xbd98bb10	-0.07457554
163	0x3d81895a	0.06325026
164	0x3d619399	0.0550724
165	0x3c0ba4dc	0.008523192
166	0x3b9a2e1e	0.0047052046
167	0xbd82bc42	-0.063835636
168	0x3c4ab6cd	0.012372685
169	0x3d96cd14	0.07363334
170	0x3d45bad3	0.048273873
171	0x3dae89c9	0.08522374
172	0x3c17ffca	0.009277293
173	0xbd698431	-0.057010833
174	0xbc1a0ed9	-0.009402954
175	0x3d2d9199	0.04237518
176	0x3d4e290d	0.050332118
177	0x3ca6a7c9	0.020343678
178	0x3cd956a0	0.026530564
179	0xbd4d5832	-0.050132938
180	0xbc7878c9	-0.015165516
181	0xbd7a123d	-0.06105255
182	0x3d558b5a	0.05213485
183	0x3d9b1e34	0.0757412
184	0x3d4bbca2	0.04974044
185	0xbd202251	-0.039095227
186	0xbd98ae37	-0.07455104
187	0xbc33df42	-0.010978522
188	0x3dd1f611	0.102520116
189	0xbc4cefde	-0.012508361
190	0x3d275c77	0.040859666
191	0xbce07ac6	-0.027402293
192	0xbd8fbaf3	-0.070180796
193	0xbdb2c03e	-0.087280735
194	0xbd5ede8c	-0.054411456
195	0x3d1c9847	0.03823116
196	0xbd186054	-0.03720124
197	0xbd41ffd9	-0.047363136
198	0xbd6c5b22	-0.0577041
199	0xbd9d30b6	-0.076753065
200	0xbce1f996	-0.027584832
201	0xbd61fac9	-0.055170808
202	0x3d530d74	0.0515265
203	0xbdbb55df	-0.09147238
204	0x3ca55849	0.0201837
205	0x3d395bf3	0.045253705
206	0x3da021f8	0.07818979
207	0x3c85bf3b	0.016326537
208	0xbd87a0d3	-0.06622472
209	0x3d219f00	0.039458275
210	0x3d52af90	0.05143696
211	0x3abd6b37	0.0014451508
212	0x3a67fc36	0.0008849533
213	0x3daaa70e	0.083326444
214	0x3d8013be	0.062537655
215	0xbd304698	-0.043036073
216	0xbd849b57	-0.06474941
217	0xbcbe53c1	-0.023233296
218	0xbd7567f2	-0.059913583
219	0xbcf78f34	-0.030219652
220	0xbda572a9	-0.0807851
221	0xbab9af9c	-0.0014166716
222	0xbd434231	-0.047670547
223	0xbc537133	-0.012905407
224	0xbd0f8618	-0.03503999
225	0x3db319a3	0.08745124
226	0xbd16f0c5	-0.03685071
227	0x3c5e08f4	0.013551939
228	0xbcd73c41	-0.026273848
229	0xbd98d9ce	-0.07463418
230	0x3d976b6c	0.07393536
231	0xbd4d8f32	-0.05018539
232	0x3da9c16f	0.08288848
233	0xbcafa036	-0.0214387
234	0xbd8f2fe5	-0.06991557
235	0xbd85229a	-0.0650074
236	0xbcdac69a	-0.026706029
237	0x3d5213ad	0.051288296
238	0x3d8631f1	0.06552494
239	0x3d85efcc	0.06539878
240	0xbd0bbd4a	-0.034116067
241	0x3d2b13ad	0.04176681
242	0x3c581e1e	0.013190774
243	0x3c89f23f	0.016839145
244	0x3c3ad104	0.011402372
245	0xbc69ec98	-0.0142776
246	0x3d769fa0	0.060210824
247	0x3daee17e	0.08539103
248	0xbd93dd21	-0.07219911
249	0x3d020a12	0.031747885
250	0x3a496424	0.00076824636
251	0x3da5fc62	0.08104779
252	0xbd9fb740	-0.07798624
253	0x3d43732d	0.047717262
254	0x3c98bdfc	0.01864528
255	0xbd731d87	-0.05935433

policy_network.3.weight f4 [256]
0	0x3d969dc6	0.07354312
1	0x3d013663	0.031546008
2	0x3cdc6645	0.026904235
3	0x3ef88dd2	0.485457
4	0x3ecc6c68	0.39926457
5	0x3daee758	0.08540219
6	0x3f1fdcf4	0.6244652
7	0x3eb5ff58	0.35546374
8	0x3f2224b2	0.6333724
9	0x3c8a7eb3	0.016906118
10	0x3e9452ad	0.28969327
11	0x3f20f4e0	0.6287365
12	0x3f02805e	0.5097712
13	0x3e8e6a34	0.27815402
14	0x3e226815	0.15860017
15	0x3d851401	0.06497956
16	0x3f02193d	0.5081976
17	0x3db7134f	0.0893923
18	0x3e4c005d	0.19922014
19	0xbb77eb8a	-0.0037829601
20	0x3e7a6367	0.24451981
21	0x3f316b8d	0.69304734
22	0x3d50491b	0.05085097
23	0x3eb2d0b5	0.34924856
24	0x3cd5471f	0.02603489
25	0x3e9e608e	0.3093304
26	0x3f11daca	0.5697447
27	0x3f049fdc	0.51806426
28	0x3e9dc744	0.3081609
29	0x3eba2663	0.36357412
30	0x3e1d6a98	0.15372694
31	0x3f036c9d	0.51337606
32	0x3e0a414e	0.13501474
33	0x3d81f060	0.06344676
34	0x3eee83b9	0.4658487
35	0x3f0e1db5	0.5551408
36	0x3eb77054	0.35827887
37	0x3f1cd3bf	0.612606
38	0xbc4b2428	-0.012398757
39	0x3ee237e0	0.44183254
40	0x3f798f46	0.9748424
41	0x3eff8536	0.4990632
42	0x3f0f3b69	0.5595003
43	0x3ea4b978	0.3217275
44	0x3e21e8c2	0.15811446
45	0x3ec0c166	0.3764755
46	0x3f174cc1	0.5910149
47	0x3fa9998a	1.3249981
48	0x3d8cf7b9	0.06883187
49	0x3eab6a36	0.3347947
50	0x3d1ae9cc	0.037820622
51	0x3f15892f	0.5841245
52	0x3e127794	0.14303428
53	0x3e852123	0.26001844
54	0x3ecc92bf	0.39955708
55	0xbc257ed2	-0.010101037
56	0x3f412761	0.7545071
57	0x3f3c904a	0.7365767
58	0x3eafed8f	0.3436093
59	0x3cce9969	0.025219636
60	0x3da43309	0.08017547
61	0x3e8e00e1	0.27735046
62	0x3d63cc30	0.05561465
63	0x3f02ecf5	0.5114282
64	0x3f832dd0	1.0248356
65	0x3dbcaf8e	0.09213172
66	0x3f358327	0.7090325
67	0x3f1067f6	0.5640863
68	0x3e858394	0.2607695
69	0x3ec5c78a	0.386288
70	0x3ee900ab	0.45508322
71	0x3c2b88c4	0.010469619
72	0x3f0cbff9	0.5498043
73	0x3e805f88	0.25072885
74	0x3f0fbd04	0.5614779
75	0x3dbc1ebc	0.091855496
76	0x3ef60e94	0.48057997
77	0x3ed6025d	0.41798678
78	0x3f54b9e4	0.83096147
79	0x3e1b34fd	0.15156932
80	0x3eb546bd	0.35405532
81	0x3e7bc81d	0.24588056
82	0x3afe2d3d	0.0019392144
83	0x3f304521	0.6885548
84	0x3f3fb5e8	0.7488694
85	0x3f0c96a5	0.54917365
86	0x3ee47e34	0.44627535
87	0x3f3d71e0	0.74001884
88	0x3d140fdf	0.03614795
89	0x3f70afef	0.94018453
90	0x3f1994b7	0.59992546
91	0x3ed60e07	0.41807577
92	0x3f16a3a1	0.5884343
93	0x3da10aee	0.07863413
94	0x3dc07d48	0.093988955
95	0x3d2e4d6d	0.042554308
96	0x3d92776a	0.07151683
97	0x3d57db18	0.05269918
98	0x3dda86e3	0.10670259
99	0x3d4a3653	0.049368214
100	0x3e9a3317	0.30117103
101	0xbd101e95	-0.035185415
102	0x3eaa1121	0.33216193
103	0x3e5ebd45	0.21751888
104	0x3ea15d05	0.3151628
105	0x3d853db4	0.065059096
106	0x3e4ba649	0.19887652
107	0x3ca3dbeb	0.020002326
108	0x3f3f5fef	0.7475576
109	0x3f1e9f71	0.6196204
110	0x3f1cd119	0.6125656
111	0x3e54c0e1	0.20776702
112	0x3d8d38c9	0.068955965
113	0xbcf84776	-0.030307513
114	0x3df77a82	0.120839134
115	0x3f800437	1.0001286
116	0x3ef3acdf	0.47592828
117	0x3ca2f747	0.019893302
118	0x3e3bd9c1	0.18344785
119	0x3e5bd348	0.21467316
120	0x3eafd04f	0.34338614
121	0x3f168d6b	0.58809537
122	0x3db5e35d	0.08881257
123	0x3f0f57c4	0.55993295
124	0x3d0e3eca	0.03472785
125	0x3e08e343	0.13367943
126	0x3d849949	0.06474549
127	0x3f704110	0.9384928
128	0x3f98c071	1.1933728
129	0x3d791574	0.060811475
130	0x3c9f5a81	0.019452335
131	0x3cb9f224	0.02269847
132	0x3cd1682c	0.025562368
133	0xbd1d9681	-0.03847361
134	0x3e4705b2	0.19435766
135	0x3e7931cb	0.24335401
136	0x3d000d47	0.031262662
137	0x3ec0cc1d	0.37655726
138	0x3f9b89ba	1.2151406
139	0x3df851b4	0.12124959
140	0x3c95a39a	0.018266488
141	0x3eba6f5e	0.3641309
142	0x3ea68f77	0.3253133
143	0x3ce97718	0.028499171
144	0x3ee5b549	0.44864872
145	0x3f353918	0.70790243
146	0x3e21e931	0.15811612
147	0x3ed8a609	0.42314175
148	0x3f210cbd	0.6291006
149	0x3e979417	0.2960517
150	0x3ea385a3	0.31937894
151	0x3d06eda5	0.03294148
152	0x3d353e5b	0.04424892
153	0x3e18894b	0.14896123
154	0x3e9bb192	0.30408913
155	0x3f8996df	1.0749167
156	0x3f52fef8	0.824203
157	0x3eff19d7	0.49824402
158	0x3f308427	0.6895165
159	0x3f0cc13b	0.54982346
160	0x3e90a63a	0.2825182
161	0x3ddcf937	0.107897215
162	0x3eafaf94	0.34313643
163	0x3e96d6dd	0.29460803
164	0x3f383206	0.7195133
165	0x3c9d8a33	0.019230938
166	0x3de5d364	0.1122196
167	0x3f23e3f3	0.640197
168	0xbe47291c	-0.19449276
169	0x3ec5c172	0.3862415
170	0x3f18ea14	0.59732175
171	0x3edb8771	0.4287677
172	0x3eb1c7af	0.3472266
173	0x3ebf998b	0.3742183
174	0x3f88815f	1.0664481
175	0x3f0ab069	0.5417543
176	0x3f34f0a9	0.7067972
177	0x3e37d759	0.17953242
178	0x3f409e72	0.7524177
179	0x3ec9d706	0.39421862
180	0x3f5961e9	0.84915024
181	0x3e498fbf	0.19683741
182	0x3ebc3f1b	0.36766896
183	0x3f9e95f3	1.2389511
184	0x3d9d0a75	0.0766801
185	0x3ebef443	0.37295732
186	0x3e31f3e6	0.17378196
187	0x3f227c09	0.6347051
188	0x3effa15b	0.49927792
189	0x3ef150ca	0.4713195
190	0x3c8b2220	0.016984046
191	0x3ceaaf7c	0.02864813
192	0x3f2e9c5f	0.68207353
193	0x3e74075e	0.23830935
194	0x3f2a2526	0.66462934
195	0x3dbabbb6	0.09117834
196	0x3ee85314	0.45375884
197	0x3ef2b733	0.47405395
198	0x3f21fa5d	0.6327265
199	0x3c787856	0.015165409
200	0x3ec097e8	0.37615895
201	0x3d09f184	0.033677593
202	0x3f27a0aa	0.6547953
203	0x3f0999b5	0.53750163
204	0x3ddb75b6	0.10715811
205	0x3f8a1e66	1.0790527
206	0x3ce1a9b3	0.02754674
207	0x3e2012e9	0.15632214
208	0x3edb7526	0.42862815
209	0x3ee3dc55	0.44504037
210	0x3c10bc8b	0.008834015
211	0x3e8ea1c2	0.27857786
212	0x3eb6b8f1	0.35687974
213	0x3ee08a4f	0.4385552
214	0x3ed16d7f	0.4090385
215	0x3ec2a3f1	0.38015702
216	0x3f00b950	0.50282764
217	0x3f306be9	0.6891466
218	0x3f263700	0.64927673
219	0x3ddce451	0.107857354
220	0x3e0ea930	0.13931727
221	0xbd740cd8	-0.05958256
222	0x3efd6c70	0.49496794
223	0x3e985459	0.29751852
224	0x3d6ebac9	0.0582836
225	0x3f1f7172	0.6228248
226	0x3dc2cbc3	0.09511521
227	0x3dec17d6	0.11527984
228	0xbc8dfe96	-0.01733331
229	0x3f54254b	0.82869405
230	0x3e8b5239	0.27211168
231	0x3e083977	0.13303171
232	0x3ecb5658	0.39714313
233	0x3e2c314f	0.16815685
234	0x3f0ccdf6	0.5500177
235	0x3e55fb5d	0.20896669
236	0x3f250e9c	0.6447542
237	0x3e96b3ef	0.29434153
238	0x3e8afd6c	0.2714647
239	0x3f18b558	0.5965171
240	0x3e89bd08	0.26902032
241	0x3f0e03f7	0.554748
242	0x3ec08ab3	0.3760582
243	0x3f10d346	0.5657238
244	0x3f4563f9	0.7710567
245	0x3ee48ff2	0.44641072
246	0x3d545c50	0.05184585
247	0x3f033b57	0.5126242
248	0x3ef6d8cf	0.48212287
249	0x3ed4e424	0.41580307
250	0x3e53b479	0.20674314
251	0x3f27e142	0.6557809
252	0x3f0495d8	0.51791143
253	0x3c6ac326	0.014328754
254	0x3ec27d94	0.37986434
255	0x3e10305c	0.14080948

policy_network.3.bias f4 [256]
0	0xbe69b67d	-0.2282352
1	0xbdbe6e34	-0.09298363
2	0xbec717a4	-0.38885224
3	0xbe643ffb	-0.22290032
4	0xbe29a925	-0.1656843
5	0x3dd5e4a6	0.10444002
6	0x3e393b66	0.18089065
7	0x3dcc994e	0.09990178
8	0xbd20ccbd	-0.039257754
9	0x3dbb6729	0.091505356
10	0x3d9babfa	0.07601161
11	0x3d29b9f1	0.041437093
12	0xbdde6b74	-0.10860339
13	0xbd976b97	-0.07393568
14	0x3e6345ec	0.22194642
15	0x3dab40c7	0.08361965
16	0x3e993e5e	0.29930395
17	0xbe19dc2e	-0.15025398
18	0x3dda1bcb	0.10649832
19	0x3c36508d	0.011127603
20	0x3eb5c89f	0.35504624
21	0xbcb45989	-0.02201535
22	0x3e7133f4	0.23554975
23	0xbebf77a7	-0.37395975
24	0xbe70adab	-0.23503749
25	0xbe9cd73d	-0.30632964
26	0x3e666e5e	0.22503039
27	0xbde5c0dd	-0.112184264
28	0xbe043957	-0.12912498
29	0x3e28a597	0.16469418
30	0x3ddc04db	0.107431136
31	0xbe401df5	-0.18761428
32	0xbe4e711a	-0.20160332
33	0xbcfa55db	-0.030558517
34	0xbe6f0cbc	-0.23344702
35	0xbe2892a8	-0.16462195
36	0x3d055bf5	0.0325584
37	0x3d5b2be0	0.05350864
38	0xbe11b5db	-0.14229529
39	0x3e1fc2ec	0.156017
40	0x3ee7c2fd	0.45265952
41	0xbe367966	-0.17819747
42	0x3e8de089	0.2771037
43	0xbe333027	-0.17498837
44	0xbe85b28c	-0.26112783
45	0x3e956581	0.29179004
46	0xbe53ad5a	-0.20671597
47	0x3eecab52	0.46224457
48	0x3e2a8503	0.16652302
49	0xbe828986	-0.25495547
50	0xbe262462	-0.16224816
51	0xbe52281c	-0.20523113
52	0x3dc80198	0.09765929
53	0x3c3200fd	0.010864493
54	0xbe07e1f8	-0.13269794
55	0xbe3ec73a	-0.18630686
56	0x3f27e2ea	0.6558062
57	0x3e1be233	0.15223007
58	0x3f1784b5	0.5918687
59	0x3b136ef4	0.0022496553
60	0xbe03fedd	-0.12890191
61	0xbeabe43a	-0.3357256
62	0xbe0ebca4	-0.13939148
63	0x3e53863e	0.20656678
64	0x3f2ffd1a	0.6874558
65	0x3daf9988	0.08574206
66	0x3d905aa0	0.07048535
67	0xbe1c2c47	-0.15251265
68	0x3e189bb2	0.14903143
69	0xbe37132a	-0.17878404
70	0xbf17513f	-0.59108347
71	0x3d5cb905	0.053887386
72	0xbd42af84	-0.047530666
73	0x3e47a061	0.19494773
74	0xbe8abc1e	-0.27096647
75	0x3d3ea6c2	0.04654575
76	0xbe42881d	-0.18997236
77	0xbf08d5ea	-0.53451407
78	0xbc849b3b	-0.0161873
79	0x3e2b55d8	0.16731966
80	0xbdd7cd16	-0.10537164
81	0x3e1b0e88	0.15142262
82	0xbe096259	-0.13416423
83	0x3bee2733	0.0072678565
84	0x3f033e52	0.5126697
85	0x3d5a0a5d	0.05323254
86	0x3e90c8e2	0.2827826
87	0xbd4b913b	-0.04969905
88	0xbe8457bd	-0.2584819
89	0xbefde966	-0.4959213
90	0x3e2ea2e9	0.17054333
91	0x3df5e07c	0.120057076
92	0xbd8cc151	-0.0687281
93	0x3bbd2ec4	0.005773397
94	0xbe421e88	-0.18956959
95	0xbe0f1054	-0.13971072
96	0x3dcb13e3	0.099159025
97	0x3d5cc1ff	0.053895947
98	0xbe26f81d	-0.16305585
99	0xbd5efd00	-0.0544405
100	0x3e8347a1	0.25640586
101	0xbd7baf5f	-0.061446544
102	0x3f0a9fc1	0.54150015
103	0x3dbb68fb	0.09150883
104	0x3d412c9e	0.04716169
105	0xbdeb8374	-0.11499682
106	0xbd8e1027	-0.069366746
107	0x3d4be6e8	0.049780756
108	0x3eb163b9	0.34646395
109	0xbe92ace3	-0.28647527
110	0x3e2e6ecd	0.17034455
111	0xbe3a1866	-0.1817337
112	0xbd2ddb90	-0.04244572
113	0xbe75b235	-0.23993762
114	0x3ce024ca	0.027361292
115	0xbe967c92	-0.29391915
116	0xbe950db5	-0.2911202
117	0xbe642fb6	-0.22283825
118	0x3d316dec	0.04331772
119	0x3e5ff08b	0.21869104
120	0xbdd4c376	-0.10388844
121	0x3e5e6bd5	0.21720822
122	0x3df0f6ba	0.11765809
123	0x3e6d6b78	0.23185527
124	0xbd8f988d	-0.070115186
125	0xbe590763	-0.21194224
126	0x3d867dbf	0.06566953
127	0xbec0473e	-0.37554353
128	0xbf162538	-0.5865054
129	0xbd8b4a49	-0.06801278
130	0x3d4d96e0	0.050192714
131	0x3e10ba99	0.14133681
132	0xbe113773	-0.14181308
133	0x3dd34546	0.10315947
134	0x3e0bbb99	0.13645782
135	0x3df619be	0.12016629
136	0x3dc04d2b	0.093897186
137	0xbea349fc	-0.31892383
138	0x3f232a06	0.63736
139	0x3ea5c4b4	0.32376635
140	0xbe1864a2	-0.14882138
141	0xbf0d65e6	-0.5523361
142	0x3e17e179	0.14832105
143	0x3dd12414	0.102119595
144	0xbd487a7b	-0.04894493
145	0x3cb42f6b	0.021995267
146	0xbdddd2d2	-0.108312264
147	0x3ddba335	0.10724489
148	0xbec83e23	-0.39109907
149	0xbd8edf1e	-0.0697615
150	0x3f04a034	0.5180695
151	0x3de5817c	0.11206338
152	0xbde61430	-0.11234319
153	0x3e799489	0.24373068
154	0x3dc7b284	0.09750846
155	0xbef20018	-0.47265697
156	0x3eb1abcc	0.34701383
157	0x3e6c1015	0.2305301
158	0xbe740290	-0.23829103
159	0xbe088e8d	-0.13335629
160	0x3d6cf20a	0.057848014
161	0xbd886913	-0.06660666
162	0xbe743353	-0.23847704
163	0x3f0349d2	0.51284516
164	0xbea3efab	-0.3201879
165	0xbbb558f2	-0.0055342847
166	0xbd8d9ca6	-0.06914644
167	0xbde67ea5	-0.11254624
168	0xbd97e8c8	-0.074174464
169	0x3e6aec27	0.22941647
170	0x3e86eccd	0.2635254
171	0xbe304ee5	-0.17217596
172	0x3dc33986	0.09532456
173	0x3e026cbe	0.12736794
174	0x3ef2e07b	0.4743689
175	0x3e2268a4	0.1586023
176	0xbe8ccc1e	-0.2749948
177	0xbd68b792	-0.05681569
178	0x3e9ecdef	0.3101649
179	0x3e77a20d	0.24182911
180	0xbddfb2be	-0.10922764
181	0x3ef1c6bb	0.47221932
182	0xbe9db102	-0.3079911
183	0xbf006461	-0.50153166
184	0x3ca7c850	0.020481259
185	0x3d81f2cd	0.06345139
186	0xbde31507	-0.11087995
187	0xbe864036	-0.26220864
188	0xbeaaa50b	-0.33329043
189	0xbe80d654	-0.2516352
190	0x3e35fed7	0.17772995
191	0x3de5a74f	0.11213552
192	0xbea6cf22	-0.32579905
193	0xbed45d63	-0.41477498
194	0xbf1e3efa	-0.61814845
195	0xbde774fa	-0.113016084
196	0x3e1dc16a	0.15405813
197	0x3bd8f746	0.006621274
198	0xbf0eb09f	-0.5573825
199	0x3e18cb0c	0.14921206
200	0x3de4ad8a	0.111659124
201	0x3e0c761d	0.13716932
202	0x3e896408	0.2683413
203	0x3bce963c	0.0063045304
204	0xbd0d3833	-0.034477424
205	0x3ee18244	0.44044697
206	0xbde58b10	-0.11208165
207	0xbdcf8250	-0.10132277
208	0xbf2addf2	-0.6674491
209	0xbdaa6142	-0.08319332
210	0x3d13d0b7	0.036087718
211	0xbe89c2bf	-0.26906392
212	0x3e239dcb	0.15978162
213	0x3e7d7eef	0.24755453
214	0x3e68940b	0.22712724
215	0x3edab244	0.4271413
216	0xbeb5c5ee	-0.3550257
217	0x3e91be4a	0.28465492
218	0x3e7d6c1e	0.24748275
219	0xbca252c0	-0.019814849
220	0x3dee8cf7	0.11647981
221	0x3d436c31	0.0477106
222	0xbd05512c	-0.032548115
223	0x3e716620	0.23574114
224	0x3e5a8087	0.21338092
225	0xbc5b7b89	-0.013396152
226	0x3ceb9b13	0.028760469
227	0x3dc4e933	0.09614792
228	0xbe94fde3	-0.2909995
229	0xbed088fd	-0.40729514
230	0xbd7b0a54	-0.061289147
231	0x3de8d0ee	0.11367975
232	0x3f113c34	0.5673249
233	0xbde0c674	-0.10975352
234	0x3dbd0c6e	0.092308864
235	0xbe133c85	-0.14378555
236	0x3eb38c0f	0.35067794
237	0x3ef6499f	0.48103043
238	0x3e38c859	0.18045177
239	0xbe54bb80	-0.2077465
240	0xbd8a4d54	-0.067530304
241	0xbd983800	-0.07432556
242	0xbe06b5aa	-0.13155237
243	0x3f3d642a	0.73980963
244	0xbe475064	-0.1946426
245	0xbdbe8b7f	-0.093039505
246	0x3d922de2	0.07137658
247	0xbe5b2201	-0.2139969
248	0xbd868bf7	-0.06569665
249	0x3cb10482	0.021608595
250	0xbe1a4074	-0.1506365
251	0x3e8a01a5	0.2695438
252	0xbf139bf8	-0.57659864
253	0xbdd54be8	-0.104148686
254	0xbd39d446	-0.045368455
255	0x3dcfa9d5	0.10139815
