Results/BTC-USD/DeepRL; DATA_KIND(AutoPatternExtraction); BEGIN_DATE(None); END_DATE(None); SPLIT_POINT(2018-01-01); StateMode(5); WindowSize(10); BATCH_SIZE10; GAMMA0.7; REPLAY_MEMORY_SIZE20; TARGET_UPDATE5; N_STEP10/model.pkl (torch, 167093 bytes, 14 tensors)

policy_network.0.weight f4 [128, 40]
00000000: cd9a bf3d e8d1 c5bd 346b 29be 5349 fabd
00000010: dc29 653b fb6f b33d 62e4 6a3d c44a b03d
00000020: 26fb 3abe 0e68 7ebd 18a7 1cbe f4b3 9e3c
00000030: cbd8 763c b5c7 35bd 40be 00be 8338 dbbc
00000040: fb66 b33d 0b2a cf3d fc6b 673d f30b d7bc
00000050: e098 023e 7372 db3b 8f08 c93d 37cf d33d
00000060: 43f0 95bd e96e d0bd 416b 173e c27b f03d
00000070: f706 19be c020 bf3d e4d6 3c3d 52a2 fc3c
00000080: 655b fcbd a1b4 00bc 72fd c9bc 85f5 bebd
00000090: dc1f e23d a9a5 91be ddc6 52bd 77a2 c4be
000000a0: c549 fb3c ceff 063c ee84 2dbe 07c3 43be
000000b0: db0e 5fbd c95f ccbd 0238 913d 8766 26be
000000c0: 56d5 07be 25fd a43b f09e 17bd ebaf 9d3d
000000d0: 0b73 a0bd ed89 80bd 7ae2 c9bd 3173 ac3d
000000e0: 2915 92bd 12be bb3d 8ab7 4a3c d30f 083e
000000f0: aedc cd3d 8f48 01be 2d55 c93c 0fb3 bbbc
00000100: 96bc 1f3e 993b 203e 8493 08be 03d7 a23d
00000110: 4225 8238 0109 213b 2e49 5d3d 48c0 683b
00000120: 6578 acbd cbab e63d 66c0 d23d 809b b03c
00000130: 7511 f3bc 5bfa c3bd e378 52be 5a07 8dbe
00000140: 83b6 ff3c 8746 293e 5a28 03be 18eb e63d
00000150: ae95 313e 8d28 afbc 3918 e83d abfa 49bd
00000160: 16a1 d63c 8aab 063e 32d9 85bd ccb8 753d
00000170: ddd7 de3c 878d fa3c 3300 b43d 9696 9cbd
00000180: 8f99 ed3d 6be5 4f3d 5b33 e43d e112 dc3d
00000190: ef00 9fbc d50d d2bd 6052 12be eeaa 983d
000001a0: 2cbb b13c 1b23 dd3c dce4 93bd ecf8 a3bd
000001b0: f6ce 99bd 4471 3ebd cc1a 5f3d 38f2 aabd
000001c0: 8fd1 8abd 1656 823d 998e f03d fabc 3d3d
000001d0: a7d6 8fbd c097 493d e6b9 303e 1fb5 f73d
000001e0: 2292 9d3d 7767 203e ea55 b6bd 8c95 b83c
000001f0: e64e 58bd 3048 003e 55f9 85bd 6d62 a63d
00000200: b89b 073c 3781 ebbd 023b 4a3e 102e 0dbe
00000210: caf7 9abd 4637 be3d f90d 0bbd aeac 493d
00000220: 0c91 4a3e 785e 183e eb56 16bd 2310 243e
00000230: 311e fc3d 6d2a 4e3e fa99 463d 9991 d7bd
00000240: 32d8 b9bd 5797 363d 72bc 0bbe 208a b83d
00000250: 690d b53d 6be6 dabc 09ec 1a3e 9d6e ff3d
00000260: 8e55 0abd 3abc 193e 9e1a 0d3d 07ff e63c
00000270: 9784 1d3e 4021 62be 5672 e0bd 849a 51be
00000280: 0599 0bbb d65e 44be 8ce8 30bd fd51 8abc
00000290: 28e3 c2bd c091 6c3d 4e99 7fbc 06cb adbc
000002a0: e184 cd3d 16f3 c83d 1353 26bd b99d fdbc
000002b0: b7eb 253d fe7a 1cbb e809 12bd 44c8 1dbc
000002c0: 0200 babc 8e78 803e 63ec 353e a2e3 9e3d
000002d0: 4325 c13d fd4f 853d f403 463e a344 f23d
000002e0: 35ce 863d 1146 473d f687 063e b107 65bd
000002f0: 3293 b13d 954e a5bd 4dfb 45bd baaf 09be
00000300: 7f90 3e3d 8170 413e 384e 49bd b959 ae3c
00000310: d92d b33d 624d 003e e5af c9bc 5bd9 d43d
00000320: c0fc 8abc 40b2 16bd b697 1f3b d901 be3d
00000330: 92b0 033e aa60 a93d 4724 0bbe 84f7 a53d
00000340: 5e12 f33d b27b cebd 3f5b a83d fada 5b3d
00000350: 4ef9 653d 98ee 4e3d 1470 113e e810 b23d
00000360: 25ff eabd ff50 03be 06e0 c83d ecd5 b7bd
00000370: 39bb dcbd 0668 e5bd bb9b 553c d745 21be
00000380: 1a05 7c3d 9935 ff3d a2e8 c83c 2388 8e3d
00000390: 1e7f 043d c89c 913d dc1f a53d e401 1e3e
000003a0: 0e32 f8bd 7abf a53d 7aeb 5f3d c14a a93d
000003b0: 0e58 c1bd e180 2e3e 8d24 833d 0d00 273e
000003c0: 59ac e13d dcf8 f33c aeed 833d cca5 343e
000003d0: 4bbd d63c 6c70 553e 8cba 443e d102 b8bd
000003e0: 3e6f c23c c74f a43d adc7 1d3e fa4f c53c
000003f0: b4cf 8a3d 5b50 f23c 358f b4bd 0bfc 26bd
0.09355698 -0.09659177 -0.16544801 -0.12221017 0.0034967577 0.08761593 0.05734671 0.086080104
-0.18259868 -0.062110953 -0.15298116 0.019372918 0.015066336 -0.04437991 -0.12572575 -0.026760345
0.08759876 0.10115441 0.056499466 -0.026250815 0.1275363 0.006696993 0.098160855 0.103422575
-0.07321217 -0.101774044 0.14787008 0.11742355 -0.14944063 0.093324184 0.046103373 0.03083912
-0.123221196 -0.007855565 -0.024656985 -0.09324173 0.11041233 -0.284467 -0.051459182 -0.384052
0.030674824 0.0082396995 -0.1694524 -0.19117366 -0.054457527 -0.09979207 0.07090761 -0.16250049
-0.13264975 0.00503506 -0.03701681 0.07699569 -0.07834443 -0.06276307 -0.0985765 0.084204085
-0.07132942 0.091671124 0.012372861 0.13287286 0.10051857 -0.12625335 0.024576748 -0.02291253
0.15599284 0.15647735 -0.13337523 0.079511665 6.205823e-05 0.0024572017 0.054024868 0.0035515
-0.08421401 0.11263236 0.10290603 0.021558523 -0.02967141 -0.09569236 -0.20553927 -0.2754467
0.031214958 0.1653081 -0.12808362 0.11275309 0.17342255 -0.02138164 0.11332745 -0.04931132
0.026199859 0.13151374 -0.06535567 0.05999069 0.027202541 0.030585064 0.087891005 -0.076459095
0.116015546 0.0507559 0.11142608 0.10745788 -0.019409625 -0.102565445 -0.14289236 0.07454477
0.021695696 0.026994279 -0.07221386 -0.080064625 -0.07510178 -0.046494737 0.054468915 -0.08346981
-0.067782514 0.06364076 0.11745948 0.0463228 -0.070233636 0.049216986 0.17258415 0.12095093
0.07693888 0.15664469 -0.089031056 0.022532247 -0.05280962 0.12527537 -0.06541697 0.08124242
0.008276872 -0.11499255 0.19749072 -0.13787103 -0.07566793 0.09287886 -0.033948872 0.049236946
0.19781893 0.14879787 -0.036703985 0.1602178 0.12310446 0.20133372 0.048486687 -0.105258174
-0.09074439 0.044577923 -0.13646105 0.0901072 0.088404484 -0.0267212 0.15129103 0.1247227
-0.033772998 0.15013209 0.034449212 0.028197778 0.1538261 -0.22082996 -0.10959308 -0.204691
-0.0021300924 -0.19176802 -0.043190524 -0.016884798 -0.09515983 0.057756186 -0.0156005155 -0.021214973
0.1003511 0.0981199 -0.04060657 -0.030958997 0.040508 -0.002387702 -0.03565398 -0.009630267
-0.022705082 0.25091976 0.17765956 0.07758261 0.09430935 0.06509397 0.19337445 0.11829498
0.065822996 0.048650805 0.13137802 -0.05591554 0.086706534 -0.08071629 -0.048335362 -0.1344594
0.04652452 0.18890573 -0.04914686 0.021283017 0.08748979 0.12529519 -0.024620006 0.1039302
-0.016966224 -0.036791086 0.0024351901 0.09277696 0.12860325 0.0827039 -0.13588057 0.081038505
0.11868738 -0.10082187 0.08220529 0.05367563 0.05614596 0.05052051 0.1420291 0.08694631
-0.11474446 -0.12823866 0.09808354 -0.08976349 -0.107778974 -0.112014815 0.013037617 -0.15749298
0.061528303 0.12461395 0.02452499 0.0695956 0.03234779 0.07109982 0.08062717 0.15430409
-0.12118922 0.08093162 0.054667927 0.08266211 -0.09440623 0.17041351 0.06403456 0.16308613
0.11019201 0.029781751 0.06441818 0.17641371 0.026213309 0.20843667 0.19211787 -0.08984912
0.023734685 0.08023029 0.15408202 0.024085987 0.067778975 0.029579332 -0.08816377 -0.04076771

policy_network.0.bias f4 [128]
00000000: 8335 ea3d 8670 a33d 5e55 d03d f469 0dbe
00000010: b0e0 a93d 8090 df3d 31e1 dabd e51e 623c
00000020: 3885 d7bc 15e2 ca3d 824f c73d 02b8 10bd
00000030: 2b38 24bd 1aec ef3d 2716 103e 0ce2 07ba
00000040: 0363 cfba 547c dd3b 317c 1abe f838 ee3d
00000050: 20cd 343d 01be 953d 58d2 23be f4b0 343d
00000060: ec64 9dbd 3ac8 f6bd 0754 cabd 5429 bc3b
00000070: d77a c6bd ade3 d7bd d8c8 a2bc f86b 193e
00000080: 33c8 cd3d 9104 53be 3b3b 96bd f9cf 183e
00000090: d584 7bb7 774e 483d c803 903d 1f85 f53d
000000a0: edd5 f2bd 1f30 753d a2f9 983d 36ea 163e
000000b0: 6c64 81bd c0e8 b9bd 4556 18bd 6df4 19be
000000c0: 07ce 183e 36fc 543d 2f4c 2abe 7b0e ebbc
000000d0: d359 663c 9f20 e03d bdbb 41be 6ce3 c0bc
000000e0: 9d18 0e3d 44b1 cdbd 0da4 47be 1a88 8e3d
000000f0: bae0 d23c 9bde 18be 61bf 0fbd f98f 033e
00000100: 4fa5 f1bd 3cef c13b 11c5 b73d 3dab 77bd
00000110: 1d00 5fbc aa30 4fbc 2bbe 2cbd 6ed5 1c3c
00000120: 7f7e d9bd ddce ce3d 95dc e6bd cdce 4b3e
00000130: a1d4 9cbd 066b a13d 2bf0 6fbd ae35 aebd
00000140: 9f19 14be ce33 1d3d 61e7 fabd e3fd d4bc
00000150: 40b2 a2bc 45a6 b43c abad 95bd 72fc 0c3e
00000160: 0efe a73c d2ed 51bb 86a6 86bb 0591 04bd
00000170: 139b f9bd c813 6f3d 03b3 00be d5b9 c53d
00000180: 6c14 6ebd 55f3 273d 3333 a7bc 6712 f5bd
00000190: 4477 e2bd c322 2fbc f62b debc 91ed 2abe
000001a0: 7312 133e ca01 bcbd bafc 87bd b662 f93d
000001b0: 0966 dfbb 08de f93d 325e 123d c3fe a33d
000001c0: b3d7 833c 3cd7 c3bd c48b 1b3e 4a93 02be
000001d0: 14ee 0abd 57df eb38 a2b5 ddbd d72c 05be
000001e0: daf0 a33d d460 29be 10f4 7d3d df47 2cbc
000001f0: ffe1 8b3d daeb 5bbc b911 14bd 7e6f 1fbc
0.11435988 0.079804465 0.101725325 -0.13809949 0.08294809 0.10916233 -0.10687483 0.013801311
-0.02630864 0.09906403 0.09731962 -0.035331734 -0.04009263 0.11714955 0.1407095 -0.0005183525
-0.0015822354 0.006759206 -0.15086438 0.1163196 0.044140935 0.07311631 -0.15998209 0.04411407
-0.07685265 -0.12049909 -0.09879308 0.0057422314 -0.096913986 -0.105414726 -0.01987116 0.14982593
0.100479506 -0.2060721 -0.07335516 0.14923085 -1.4991693e-05 0.048902955 0.07031971 0.119882815
-0.11857209 0.059860345 0.07469489 0.14737782 -0.06317982 -0.09077597 -0.037191648 -0.15034647
0.14922343 0.05199834 -0.16630624 -0.028693428 0.014059502 0.10943722 -0.18919273 -0.023545943
0.03469144 -0.10043576 -0.19496174 0.06959553 0.025741924 -0.14928667 -0.035094623 0.1284789
-0.11799108 0.0059184115 0.08973134 -0.06046604 -0.013610867 -0.01264588 -0.042173546 0.00957237
-0.1061983 0.1009805 -0.112725414 0.19903107 -0.07657743 0.07881741 -0.05857865 -0.08506332
-0.14462899 0.038379483 -0.12251163 -0.025999969 -0.019860387 0.02205194 -0.07308515 0.13768175
0.020506885 -0.003203262 -0.0041092066 -0.032364864 -0.12187781 0.058368474 -0.12568288 0.09654585
-0.058124945 0.041003544 -0.020410156 -0.119664006 -0.11057904 -0.01068944 -0.027120572 -0.16692187
0.14362507 -0.09180029 -0.06640001 0.12177031 -0.0068175835 0.12200552 0.035734363 0.08007576
0.016094064 -0.09562537 0.15190035 -0.12751499 -0.033918455 0.000112472735 -0.10825659 -0.13005386
0.08004923 -0.16540843 0.062000334 -0.010515182 0.06830215 -0.013422931 -0.036149714 -0.009731172

policy_network.1.weight f4 [128]
00000000: 3d2b 7d3f 0e1e 823f bf48 713f 917c 803f
00000010: ea02 6e3f 7dd1 753f 39c1 803f 7742 6d3f
00000020: 8adb 7b3f a3e6 743f ac27 863f fa07 7a3f
00000030: 91f2 823f c9c1 813f 0f2c 893f d049 813f
00000040: 02e9 723f a5e7 703f 2be8 833f 0e7e 843f
00000050: 7e90 7c3f fef5 7a3f 26f0 7c3f 05d0 733f
00000060: 3cb3 823f aac2 843f aaf1 833f 41c4 773f
00000070: cd0f 693f 0ed8 873f 5606 7e3f 78f8 8e3f
00000080: 0892 8e3f d57e 8d3f d0ec 813f d35f 773f
00000090: 5329 7d3f cbfe 7a3f ec04 863f c286 793f
000000a0: f5e5 743f 8787 8f3f cbd4 7c3f c076 813f
000000b0: e243 863f f5b5 883f 0e30 7f3f 0dda 773f
000000c0: 60e9 7c3f 695b 843f 6684 823f 068a 873f
000000d0: 6ef1 7f3f 0d6a 843f f82f 873f 57ac 7c3f
000000e0: f4fc 823f f6bc 6e3f 7663 803f 3693 713f
000000f0: 35ca 873f 996d 763f 659c 743f b0f9 7a3f
00000100: 1d48 713f 791e 703f abc9 733f 31ca 7f3f
00000110: 51ff 863f 9ed1 733f 8a87 763f 532b 663f
00000120: 484b 8a3f ca9a 8f3f 66ec 7f3f 3421 913f
00000130: a586 823f 1f6d 763f 3f09 853f e685 833f
00000140: 2254 813f 0eca 773f c893 833f 0cb4 713f
00000150: ac0b 713f 5818 773f 6112 803f 5adc 7c3f
00000160: 23a0 6c3f 52d7 833f bfed 733f 3962 823f
00000170: e772 753f c20f 853f c7f2 853f 80a6 763f
00000180: 6195 823f 0531 723f 4b01 6f3f 307d 5b3f
00000190: c70b 713f e05f 873f d57e 7c3f e105 7c3f
000001a0: bf45 753f 141b 763f 4759 823f f75c 753f
000001b0: 93ab 823f ee1d 843f 7848 773f 617d 7d3f
000001c0: 10b2 793f 9046 7d3f 87a0 813f 11c6 763f
000001d0: f4f0 6d3f 4b6e 7f3f f19c 863f dd95 903f
000001e0: 0c51 873f b82b 8c3f 1d17 6d3f ee9b 813f
000001f0: b493 753f faf0 6b3f 25de 6b3f c3d9 7e3f
0.988941 1.0165422 0.94251627 1.0038015 0.92973197 0.9602278 1.0058967 0.9267954
0.98381865 0.95664424 1.0480857 0.9766842 1.0230275 1.0137264 1.0716571 1.0100651
0.9488679 0.9410346 1.0305227 1.0350969 0.9865798 0.98031604 0.9880394 0.9523929
1.0210948 1.0371907 1.0308125 0.96783835 0.91039735 1.061281 0.9922842 1.1169577
1.1138315 1.1054331 1.0150394 0.9663059 0.9889118 0.98045033 1.0470252 0.9747125
0.95663387 1.1213235 0.98762196 1.0114365 1.0489466 1.0680529 0.996827 0.96817094
0.987936 1.0340396 1.0196655 1.0588996 0.9997777 1.0344864 1.0561514 0.9870047
1.0233445 0.9325708 1.0030353 0.9436525 1.0608584 0.9626098 0.9555114 0.9803724
0.9425066 0.937965 0.95229596 0.99917895 1.0546666 0.95241725 0.96300566 0.8990986
1.0804224 1.1219113 0.9997009 1.1338258 1.019734 0.96260256 1.0393447 1.0275238
1.01038 0.96792686 1.0279474 0.94415355 0.94158435 0.9652152 1.0005609 0.9877373
0.9243185 1.0300086 0.95284647 1.0186225 0.9587845 1.0395434 1.0464715 0.9634781
1.0201837 0.9460605 0.9336135 0.85737896 0.94158596 1.0576134 0.9863103 0.9844647
0.9580955 0.9613507 1.0183495 0.9584498 1.020861 1.0321634 0.96594954 0.9901944
0.97537327 0.98935795 1.0127114 0.96395975 0.9294579 0.9977767 1.0516645 1.1295735
1.0571609 1.0950842 0.92613393 1.0125711 0.959285 0.92164576 0.9213584 0.9955103

policy_network.1.bias f4 [128]
00000000: 9009 443b 2261 59bd 6e44 653c 81eb d5bc
00000010: ee68 06bd b7e5 833c 5803 753d 69bb 363c
00000020: 4506 083d 62f4 943c f0cb 4a3c 18ae b8bc
00000030: 6877 6a3c 499d eabc 607b f93c 1aad 1e3d
00000040: 1147 e83c 98f7 253d 36da b0bc a857 453b
00000050: 5512 5fbd 4624 1c3d ab2e 30bc 68ce a73b
00000060: 531c 0bbd d632 22bc 69f8 9a3b 57f0 71bc
00000070: 1531 0ebc 0bf5 3b3d 14c6 c43c 2f47 45bc
00000080: b369 2bbd 2937 2e3d ec3d 613b 8937 41bc
00000090: a149 f13c 9257 7bbc c403 893c b33f b0bc
000000a0: 3986 38bc d238 63bc 57ba 083d 3e10 273d
000000b0: d080 a6bc 5e00 a83c 2ff0 3abb d4a4 cf3c
000000c0: 7623 18bd 97b0 4339 92cc bebc 9bdd 7dbc
000000d0: 91bb cabc c39f 8f3c 5c99 cfbb 79cd 11bd
000000e0: 4c44 c9bc 4b92 8c3c 712e 96bc 37ea c63c
000000f0: babc 863b 38bc 93bc 7edc 63bc 1ef4 da3a
00000100: 8cd6 8b3c 82b0 04bd fae1 f3bc ebd2 7a3b
00000110: c2a8 e43c 012e 88bc e442 33bc cdf8 023c
00000120: 26ba 86bc c9d6 6f3b 36c7 923c d1c7 4dbc
00000130: c7d4 883c 7168 89bc 7abc ce38 4c56 8c39
00000140: 38b0 06bc b929 963c aca2 743c fe8e 2c3b
00000150: e9b3 4bbc 0cd7 f53c 0590 af3c 8dbd e3bc
00000160: da6d 37bc 58fb 30bb a1ab 10bc f51c afba
00000170: 4c9f eb3c 6e1c 9a3b 1082 13bc d3e6 cb3b
00000180: 2ef7 bd3c f4af 09bd a761 c3b9 dfc3 b43c
00000190: f8dd bd3c 7c7d 163d 1ea4 b6ba 14d5 aa3b
000001a0: b067 66bc dfda 5e3c 746a b63c b99b d3ba
000001b0: 1777 3fbc b648 0eba 5fdd aa3c 5071 a2bc
000001c0: 1b93 3abd bdbf 13bd d20a 913c afd9 533a
000001d0: 25b1 843a cd7b 613d 20eb f43c 6f3d 7fbc
000001e0: aaba 8dbc afa2 1a3c 4356 aabc 6fab 4e3c
000001f0: 403c 443c 0209 a2bd dc93 283b 924a d03c
0.0029912926 -0.05307115 0.013993366 -0.026113274 -0.032814912 0.016100748 0.059817642 0.0111530805
0.033209104 0.018182937 0.012377724 -0.022543952 0.014310695 -0.028639453 0.030454338 0.0387393
0.0283542 0.040519327 -0.021588426 0.0030112062 -0.054460842 0.03812053 -0.010753314 0.005121041
-0.03396256 -0.009899816 0.00472932 -0.014766774 -0.008678694 0.045887988 0.024020232 -0.012040897
-0.04184885 0.042533074 0.0034369184 -0.011793026 0.029454054 -0.015340703 0.016725428 -0.02151475
-0.01126247 -0.0138685275 0.033380833 0.040786974 -0.020325094 0.020507988 -0.0028524508 0.02534715
-0.037143193 0.00018662434 -0.023290906 -0.015494729 -0.024747642 0.017532235 -0.0063354205 -0.035596345
-0.0245687 0.017159602 -0.018332692 0.024281604 0.0041118534 -0.018034086 -0.01390755 0.0016704833
0.017070077 -0.032394893 -0.02977084 0.003827269 0.027912501 -0.016623499 -0.010941241 0.007993889
-0.016446184 0.0036596528 0.017917257 -0.012559847 0.016703023 -0.016773434 9.857952e-05 0.00026767177
-0.008220725 0.018330442 0.014931362 0.0026330347 -0.012433031 0.030009769 0.021430979 -0.027800346
-0.011195624 -0.0027005281 -0.008829982 -0.001336007 0.028762482 0.004703096 -0.009003177 0.0062225848
0.023189154 -0.033615068 -0.00037266055 0.022066055 0.023177132 0.036740765 -0.0013934409 0.005213389
-0.014062807 0.013601988 0.022267558 -0.0016144431 -0.011686108 -0.0005427705 0.020857511 -0.019829422
-0.045550447 -0.036071528 0.017705355 0.00080814486 0.0010123594 0.055049706 0.029897273 -0.015578612
-0.017300922 0.009438201 -0.020793086 0.012614115 0.011977255 -0.07911874 0.0025722897 0.025426183

policy_network.1.running_mean f4 [128]
00000000: 0afe aebe 7555 85be 9d1a 243f c408 b43e
00000010: c8d1 573f d95a 443f a54c 1d3f ba9e d7be
00000020: 1a0d de3e c7e3 b8be 59cc b53e 7c83 e0be
00000030: c7c0 053f 8102 213f d5c1 0b3f 5870 74be
00000040: 5f57 2a3f 1f38 e6be 2467 1b3f 8cfd f7be
00000050: ac52 92be 882f 7dbe e93b fe3e 35b5 173e
00000060: ed09 053f 3ee0 043f 6ac0 2dbe 17fc 0e3f
00000070: a6a7 d9be cef1 38be f9d7 26bf cfe8 f63e
00000080: 3541 493f 5b67 cfbe e223 893f 6385 a7be
00000090: 6731 91be 15d1 80bd fa10 f4be 88f8 f8be
000000a0: 25f6 cfbe b303 253f 127c 2c3f 8a7e d7be
000000b0: 7671 4cbf 9ee2 8cbe 35f8 a5be 9241 e13e
000000c0: 4ed9 3d3f 6280 e4be 3597 103e 8994 acbe
000000d0: 35e2 15be 2f79 47be 3e8d cbbc e56f 323f
000000e0: e527 053f a4f9 1fbf e0bc 44bd 85e8 4b3e
000000f0: cee7 383e 1daf 7d3e 0b58 3d3f fb70 8bbe
00000100: 0cf4 58bf 5c6a 43bf 9129 8b3f b1de 05bf
00000110: bdab e6be e848 f23e 0f7b cd3e 3a7b 52be
00000120: fd7a 40bf 4a50 4c3f 64ec ed3e 3dfc 713f
00000130: bf81 d5bd 7250 bbbe 8675 b0be a889 14bf
00000140: 44b0 17bf ad37 9a3e 6536 94be 82d4 c93e
00000150: a122 153f cb03 183f c163 37bf 3115 43be
00000160: e5d6 ffbe 757f 36bf 4807 a03e 5a24 963e
00000170: f389 633d 0ab7 363e 5c8c b6be d715 42bf
00000180: e1e5 0dbf b021 493f fe0d 193f db75 f3be
00000190: eac6 3a3f 3d6c fd3d 6af9 f33e 2a66 f03d
000001a0: 069b 2d3f a552 20bf fe0b a9be 3b14 4fbe
000001b0: df61 af3d f1c9 a33e 9723 51be d784 483f
000001c0: 8442 f43e 316f 86be b639 cabe e698 65bf
000001d0: 26d8 54bf ac0a 40bf 0ab6 083f 0704 46bf
000001e0: 977d 2c3f 30f7 d6be 2742 243f a48f 43be
000001f0: 3390 ebbe ba8b 11bd bc62 ae3e 4671 23bf
-0.3417819 -0.2604176 0.6410311 0.35162938 0.84304476 0.7670112 0.61445075 -0.42113286
0.4336937 -0.3611128 0.35507467 -0.43850315 0.5224728 0.62894446 0.5459264 -0.2387098
0.6653957 -0.44964692 0.60704255 -0.48435628 -0.285787 -0.24725163 0.49655083 0.14815219
0.5196827 0.51904666 -0.16967931 0.5585341 -0.42510718 -0.18060991 -0.651733 0.48224494
0.78615123 -0.4050854 1.0714076 -0.32718953 -0.28358003 -0.06289879 -0.47669202 -0.48627114
-0.4061748 0.6445877 0.67376816 -0.4208873 -0.7986063 -0.27516645 -0.3241593 0.4399534
0.74159706 -0.44629198 0.14120181 -0.33707073 -0.14637072 -0.19479822 -0.024847623 0.6970199
0.52014 -0.62490296 -0.048031688 0.19912918 0.18057176 0.24773832 0.7396247 -0.27234635
-0.84747386 -0.76334167 1.087206 -0.52292925 -0.450529 0.47321248 0.4013295 -0.2055482
-0.75187665 0.7981001 0.46469414 0.9452551 -0.10425138 -0.36584812 -0.34464663 -0.58022547
-0.59253335 0.30120602 -0.2894775 0.39419943 0.58255965 0.5938079 -0.7163659 -0.19051053
-0.4996864 -0.71288234 0.31255555 0.2932461 0.05555148 0.17843261 -0.3565396 -0.75814575
-0.5542889 0.7856703 0.59786975 -0.47550854 0.7295977 0.123741604 0.47651225 0.11738236
0.6781467 -0.62626106 -0.33016962 -0.20222561 0.08563589 0.31990007 -0.20423733 0.783277
0.47706997 -0.26256707 -0.39497155 -0.8968643 -0.83142316 -0.75016284 0.5340277 -0.77349895
0.67379135 -0.41985464 0.6416344 -0.19097763 -0.46008453 -0.035533644 0.34059703 -0.63844717

policy_network.1.running_var f4 [128]
00000000: b38e 073c d548 963b cb72 403c 77a9 9d3c
00000010: 33cf da3c dc9f 953c aedc 9d3c 2a18 fa3b
00000020: e098 073c 3e3d 063c 969a 1c3c 700c b73b
00000030: ae1f 903c 5d94 893c 3c22 3c3c cb03 023c
00000040: 6184 9b3c 17af 173c e5d9 ba3c 63bf b33c
00000050: cb6e 943b a523 b63b 2a4e d13c ab39 b83a
00000060: bf09 9f3c c7b6 e13c 14e8 813b 23b2 7f3c
00000070: 9284 9e3b c397 703b 3e15 c23c 025e 883b
00000080: 7571 f03c 5f99 b93b 9038 873d 6325 2f3c
00000090: f940 cf3b 7c20 4f3b 9e94 303c 3086 d23c
000000a0: 495e d73b 4a5c c93c ec43 433c 8268 c73c
000000b0: 9392 da3c d9bb f43a e376 a23b 88ad 6f3c
000000c0: 2b6f c03c 527a 963c fbab fd3b e021 343c
000000d0: 368a c13b 59c2 4a3c 2162 b73b 6ed0 ab3c
000000e0: 348d 643c 60f5 533c dcf6 313b 4442 243b
000000f0: 39b9 d33b 0019 da3b 99b1 e13c 34a0 ab3b
00000100: 4748 d93c 3e84 cb3c e1e6 373d 6867 3d3c
00000110: 6468 293c c8a4 4d3c 6157 f63b f142 123b
00000120: 2e10 c63c 5c7e ec3c 0e69 653c a37a 043d
00000130: 0911 4c3b 8348 503c 0e18 853b c99f 8b3c
00000140: 76a4 653c 73f6 583b d273 6b3b 222b f43b
00000150: f5f8 983c 3706 8e3c dbd1 f23c 4ce3 143c
00000160: b3a9 2f3c c746 943c 9060 d43b 592b 923b
00000170: 8c79 863b c1e7 793b be6f b83b 478e 1b3d
00000180: e434 4d3c 8307 ca3c 6658 b63c 2903 203c
00000190: 6d22 f23c e289 dc3b ce8b 0b3c 156e a03b
000001a0: 3e5f 3e3c 5b5e 723c bec3 013c b03b e43b
000001b0: c6c4 623a 9711 053b d77f 983b 3766 e83c
000001c0: c80e 903c af4d 303b a121 463c 45d4 ec3c
000001d0: 0303 f53c 81d2 e73c 25dc e33c b6ba fc3c
000001e0: c2ca 643c 5f5f 3f3c a9d4 923c e49b d13b
000001f0: 6af9 8c3c 942d 1f3b d992 e73b 1469 ae3c
0.008273768 0.004586319 0.011746119 0.019245846 0.026710128 0.018264703 0.019270267 0.007632275
0.008276194 0.008193312 0.009558341 0.0055861995 0.017593231 0.016794378 0.0114827715 0.007935475
0.018984022 0.009258053 0.022808978 0.021941846 0.004529809 0.0055584484 0.025549967 0.0014055272
0.019413827 0.027552975 0.0039644334 0.015606436 0.004837581 0.003671155 0.02369177 0.004161597
0.029350976 0.005664035 0.06602585 0.010690066 0.006324884 0.0031605056 0.010777621 0.025698751
0.006572519 0.02458014 0.011918049 0.024341825 0.02668122 0.0018671706 0.00495802 0.014628775
0.023490509 0.018368874 0.007741449 0.010994405 0.0059063686 0.012375438 0.0055964147 0.02097341
0.013949681 0.01293692 0.0027155196 0.0025063911 0.0064612892 0.0066558123 0.027550505 0.0052376036
0.026523722 0.024843331 0.044897918 0.0115602985 0.01033983 0.012551494 0.0075177406 0.0022317732
0.024177637 0.028868847 0.014002098 0.032343518 0.0031138083 0.012712601 0.0040617054 0.017043965
0.014016261 0.003310588 0.0035927189 0.007451431 0.0186734 0.017336948 0.029641083 0.009087395
0.010721612 0.018100156 0.0064812377 0.004460734 0.004103845 0.003813252 0.005628555 0.037977483
0.012524817 0.024661785 0.022258949 0.009766378 0.029557431 0.006730304 0.008517219 0.0048959353
0.011619387 0.014793004 0.007920204 0.006965123 0.00086505373 0.0020304674 0.0046539116 0.028369052
0.017585173 0.0026901772 0.012092979 0.028909812 0.029908663 0.028298618 0.027814934 0.03085075
0.013964357 0.011680453 0.01792367 0.0063967574 0.017208774 0.0024288641 0.007067066 0.02129034

policy_network.2.weight f4 [256, 128]
00000000: 765d a6bd 1c67 a1bc c77a adbd 7cf5 4bbd
00000010: 3f27 17be dcf6 39bd c0eb aebb 0af1 943d
00000020: 5451 a23b 0991 2c3d 6f86 8bbd ce0f 36bc
00000030: 6978 f5bd 8fca 933c 6d3c 093d e584 523d
00000040: a569 2c3d 09ae 033e f4e6 85bb cd0f e73d
00000050: 6ed4 d9bc c5e6 01bd 4b12 7dbd 909c e13d
00000060: 59eb 6fbc 8e1b 55bc d9b4 503d 77fd b5bd
00000070: 78b5 923c ee46 9b3c 4f3c 303e e968 433d
00000080: 290f adbd d72a 5c3d d4bd 9bbd 3565 44bd
00000090: 9d39 213e 393b b03d fbbe d13c 89ee be3c
000000a0: c073 193d 5baa 6abe 3941 943d 61c1 76bb
000000b0: cf3e 343d 5752 dfbc e8c8 92bd 61d5 713d
000000c0: 08f1 2abc 8d4a 803d 9ef2 133d 853a b03d
000000d0: 91fd a53d c640 293d 8c5f 64bd 6af1 4b3d
000000e0: 9cda 59be 362b d73c e778 1b3c 8f90 13be
000000f0: 6171 1bbe 1e52 7cbd 8511 bbbd 306c 2fbc
00000100: bd67 8b3d 046e 27bd 8abd ae3b a1c9 6a3d
00000110: 2b02 123c dc63 cfbd 8391 4dbc 89e1 7539
00000120: 3883 c73d 6c5d 68be b718 af3c 20df 1dbe
00000130: 70b1 c23c 334e abbc 0418 c6bd b130 3a3e
00000140: 0963 d73d a057 0bbd d390 5c3d 030d 343d
00000150: 9df8 ddbd 0cd3 f3ba 29f2 363d 0449 94bd
00000160: db00 573d d116 cfbd 7558 c03b 878d 243d
00000170: f8dc ba3d 7d23 cf3d e45e a4bd bd8e 363e
00000180: c229 f43d 1020 1fbd 5790 1bbe 7d13 943d
00000190: af00 d6bc 86b4 13bc 01ef 493d df40 463d
000001a0: 310a 7dbc 52e3 0e3d 042b 4e3d 94a6 e1bc
000001b0: c192 093e d6d4 f53d 9a2e 173b c677 d8bd
000001c0: f80a 41bd 9d74 cfbd 9ca6 903c 1f50 79bc
000001d0: cf49 c3bc 6251 623d b75f 70bd ef96 103e
000001e0: b50e 84bd 01c7 623d 711c f6bd 5311 a43d
000001f0: 76e0 313b 77d7 d9bb 8209 8bbb e624 0e3e
00000200: 2eb6 323d 48c8 953d c60f 55bd 4de6 3c3e
00000210: fbaf 75bd 0591 06be 840e a9bd cd96 403c
00000220: f0d7 afbb 4eae 043e 3f47 963c 1343 e83d
00000230: 6e4f a1bd 69e8 9bbd 6e16 7cbd c6fe d33c
00000240: 32c7 f3bd bb24 873d 9b3c c7bd f1fb d6bb
00000250: 069b 663c 4a59 9b3d 76b2 30bd 4230 f0bc
00000260: cb75 073b a8a6 8f3c f029 2a3d db78 c2bd
00000270: c8ac 573d 6dce e3bd 699b c2bc a398 50bd
00000280: fea8 203d 5a49 08ba fa64 8a3d 32cc 553d
00000290: 23a4 04bd ef98 033e 1c52 f83d 5287 6ebd
000002a0: 8635 083d f682 11bd e821 92bd 3b7a 00be
000002b0: 29d7 293d 6856 c23d e48b c33d 07b0 14be
000002c0: 67a5 053d 3216 b5bc cc8c 1dbd a125 303d
000002d0: 25db ddbd bcfd 07be f7db c03c cc3b 00bd
000002e0: ca26 d3bd a3b0 60bb 646d 6b3d dbdd 38be
000002f0: 7874 733d 6ff7 d1bd 7dd0 a3bd da96 ea3d
00000300: f558 863d c1f5 5c3d 08b1 9cbd e2db 5d3b
00000310: 94e7 a7bd a20d c2bd b85c f6bd 1bb6 e2bc
00000320: d316 483d 0793 973d 0913 973a 592d ac3c
00000330: 6c37 41bc df72 0dbd 00fa a73c d38d c739
00000340: d61e 09bb 0f66 8abd 47f7 9a3b 5833 e6bb
00000350: e62f bcbd a486 e33d 3d73 69bd 9851 193d
00000360: c01f 2dbc 06ca 16bc 1205 09bc 0c06 ccbd
00000370: b06d 8fbd 72c6 75bc 72f3 563d 0cd3 26bd
00000380: 00c5 e9bd fe6d a13a c50c 13bd fdad 58bd
00000390: e26c cebd 651c e43c 26dc 59bc b908 03be
000003a0: 5ec4 97bd 0ad5 263b 9e44 963d bc3a 253d
000003b0: 6807 ee3d 4ac5 29be bc13 083d 7e09 463c
000003c0: a235 133e 319c c8bc 7f15 433d ff6f 4e3d
000003d0: 6e92 85bd c173 5dbc c881 eb3d 0b27 f5bd
000003e0: f801 9dbd 2bc0 49b9 9954 98bd 1172 11be
000003f0: e554 d83a 2a7b edbb d221 2cbd 1287 e3bd
-0.08123295 -0.019702487 -0.084706835 -0.04979466 -0.14761065 -0.04540144 -0.005338162 0.07272537
0.0049535427 0.042130504 -0.068127505 -0.011112167 -0.11985857 0.018040923 0.033504892 0.05139627
0.042092938 0.12859358 -0.0040863696 0.11282311 -0.026590552 -0.03171422 -0.061785024 0.1101619
-0.014643514 -0.013007058 0.05095372 -0.08886235 0.017908797 0.01895472 0.17210506 0.047707472
-0.08450157 0.053751793 -0.07604566 -0.04794808 0.15744634 0.08605046 0.025603762 0.023307102
0.037463903 -0.22916548 0.07239003 -0.0037651884 0.04400521 -0.027260942 -0.07167226 0.059041385
-0.010433443 0.062642194 0.03612005 0.08604912 0.081050046 0.04132154 -0.055755183 0.049790777
-0.21274799 0.026265722 0.009489275 -0.14410613 -0.1517997 -0.06160175 -0.09134201 -0.010706946
0.06806896 -0.040876403 0.0053326534 0.057321195 0.00891165 -0.101264685 -0.0125469 0.00023449039
0.09741825 -0.22691888 0.02137409 -0.15417147 0.02376625 -0.020911312 -0.09672549 0.18182637
0.10516936 -0.034019113 0.053849053 0.04395772 -0.10838435 -0.0018602326 0.044664536 -0.07240489
0.05249105 -0.10111774 0.00586992 0.040174033 0.09124178 0.10114191 -0.080259115 0.17827888
0.11922027 -0.038848937 -0.1519178 0.072302796 -0.026123373 -0.009015208 0.049300198 0.04840171
-0.015444324 0.03488476 0.05033399 -0.027545251 0.13434888 0.12003486 0.0023068548 -0.1056972
-0.0471296 -0.10129664 0.01765757 -0.015216856 -0.023838906 0.055253394 -0.05868503 0.14120077
-0.06448118 0.055365566 -0.120171435 0.08011117 0.0027141846 -0.006648 -0.004243077 0.13881263
0.04363077 0.07313591 -0.052016996 0.18447228 -0.05998228 -0.13141258 -0.08254722 0.011754704
-0.005366318 0.12957117 0.01834452 0.113409184 -0.07876478 -0.07612688 -0.061544828 0.025878321
-0.11903228 0.06598803 -0.097283565 -0.0065607955 0.014075046 0.0758539 -0.043138944 -0.029319886
0.0020669575 0.017535523 0.0415439 -0.094957076 0.05265501 -0.11123357 -0.023755746 -0.050926816
0.039223664 -0.00051989185 0.06757541 0.05219669 -0.032383095 0.12851308 0.12125036 -0.05823452
0.03325417 -0.035525285 -0.07135373 -0.12546627 0.04146496 0.09489137 0.095481664 -0.14520274
0.032628443 -0.02210531 -0.038464352 0.043004636 -0.10832814 -0.13280386 0.023542387 -0.031307027
-0.10310133 -0.0034284971 0.05747737 -0.18053381 0.059437245 -0.10252272 -0.0799875 0.11454554
0.06559936 0.053945307 -0.076509535 0.0033852984 -0.08198467 -0.094752565 -0.120294034 -0.027674725
0.048849892 0.0740109 0.0011526059 0.021017717 -0.011792999 -0.034533378 0.020504951 0.00038061905
-0.002092292 -0.067577474 0.004729185 -0.0070251636 -0.091888234 0.11109665 -0.056994665 0.03743133
-0.010566652 -0.00920344 -0.008363025 -0.09962091 -0.07003343 -0.015000926 0.05247826 -0.040728614
-0.11414528 0.0012316105 -0.03590085 -0.052900303 -0.100793615 0.02784557 -0.013297116 -0.12796296
-0.07410501 0.002545657 0.073373064 0.040339217 0.116225064 -0.16579166 0.033221945 0.012087224
0.14375928 -0.02448854 0.047627922 0.050399777 -0.0652207 -0.013516367 0.11499363 -0.119703375
-0.07666391 -0.00019240442 -0.07438011 -0.14203669 0.0016504793 -0.0072473483 -0.04202444 -0.11109747

policy_network.2.bias f4 [256]
00000000: 5cd5 613d ac48 e6bc 472c 913d 0cf0 06bd
00000010: 1241 12bd 91df 77bd 8cbe 063d a381 72bd
00000020: 9d51 bc3c 6544 923d 21d8 c7bd 3540 3f3c
00000030: a9a6 83bd 95f0 dcbc 7779 383d 36d9 ac3c
00000040: 931e c93c 603a 593b de60 993d 9597 0d3c
00000050: 8876 87bd 5358 c03c f47f f13c 7cc4 e23c
00000060: e0cd 5ebd 6e97 07bc 420d adbd 5274 32bc
00000070: 6bc9 a23d 1b54 8cbc 9eed d1bc 1ef7 c0bd
00000080: eb75 313c 3158 90bd 6a08 b6bc a055 803d
00000090: c7f1 fabc 6b7b 253d a608 613d b233 8fbd
000000a0: db2a 63b9 be85 47bd e0df 9bbd e9ea 84bd
000000b0: 71f9 a63c 96aa 583d aaaa 723d c664 7bbc
000000c0: bb39 6c3d 2072 9539 4fe8 343d 867a 0fbc
000000d0: 1277 4dbd bdce 5e3d e729 4f3d 16d2 c83c
000000e0: e1af 8abd 0a56 f53c 9ce4 5a3d b284 8a3b
000000f0: 41f6 2abd 82f6 17bd 9114 9d3c b5a3 e03b
00000100: 6896 72bc cdec 84bd 076f 8a3d 9b79 203d
00000110: 3a12 3bbc 6b9c 7c3d ab12 8cbb 99fa 243d
00000120: 4e09 3e3d 7589 80bd 364f b93c 21e6 5e3d
00000130: 22b2 9b3d d6dc 91bd e71e 4a3d 2d2f 3f3d
00000140: cd1d bebd 2add 1cbd e619 49bc 6331 95bb
00000150: bd72 1abd 615e d03c 0744 f63b 5212 443d
00000160: 0b70 853c fad7 1d3d bc3d dfbc 72a5 8bbd
00000170: 160b 2a3d ebe1 35bd 5e36 9d3c 7c74 863c
00000180: dd32 013d 48ed edbc 3725 80bc 269b 6fba
00000190: 14ec fcbc 3e18 473d 852d 3fbd 836b 3c3d
000001a0: b358 913c d851 f33c b967 16bc a0a6 a0bd
000001b0: 9834 acbd 128a ce3d e5ca 8c3b a3d3 803c
000001c0: 291a cfbd 414a 6cbd c1fa e0bc 8149 90bc
000001d0: 63af 793d ec9b 54bd 974b 93bd e37f 073c
000001e0: de69 fc3b 0bc8 9c3d bd70 a93c 813a c43b
000001f0: 763e 783d 04db bb3d 2171 8e3d 7f22 09bd
00000200: f262 59bd 9b56 abbc 0226 30bc e935 0a3d
00000210: 4eb7 47bc 0797 283d ddc1 b8bd 5d06 173d
00000220: d864 dbbb 95c9 b6bc d225 2ebb 5651 84bd
00000230: a4c6 7fbd 3967 af3c f984 6ebc 27c7 a7bd
00000240: 987b 8a3c 2c3d 183c 50de aabb b619 acbc
00000250: 0327 feba d9dc 21bd bc6d 38bd 0937 32bd
00000260: 15a9 11bd 1797 11bd 8473 46bd 42bb 68bd
00000270: 5c68 233c bd85 98bd d568 8e3c ad9a c73d
00000280: 65c7 ce3d 419e 323d 5add 563d dec2 11bd
00000290: bfcf 80bc 4591 f4bb 1cf0 073d 86bf 443d
000002a0: fcff 343d 94d3 6d3d a287 7ebd 9256 86bd
000002b0: c663 313d 79e6 533d b6f5 323d 7dba 9cbd
000002c0: c99e 793d 6f77 5d3d c887 f3bc 57fc 6fbc
000002d0: 651e cd3d d8b9 0b3d f90c 733d 7c32 813d
000002e0: 8239 bcbd 70cd 2e3c 128a 6bbc 03cf 4abc
000002f0: 3ef3 b5bc 197b d53c f393 28bd 3415 eebc
00000300: 9cbb 283d f00b 45bd 4b4a 4cbd 4c68 61bd
00000310: 0ad2 9dbd 8795 05bd 0da0 75bd bd13 ffbc
00000320: d642 a2bb bdd8 843d cc8a ccbc 9480 9c3d
00000330: 9250 4dbd 9b95 c4bd c970 fc3b ba90 4f3d
00000340: 72a0 083c ec34 a13d 81d9 413c 54a8 37bc
00000350: 795f 35bd 5f77 52bd dd3c ac3d 921e 823d
00000360: a3f8 2dbd 7411 8a3d 97cc 0abd 1f98 5e3d
00000370: b134 8dbd 26ac 6d3d 5f64 0ebc a7ef e83c
00000380: 5bb3 e0bc c674 07bb 0143 fc3c 7eec 943c
00000390: 8586 bdbd abf9 9c3d 1aa2 89bd 86ce 623d
000003a0: a830 39bd 2391 4e3d ab77 bf3c 93a8 11bd
000003b0: a3f1 873c d4a3 2e3d 7ed6 9cbb d87d 5ebd
000003c0: 2afd c43a ac5f e13c 7be1 793d f0d7 4ebd
000003d0: 015c dbba d95c eabb 7555 7abd 497c eabc
000003e0: 1a33 193d f5b6 aebc 9ba5 da3c ab67 d4bc
000003f0: ab1c 8ebd f8bd 95bc 9363 be3b eb97 5a3b
0.055135116 -0.028110825 0.07088523 -0.03294377 -0.035706587 -0.060515944 0.032896563 -0.059205662
0.022988135 0.071419515 -0.0975802 0.011673023 -0.06428272 -0.026970187 0.045037713 0.021099668
0.024550712 0.0033146366 0.07489179 0.008642097 -0.06614405 0.023479616 0.029479958 0.027681582
-0.054395556 -0.00827585 -0.08449794 -0.010891991 0.07948574 -0.017129948 -0.025626 -0.09422134
0.0108313365 -0.07048071 -0.022220809 0.06266332 -0.030632867 0.040400904 0.05493989 -0.06992282
-0.00021664372 -0.04871153 -0.0761106 -0.06490118 0.020382615 0.05289706 0.05924479 -0.0153438505
0.057672244 0.00028504524 0.04416686 -0.008757239 -0.050162382 0.05439638 0.05057707 0.02451424
-0.067718275 0.029948253 0.053440675 0.0042272443 -0.041738752 -0.037100323 0.019174846 0.006855453
-0.014806367 -0.06490479 0.06759458 0.039178472 -0.01141792 0.06167261 -0.0042746863 0.04027805
0.046395592 -0.06276218 0.022620779 0.054418687 0.076023355 -0.07122199 0.049345877 0.04667585
-0.09283028 -0.038296856 -0.012274241 -0.0045530065 -0.03770708 0.025435628 0.0075154337 0.047869034
0.016288778 0.03853605 -0.027251117 -0.068186656 0.04151448 -0.044404905 0.019190963 0.016412966
0.031542648 -0.029043809 -0.015642745 -0.00091402454 -0.03087429 0.048607104 -0.04667427 0.04600097
0.01774249 0.029702112 -0.009180003 -0.07844281 -0.08408469 0.100849286 0.004296648 0.015725916
-0.101124115 -0.057688 -0.027463319 -0.017613174 0.060958277 -0.05190651 -0.07192152 0.008270237
0.00770305 0.07655343 0.02068364 0.0059884195 0.060606442 0.09172633 0.069551714 -0.033480164
-0.053072877 -0.02091532 -0.010751249 0.03374282 -0.012189699 0.041159656 -0.090213515 0.036871303
-0.006695371 -0.022312919 -0.0026572836 -0.06460826 -0.062445298 0.021411525 -0.01455807 -0.08192282
0.016904637 0.009291928 -0.00521449 -0.021008354 -0.0019390289 -0.039517257 -0.045026526 -0.043509517
-0.03556164 -0.03554448 -0.048450008 -0.056819208 0.009973612 -0.074473836 0.017383972 0.09746299
0.10096625 0.043607954 0.05245719 -0.03558623 -0.015724061 -0.0074636065 0.03318797 0.048034213
0.04418944 0.058063105 -0.06214107 -0.06559481 0.043308042 0.051733468 0.04369136 -0.07652757
0.060942445 0.05406898 -0.029727831 -0.014647565 0.10015563 0.03411278 0.059338544 0.06308457
-0.09190656 0.010669097 -0.01437618 -0.012378457 -0.022210713 0.026059674 -0.04115672 -0.029062845
0.041194543 -0.048107088 -0.04987554 -0.055031106 -0.077060774 -0.032613304 -0.05996709 -0.031137342
-0.004951815 0.06486652 -0.024968527 0.07641712 -0.050125666 -0.095988475 0.0077038747 0.05067513
0.008339034 0.07871422 0.011831642 -0.011209566 -0.044280503 -0.051383372 0.08410046 0.06353487
-0.042473447 0.0674161 -0.03388652 0.054344293 -0.06894816 0.0580255 -0.0086909225 0.028434588
-0.027429273 -0.0020668968 0.030793669 0.018179175 -0.09254173 0.07664808 -0.067203715 0.055372737
-0.045212418 0.050431382 0.023372492 -0.035561156 0.016594714 0.042636707 -0.0047863116 -0.054319233
0.0015029062 0.02751144 0.06100605 -0.050498903 -0.0016735793 -0.0071521816 -0.061116654 -0.028623717
0.03740225 -0.021327475 0.026690295 -0.025928339 -0.06939062 -0.01827906 0.00581021 0.003335471

policy_network.3.weight f4 [256]
00000000: b5a1 4a3f f58a 533f 0708 473f 11be 6b3f
00000010: d3cd 663f 59fb 643f 7625 593f aa8a 4d3f
00000020: 5be6 4b3f ab24 563f e357 623f 18ac 5d3f
00000030: cdbc 553f 455e 613f eabf 3f3f 6837 583f
00000040: fc4a 693f 1bb2 733f ead3 553f 4a14 413f
00000050: d212 673f 694d 6d3f 2e23 673f f55f 5d3f
00000060: ddd1 773f b6f6 473f 61c1 713f 66e4 5c3f
00000070: 8851 663f 02ae 5a3f 2e9a 683f 1a03 503f
00000080: 4935 673f 1fdc 413f 2fad 5b3f ac61 643f
00000090: 1096 753f c18f 603f 7ba4 603f afeb 2d3f
000000a0: aef3 503f 9092 5d3f 6692 543f e53f 3c3f
000000b0: b263 663f 7b81 453f 08be 643f 1589 693f
000000c0: 5619 523f 4320 533f 251c 6e3f f953 5d3f
000000d0: 0c36 5b3f bb21 5c3f 5065 4f3f 9723 4b3f
000000e0: 49c4 453f a1bc 4d3f e316 5a3f 1a8a 503f
000000f0: 2c5c 6c3f 762c 593f 78c4 643f f061 503f
00000100: 162c 4f3f 59b2 553f 358a 643f c7bd 5a3f
00000110: 50df 793f fc5c 653f f8d1 5c3f 1d17 5d3f
00000120: 3216 773f 9d17 543f e570 773f 5832 6e3f
00000130: 907a 523f 4864 613f 1041 413f 3547 563f
00000140: 2b7e 5d3f fd57 5d3f 36d3 543f cd17 683f
00000150: d2d8 4b3f c544 473f 93fe 5d3f cd2d 543f
00000160: 2eda 603f 225a 673f a4c8 593f a8d1 593f
00000170: 3558 473f b9c0 683f 49d4 3a3f dda4 4e3f
00000180: 52a8 613f 90ea 633f 6452 3e3f e1bf 6c3f
00000190: 228a 653f 74d6 5a3f 0323 5e3f 9f8f 533f
000001a0: 854a 513f cf56 5d3f 4791 6c3f 4eb1 573f
000001b0: 7a56 503f 5abd 743f ce28 643f 0c10 603f
000001c0: b1d4 7a3f c314 5a3f e8ad 663f 3826 6e3f
000001d0: 744b 623f ee5e 613f 6efb 4d3f 0e93 623f
000001e0: dec6 5c3f 3ddd 583f 6efc 663f 4c0c 6a3f
000001f0: a21f 5e3f c857 693f a73f 6d3f 6c3e 773f
00000200: 382a 663f a742 513f e8ea 543f 576c 5b3f
00000210: babd 483f 2c25 623f a3c9 5b3f 5c96 433f
00000220: f3bd 6a3f b0dc 683f da2d 583f 0bfb 573f
00000230: 5a90 5f3f 5e75 773f 4a98 783f 1187 7c3f
00000240: f8f2 503f b084 653f 4c86 5b3f 4bd7 593f
00000250: 6925 623f d2b0 413f 21d2 543f 73ff 633f
00000260: 0410 613f 26d6 693f d97a 6a3f 8917 583f
00000270: 6ad4 643f 7208 713f ee95 5e3f a9bc 7c3f
00000280: 120f 523f 50c3 603f 9199 633f 30a6 663f
00000290: 8916 683f b656 5f3f 3cfe 603f 6731 5a3f
000002a0: afb4 763f ef06 513f 085c 3e3f c8e8 413f
000002b0: ffc0 693f 820a 723f f241 653f d1fa 583f
000002c0: be4c 563f ee7d 5e3f 048f 7b3f 52dc 6a3f
000002d0: 11ca 653f 97a2 5e3f a055 5e3f c3c9 583f
000002e0: 6bc6 693f 2072 503f 9efd 583f e7f4 4b3f
000002f0: 22c6 613f dc13 583f 3d20 633f 340b 693f
00000300: 560a 823f bf13 5e3f 9231 5e3f d350 613f
00000310: fc97 5b3f 1922 613f f44c 5e3f 8bb6 6d3f
00000320: 620e 4f3f e149 643f 41d0 6d3f 0e3b 453f
00000330: 8664 473f 9061 693f 7935 673f 16a0 643f
00000340: 346f 623f d77b 763f ae8a 513f 122b 743f
00000350: a8af 653f 92a5 633f b2b8 5d3f a86c 593f
00000360: 4e34 573f 967e 433f 813a 6b3f 2045 5f3f
00000370: 87a3 553f c510 6b3f 0fdd 483f 14b0 5f3f
00000380: 95b7 6d3f 92a1 5d3f 5263 513f b7cb 553f
00000390: f940 7e3f e2c2 5b3f db9b 603f 9949 753f
000003a0: 6b64 663f 7664 5a3f 8449 573f e316 553f
000003b0: 8a39 383f 5331 553f f108 673f 009b 5a3f
000003c0: dce1 443f 3a7b 553f 215a 473f 734e 6b3f
000003d0: 4c45 6e3f 58c9 743f 6ca0 4a3f 1087 683f
000003e0: 21f6 533f 9002 593f acc9 673f 5d1f 6b3f
000003f0: fa9e 6f3f f988 5b3f a64e 5a3f 3cdb 4a3f
0.79152995 0.82633907 0.77746624 0.92086893 0.9015781 0.89446026 0.84822786 0.8028971
0.7964837 0.836497 0.88415354 0.8659072 0.8349121 0.8803447 0.7490221 0.84459543
0.9113004 0.9519364 0.8352648 0.75421584 0.9026309 0.92696244 0.90288055 0.86474544
0.968046 0.78110826 0.944357 0.8628601 0.89968157 0.85421765 0.9086026 0.8125473
0.9031568 0.75726503 0.8581113 0.89211535 0.959321 0.8771935 0.8775098 0.6793775
0.81621826 0.8655176 0.83035886 0.73534995 0.8999587 0.77150697 0.89352465 0.91224796
0.8206991 0.824711 0.93011695 0.8645626 0.85629344 0.8598897 0.81013966 0.7935118
0.7725263 0.8036595 0.8519117 0.81460726 0.92328143 0.84833467 0.8936229 0.8139944
0.80926645 0.8347526 0.8927339 0.8544583 0.9760637 0.8959501 0.86257887 0.86363393
0.9651824 0.8284853 0.9665664 0.9304557 0.82218266 0.8804364 0.754899 0.83702403
0.8652064 0.86462384 0.8313478 0.9066132 0.79627717 0.7783931 0.86716574 0.82882386
0.87832916 0.90371907 0.8507178 0.85085535 0.7786897 0.9091907 0.7298017 0.8072031
0.8814746 0.8902979 0.7434447 0.92480284 0.896639 0.8548348 0.86772174 0.82641023
0.8175433 0.86460584 0.92409176 0.8425492 0.8138195 0.9560143 0.89124763 0.87524486
0.9798079 0.8518793 0.9010911 0.9302707 0.8839638 0.88035476 0.80461776 0.8850564
0.8624095 0.8471258 0.9022893 0.91425014 0.8676702 0.9114957 0.9267525 0.96579623
0.8990817 0.8174233 0.8317094 0.8571219 0.784145 0.8833797 0.8585455 0.76401305
0.9169609 0.9096174 0.84444964 0.84367436 0.8732964 0.96663463 0.97107375 0.98643595
0.8162074 0.8965559 0.85751796 0.85094136 0.88338333 0.7566043 0.8313313 0.8906166
0.8791506 0.9134239 0.915937 0.8441091 0.8938662 0.9415351 0.86947525 0.9872537
0.82054245 0.87798023 0.889062 0.9009733 0.90659386 0.87241685 0.8788793 0.8523163
0.9636945 0.81651205 0.7435918 0.7574582 0.91310114 0.94547284 0.8955375 0.84757715
0.8371085 0.86910903 0.982651 0.9174243 0.89761454 0.8696684 0.86849403 0.84682864
0.91318387 0.8142414 0.8476199 0.79670566 0.8819295 0.84405303 0.88721067 0.9103272
1.0159404 0.8674888 0.8679439 0.8801395 0.85778785 0.87942654 0.8683617 0.92856663
0.8088132 0.8917523 0.92895895 0.77043235 0.7788776 0.91164494 0.9031597 0.8930677
0.8845093 0.96282715 0.81852233 0.9537822 0.89721155 0.88924515 0.8660995 0.8493142
0.84064186 0.7636503 0.91886145 0.8721485 0.8345265 0.91822463 0.7846231 0.8737805
0.9285825 0.8657466 0.81792176 0.8351397 0.9931789 0.8584424 0.87737817 0.95815426
0.89996976 0.8530954 0.8409655 0.8323805 0.719628 0.8327839 0.9024802 0.8539276
0.76907134 0.83391154 0.778719 0.9191658 0.9307449 0.95619726 0.79151034 0.9083109
0.8279744 0.84769535 0.905421 0.9184473 0.93601954 0.8575588 0.8527626 0.79240775

policy_network.3.bias f4 [256]
00000000: b2c1 b2be 38e4 cf3e 5e1a 9ebe cb8c aa3e
00000010: 397b 9a3e 5413 463e 210e 92be 9492 b33e
00000020: ced3 3f3e 00dc 103e 5f9a 693e ffc4 b73e
00000030: 4ac1 fb3d 960a 663e ba16 0ebd 61d2 7abe
00000040: 2534 a6be 2e54 b73e aa39 3ebe db2d ee3e
00000050: 8f3d a63e 332b 603e 3022 86be c882 87be
00000060: b2f1 583e 3c31 68be fa40 bd3e 42ad 18be
00000070: e650 b0be 85df abbc 8f0e a1be 0cfd c73c
00000080: 828a 923e 9e75 18be 7368 a03e 2ee4 52be
00000090: cddc b73e bf0a 97be a739 73bd 63e3 1a3e
000000a0: b2ba 6fbe e13f 813e 8a20 a8bd d402 b4bd
000000b0: 63c0 ac3e aee5 883e bffe 333e b403 1b3e
000000c0: 68c0 82be 1072 323d 8584 9fbe 36e5 c4be
000000d0: 7d95 46be 3703 833e b0ec 66be ea24 3bbd
000000e0: 1167 8fbe 2671 43be 84ad 763e 2ea4 babe
000000f0: 10bd 5dbe ef98 293e 39c7 5c3e dae0 9cbe
00000100: f5cd 6c3e 41fb 5ebe 5343 283d 5662 6a3e
00000110: 05bc a4be ced8 41be e108 983e 7ac9 39be
00000120: f470 86be a9d7 4f3e ea9e a2be 7b58 abbe
00000130: 0ae7 adbe c11d 65be bc08 0b3e 582f 2cbe
00000140: c2a3 6c3e 55a6 903e 8c56 95be a64b b53e
00000150: 0bd4 273d ad87 6c3e 3376 693e a472 45bd
00000160: 4ddf 96be 4fca 77be b5ed 053f 5fae 8d3d
00000170: 2d7d 13be 29bb 8cbe 6602 dc3e 0d6c 4f3e
00000180: 15e7 9ebd 6f62 663c a201 86be fcd3 9e3e
00000190: 092b 513e 8a07 443d f412 5ebe 1975 813e
000001a0: df3a e3be 3bbe e2bd 2b5e 963e a3fe 1d3f
000001b0: 141a 1cbe 5363 aebe ee59 ac3e 1aa2 89be
000001c0: 2b85 bd3e d3c1 debe d3e2 b83e b0e9 a33e
000001d0: 0244 82be 50d7 8d3d 5899 9f3e 4e21 783e
000001e0: 2b2d 97bd 50d5 b6be 83b7 a73e d6e2 9ebe
000001f0: 301c 61be 204e 92be 2c0e b33e c49a acbe
00000200: be8e a83e 0557 b53e 0ad7 12be 4647 b9be
00000210: 3fce cebe d8e4 8ebe 3f06 63be 7916 8bbe
00000220: b0d6 48be 8840 afbe 173d 9d3e 2ecb c03c
00000230: 6830 80be 2d70 a9be c85e a33e 5ac8 923e
00000240: 03ce 953e 4c44 d73d af5c 763e 2f59 9abe
00000250: 50bb a93e ed01 cb3e b628 15be bb3c ae3e
00000260: 73f0 a63c 8616 83be f1fc b6be 4f02 1abe
00000270: 5793 213e 43e2 adbe 043d aa3e 6eaa 8c3e
00000280: 8bda c3be 71a3 7c3e 1a8a 72be d022 b83e
00000290: 6f6d b2bd 5e1b 1abe c57d 923e 6c24 83be
000002a0: cc55 8a3e 21d1 1ebe be08 9d3e 36a7 593e
000002b0: 4849 cb3c 09a5 ad3e 77cd 3cbe 4863 0dbe
000002c0: 4d1f 7d3e 059c f5bd e7a4 b83e effd 94bd
000002d0: b381 adbe 754f 7cbe 2658 8d3e 0526 2a3d
000002e0: 700c 183e 176e 25be 07b1 7abe 1c11 b3be
000002f0: 458a 3dbd c9e0 44be 2444 ab3e 12ca 6d3e
00000300: 804c a3be 57b0 a53e a753 22be 2d0f ad3d
00000310: d9cb d8bd bb1b a83e 6c1a 9ebe 6fdc 953e
00000320: a84d 643d ad25 963e 8649 dbbe c136 9bbe
00000330: c0db 4c3e a362 92be 634f 7dbe a62c 81be
00000340: 27ca aebe 09c0 a9be 000c e63e 5b4c 903e
00000350: a769 8c3e 02d4 e6be d618 8cbe ca4a fabd
00000360: b888 b33e faf1 0abf 44c8 8bbe 2d19 df3c
00000370: 300c e5be 3909 a03e c1d9 9fbe d0f7 05be
00000380: f702 88be 3a15 86be 45ea d23d e08d 2a3e
00000390: d1f0 56be d271 acbe 00ad a53e f4ce b23e
000003a0: 76d2 7fbe 40f2 5d3e 323c 7cbe 602b 7dbe
000003b0: 0ede e53c 09f2 b4be 7ff6 46bc 98c3 a9be
000003c0: bdbb c6be 3606 97be 4297 3fbe 9739 a93e
000003d0: 98a2 76be d87c aebe 8b90 783d 05ba a6be
000003e0: c2e0 af3d eba0 ba3e 6af9 0c3d 3771 2c3e
000003f0: 7cd0 a63e ead4 babe 3387 173d b0d3 8cbe
-0.34913403 0.40603805 -0.30879492 0.33310542 0.30172136 0.1934331 -0.28526405 0.35072768
0.18733141 0.14146423 0.22812794 0.35892484 0.12292726 0.22464976 -0.034689642 -0.24494316
-0.32461658 0.35806412 -0.18576685 0.4651936 0.3246884 0.21891479 -0.26197958 -0.26466966
0.2118595 -0.22675031 0.36963636 -0.14909843 -0.3443672 -0.020980606 -0.3145642 0.024412654
0.28621298 -0.14888617 0.31329688 -0.20594856 0.35910645 -0.29500386 -0.059381153 0.15125804
-0.23411062 0.25244048 -0.08209331 -0.08789602 0.3374053 0.26737732 0.17577647 0.15138131
-0.2553742 0.04356581 -0.31155792 -0.38456124 -0.19392963 0.2558839 -0.22551227 -0.0456895
-0.2800832 -0.19086131 0.24089628 -0.36453384 -0.21654153 0.16562246 0.21560372 -0.30640298
0.23125441 -0.21775533 0.04107983 0.22889075 -0.32174698 -0.1893036 0.29694274 -0.18143263
-0.2625805 0.20297112 -0.31761867 -0.33465943 -0.3396533 -0.22374631 0.1357755 -0.16814935
0.23109344 0.282519 -0.29167593 0.35409278 0.040973704 0.23098631 0.22798996 -0.048205033
-0.2946724 -0.24198268 0.5231584 0.06918024 -0.1440322 -0.27486542 0.4297058 0.20256062
-0.07758919 0.014061554 -0.2617312 0.31021106 0.20426573 0.047858752 -0.21686918 0.2528465
-0.44380853 -0.1107144 0.2936872 0.6171667 -0.15244323 -0.34060153 0.3366236 -0.26881486
0.37015662 -0.4350725 0.36110553 0.32014227 -0.2544251 0.06925833 0.3117168 0.24231455
-0.07381662 -0.3570962 0.32757196 -0.31032437 -0.21983409 -0.2857523 0.3497175 -0.33711827
0.32921404 0.35417953 -0.14339843 -0.3618719 -0.40391728 -0.2790897 -0.22170351 -0.27165583
-0.19613147 -0.3422892 0.3071067 0.023534384 -0.2503693 -0.33093396 0.3190825 0.2866848
0.29258737 0.105110735 0.24058793 -0.30146167 0.3315072 0.39649907 -0.14566311 0.3403071
0.020378327 -0.25603122 -0.35739854 -0.15039943 0.15778862 -0.33961686 0.33249676 0.27473778
-0.38252673 0.24671723 -0.23685494 0.3596406 -0.08712279 -0.15049502 0.2861158 -0.25613725
0.27018583 -0.15509464 0.30670732 0.21255192 0.024815217 0.33914974 -0.18437754 -0.13807404
0.24718972 -0.11992649 0.3606331 -0.072749965 -0.33888015 -0.24639685 0.27606314 0.041540165
0.14848495 -0.16155277 -0.24481593 -0.3497399 -0.046274442 -0.19226374 0.33450425 0.23221615
-0.31894302 0.323611 -0.15852223 0.0845016 -0.10585756 0.32833657 -0.30879533 0.2926974
0.05573812 0.2932562 -0.4282953 -0.3031521 0.20005703 -0.2859088 -0.24737315 -0.25229377
-0.34138605 -0.33154324 0.4493103 0.28183255 0.27424356 -0.45083624 -0.27362698 -0.12221296
0.35065246 -0.54275477 -0.27301228 0.027233684 -0.4473586 0.31257036 -0.3122082 -0.13082814
-0.26564762 -0.2618807 0.102985896 0.16655684 -0.20990302 -0.33680588 0.3235855 0.34923518
-0.24982628 0.21674442 -0.24632338 -0.24723577 0.028059985 -0.35340908 -0.01214373 -0.3315704
-0.38815108 -0.29496926 -0.18710044 0.3305175 -0.24085462 -0.34079623 0.060684722 -0.32563797
0.08587791 0.36450896 0.034417547 0.16840063 0.32580936 -0.36490566 0.03699417 -0.27505255
