Results/BTC-USD/DeepRL; DATA_KIND(AutoPatternExtraction); BEGIN_DATE(None); END_DATE(None); SPLIT_POINT(2018-01-01); StateMode(5); WindowSize(12); BATCH_SIZE10; GAMMA0.7; REPLAY_MEMORY_SIZE20; TARGET_UPDATE5; N_STEP10/model.pkl (torch, 171189 bytes, 14 tensors)

policy_network.0.weight f4 [128, 48]
00000000: d4fd 12be 4305 e6bc a669 01be f095 5fbe
00000010: 20ed 42be 9d48 f53c 6e07 e3bd 28f6 1abe
00000020: e643 66bd fe40 2fbd ba8e 42be 4c3a 27be
00000030: 804e fcbd 255e 15bb 0b29 a5bd 869e ae3d
00000040: 51a4 123d e7fc db3d b921 813d 060a 213d
00000050: 5c31 b6bd c278 cebd 0dac 18bd 1b43 ee3d
00000060: 9e92 123b 3810 923d c587 b1bd b8fc 21be
00000070: b062 123d 5943 35bd 56a6 e8bd c5df 28bd
00000080: 8898 05be b7fd 24bd b6f2 c2bb 0de7 503d
00000090: d720 0b3d a0b3 a9bd c202 acbd c47c 983d
000000a0: ad06 ea3c c5b5 d53c a9f1 19be dd6f 073d
000000b0: 0b00 a5bd 533d 02be cbc2 6fbc f35c 01be
000000c0: e517 edbb 79d6 4ebd ddb0 0dbe 9b5b 52be
000000d0: 30af 9fbd 74b1 ddbd bb52 63bd fdb0 153d
000000e0: c4bb dc3d 7e7a 94bd 9d64 bfbd 0676 07bd
000000f0: bf82 32bc 7714 aabd 3bac d43d 83a6 313e
00000100: 7a51 aebd 0211 9f3d cbe8 dfbc 8223 86bd
00000110: 9e64 e3bd 22f9 cc3d c58e b1bc 14ad 6a3d
00000120: c8bb 81bd e19b e13d b474 12be 83b6 26be
00000130: e6b4 df3c 3221 06bb 741a 39bc 9655 fb3c
00000140: bc9c 23bd e3e5 a5bc 3311 8abd dd9a de3c
00000150: e0b1 003d 3983 91bd d3b2 e73c 578e 233c
00000160: 39b5 97bd 87ec e63d a6e9 c1bd 9ab3 953c
00000170: 6927 4f3d 47af 53bd 38fa 76bc 4c8d 6fbe
00000180: 4f09 843e ce4d 8f3d 6895 cb3d 3a0e 883d
00000190: 0e02 383e 791f a63d 9c87 583d cade 063e
000001a0: 50c5 d2bd 2a6c 0c3d 7ae3 91bd 8498 a63d
000001b0: 3f68 f13d 8a11 203d a455 713c cb1f 69bd
000001c0: 839f 79bd ccfe 073b 8b7c acbd 84ad 20be
000001d0: b682 0fbe 68ae 1eba 34a9 7c3d aa9e a7bd
000001e0: 4243 bbbd a98e d5bc 8d5d 3bbe d0ae d4bd
000001f0: 2667 f5bd 2bcc a7bd 220f fd3c feb6 07be
00000200: d7f9 33be 34b4 1fbe 9ae5 13bd 391f ae3b
00000210: 16ed e2bd 563a ed3d 2050 a73d 8abc 44bd
00000220: ed58 a13d 880d f63d 8219 e9bd 56c0 c1bd
00000230: 77dc 05be 934b 11bd 1d32 fb3d 06cf 4a3e
00000240: e23b 203d cfe2 9dba f310 2abe 1482 7abd
00000250: 2a58 673d d690 98bd e099 7cbd 5ea7 2bbd
00000260: 7a2c 703a dc1f 083c a8bb eebd e903 4b3c
00000270: a658 ecbd bf2b b1bd dc36 f53c cd10 033e
00000280: 7954 663d 14b5 09bc 5b30 cc3c 0cc0 aabc
00000290: 196b 853d bf55 d1bc d9db e7bd c171 f5bc
000002a0: a110 08bd 4a54 8a3d e8ea d23c 47cc 74bc
000002b0: 1e46 213d 5773 1fbe 6a5c 153e f04f aabd
000002c0: 64e4 de3c 56b4 f43a 9508 743d 64af f13d
000002d0: 71c4 cb3a 7f17 adbb 2384 b73d d905 0ebe
000002e0: cc68 843d b720 2c3e 408c cc3d 4acb 72bd
000002f0: 2194 39bd dacd 88be 0c74 3fbe cc2b c5be
00000300: 13bc e6bd 2985 29bd ef78 2abd 03c5 ac3d
00000310: 5dc1 ccbd b77c 88bd 79de bdbc 0c07 27be
00000320: 607e fbbd 9e34 cebd 557b a3bd f006 04bb
00000330: ac56 103e a923 863d b0d9 c33b 2863 b43d
00000340: 6ec3 ec3d 53b2 09be 25f2 debd 75a0 e33d
00000350: c8e6 3d3e 9974 e23d 7677 b5bd dcee a1bd
00000360: de8f 273e 24d6 f3bd 6975 babd c732 ba3d
00000370: eeaf a0bd 1988 9d3d b178 e1bc 7331 2d3d
00000380: 9458 85bd d287 823d f1a4 9a3c bfc6 df3d
00000390: 5deb cd3d ea50 083e c7ab eabd 0363 2dbe
000003a0: b46f b5bd 4132 eebd 0ba6 393c ab75 453d
000003b0: 96b7 ad3c ac0c 493e 375e 6e3e 67ac 993e
000003c0: 79d7 ab3d 7a91 53be ba42 b7bd facb 4bbd
000003d0: a06d b6bb b916 03be 19c2 cd3b f3f9 32bd
000003e0: 2780 8e3d a4cb 343b 4ea3 d4bd abe5 16be
000003f0: c008 db3c f967 23be 071c 0ebd c142 03be
-0.1435464 -0.02807868 -0.12637958 -0.2183454 -0.19035769 0.029941851 -0.110854015 -0.15132964
-0.056217097 -0.04278659 -0.18999758 -0.16330832 -0.1231966 -0.002279171 -0.08064469 0.0852633
0.035801236 0.10741597 0.0630526 0.0393162 -0.08896133 -0.100816265 -0.037273455 0.11633893
0.0022365223 0.07132 -0.08668474 -0.15819061 0.035738647 -0.04425368 -0.11359851 -0.04122903
-0.13046467 -0.040281024 -0.0059493436 0.051001597 0.033966865 -0.08286214 -0.083989635 0.07445672
0.028567636 0.026087651 -0.15033592 0.033065666 -0.08056649 -0.12718706 -0.014633845 -0.12633114
-0.0072355145 -0.050497506 -0.13836999 -0.20542757 -0.07797086 -0.10824862 -0.05549882 0.036545742
0.10778001 -0.07249926 -0.09345362 -0.03307154 -0.01089543 -0.083046846 0.10384413 0.17348675
-0.08511634 0.07766916 -0.027332684 -0.06549741 -0.111031756 0.10008456 -0.021674523 0.057293966
-0.063346446 0.1101606 -0.14302331 -0.1628056 0.027307939 -0.0020466563 -0.011297811 0.030680459
-0.039944395 -0.02025122 -0.06741562 0.027173454 0.031419635 -0.07105107 0.028283512 0.009982667
-0.07407612 0.11275583 -0.09468393 0.018274117 0.050574694 -0.05168083 -0.015074305 -0.23393744
0.25788352 0.06997262 0.09940606 0.066433385 0.17969534 0.08111472 0.052863702 0.13170925
-0.102915406 0.03428284 -0.07123466 0.08134559 0.117874615 0.039079227 0.014729891 -0.056915086
-0.060943138 0.0020751236 -0.08422192 -0.15691191 -0.14014706 -0.000605321 0.061684802 -0.0818456
-0.09143688 -0.026069002 -0.18297406 -0.10384905 -0.11982565 -0.08193239 0.030891005 -0.132534
-0.17575775 -0.15596086 -0.036107637 0.0053137806 -0.11080377 0.11583392 0.081695795 -0.048031367
0.07878289 0.120143 -0.11381818 -0.09460513 -0.13072382 -0.035472464 0.12265418 0.19805536
0.03911961 -0.0012045744 -0.16608028 -0.06115921 0.056480564 -0.074495 -0.061670184 -0.04190766
0.0009161901 0.008308377 -0.11656886 0.012391069 -0.11540346 -0.08650922 0.029933386 0.12799378
0.056232903 -0.008404989 0.024925401 -0.020843528 0.06514568 -0.025553582 -0.113212295 -0.029961469
-0.033218984 0.06754358 0.025746778 -0.014941282 0.03937351 -0.15571342 0.14586034 -0.08316028
0.027208515 0.0018669467 0.059578497 0.11801031 0.0015546215 -0.005282342 0.0896075 -0.13869418
0.06465301 0.16809355 0.09987688 -0.059275903 -0.045307282 -0.26719552 -0.18696612 -0.38509977
-0.11266341 -0.041386757 -0.041619238 0.084360145 -0.099978186 -0.066644125 -0.023177372 -0.16311282
-0.122799635 -0.1006863 -0.07982508 -0.0020145737 0.14095563 0.065497704 0.005976878 0.08807975
0.11560713 -0.13446932 -0.10886029 0.11114589 0.18545067 0.110573955 -0.08860676 -0.07906887
0.16363475 -0.119060785 -0.091044255 0.09091716 -0.07846056 0.07691974 -0.02752337 0.042283487
-0.065110356 0.06373562 0.018877478 0.1092658 0.100546576 0.13312116 -0.11458545 -0.16932301
-0.08859196 -0.11630679 0.011331092 0.04820792 0.021205705 0.1963374 0.23278128 0.30014345
0.083907075 -0.20660964 -0.08948274 -0.049755074 -0.0055672675 -0.12801637 0.0062792418 -0.0436954
0.06958037 0.00275872 -0.103827104 -0.14736049 0.02673757 -0.15957631 -0.034694698 -0.12818433

policy_network.0.bias f4 [128]
00000000: f913 a83d 2bbb d73c 732d ab3d c44f 02bd
00000010: 2bce 2bbc cd31 723d 0a98 b83d 8abe f33d
00000020: fbac af3d 28c3 963d 291d 503d fa9a fe3d
00000030: 266e 3fbd e734 d23d 0b5e 1e3e a674 21be
00000040: 18ae 97bd a260 ff3c fe78 b7bd e171 a7bd
00000050: 3de6 65bc 7a92 133e 2e98 163d 35d4 04be
00000060: 66db 0cbd bf37 de3d ef87 8eb9 6831 6a3d
00000070: 004c 45bd 3728 6c3d f298 e43d d546 28be
00000080: da4f 953d 06c8 0bbe 58a4 4dbd 6d18 e73d
00000090: 5920 44bd 2f14 6abd 42b3 4bbd 925f dd3d
000000a0: 4eff 343d 840f 17be a8da 0ebe 1e2e d8bc
000000b0: 083e 67bd bd4e c2bd 3e2c 1abe fd1a 9bbd
000000c0: b293 733d 4f6a 6a3d 8c56 eabd b46f 05bd
000000d0: 1e6b 2b3e 65f4 1abe c75d 52bd a78e b83d
000000e0: 0893 71bd 82a8 44bc b6d6 813d a5cc b03d
000000f0: 468b 96bd d6d0 e13d a142 ca3d 1d7d 423e
00000100: ae6a c9bd 0c0c 0d3c 8ab9 dd3d 5708 e33d
00000110: 6d4c 8f3d 8348 0cbd a3a4 f63d 0651 96bd
00000120: 8d18 0d3e e416 49bd 5090 b43d 281a 53bd
00000130: 4041 d0bc a7a8 21bd 110d 87bd d090 5a3d
00000140: fadd bebd 79d9 c93d 05e0 15be c372 2f3c
00000150: 1d66 6c3d 4d8f 98bc 39ea b6bd 81e5 853d
00000160: e2f9 a4bd b151 11be 02a8 05bd 0455 17bc
00000170: 8657 e03c ea8f 6a3e 7e70 c0bc 4932 353d
00000180: 6dc9 d8bd 3f14 7b3d 1893 d1bd e0b5 da3d
00000190: 47f6 abbd 7b79 9f3d 2908 4e3d 80ea 05be
000001a0: bb55 2e3b cffe 91bd e052 1ebd b004 92bd
000001b0: 771d 9fbd 0d2c f63c 547c 45bd c861 0a3e
000001c0: dbc9 77bd bf73 073e 0aa3 453d 8fbd 8bbd
000001d0: 8320 90bc 4b87 c1bd f9c2 11be 2713 5ebd
000001e0: 9c8a 9b3c 4a51 ccbd 55a0 0d3d aba2 21be
000001f0: 35eb f33c 3bd7 28be 0661 eebd 0539 493d
0.082069345 0.026334366 0.08358278 -0.03181435 -0.010486166 0.059129525 0.09013374 0.11901577
0.08577915 0.07361442 0.05080906 0.12431903 -0.046735905 0.102639966 0.15465562 -0.15767154
-0.074062526 0.031174008 -0.08958624 -0.081760176 -0.014031944 0.14411345 0.036766224 -0.12971576
-0.034388922 0.108504765 -0.0002718563 0.057176024 -0.048168182 0.05765554 0.111619845 -0.1643327
0.07290621 -0.13650522 -0.05020556 0.11283956 -0.04788241 -0.057148155 -0.0497315 0.10809244
0.04418879 -0.14752012 -0.13950598 -0.026389178 -0.056455642 -0.094876744 -0.1505594 -0.07573507
0.059467025 0.05723029 -0.11442289 -0.03257723 0.1674008 -0.15132292 -0.051358964 0.09011584
-0.05897811 -0.012003066 0.06339781 0.08632783 -0.07350783 0.110261604 0.0987599 0.1899304
-0.09834801 0.008608829 0.108264044 0.11085575 0.06996999 -0.03424884 0.12043121 -0.07339673
0.13778897 -0.049094096 0.08816588 -0.051538616 -0.025421739 -0.03946748 -0.06594289 0.05336076
-0.093196824 0.09855933 -0.14636238 0.010708514 0.05771457 -0.018623019 -0.08931393 0.06537915
-0.08055474 -0.14191319 -0.032630928 -0.009236578 0.027385484 0.22906461 -0.02349114 0.04423741
-0.10585294 0.061298605 -0.10233134 0.10679221 -0.08396583 0.077868424 0.05030075 -0.13077736
0.0026601392 -0.07128679 -0.038653255 -0.071298 -0.07769292 0.030050302 -0.04821427 0.13513863
-0.06049524 0.13227747 0.04825119 -0.06823265 -0.017593628 -0.09449633 -0.14234532 -0.054217484
0.018986993 -0.09976442 0.034576733 -0.15784709 0.029775241 -0.16488354 -0.116395995 0.049126644

policy_network.1.weight f4 [128]
00000000: 95b0 823f e836 753f 3bdd 7b3f 8c3d 8a3f
00000010: f3f4 873f 786e 6a3f 29ab 8a3f 63ae 623f
00000020: d24f 7a3f 7260 633f 6842 7c3f dc41 8c3f
00000030: e540 893f a21f 803f 0c61 683f 8365 8b3f
00000040: d577 7a3f 3ec7 6e3f c242 8b3f fc3a 763f
00000050: e58e 793f 964d 823f c522 883f 53f1 6e3f
00000060: e120 823f 1757 863f 5571 5e3f 4165 763f
00000070: 4044 713f 049a 7d3f 4d2b 673f 303f 773f
00000080: 308f 753f 15d6 773f c327 683f 4449 8a3f
00000090: e7c6 803f c355 8a3f 8721 713f 152f 803f
000000a0: 5a6e 773f a458 903f 4609 843f fd07 7e3f
000000b0: 0cf9 7c3f b86c 8b3f e2dc 7f3f dac2 853f
000000c0: 92e6 6a3f 8e03 873f cde6 8c3f db24 553f
000000d0: 03b1 7f3f 239a 8b3f ee32 703f 11fa 733f
000000e0: 141b 753f 0df2 763f 8290 653f fda5 843f
000000f0: c1e8 823f 1ed1 7d3f 788f 5f3f 74a0 843f
00000100: 9f13 6a3f a85b 853f 6849 813f 81b3 8b3f
00000110: d944 6e3f 7f76 763f 8f9e 843f a596 833f
00000120: 76c8 873f 9e4b 783f c432 7d3f ac3e 893f
00000130: bb54 853f 1204 6b3f fde6 793f 8b56 803f
00000140: f30b 823f fb8a 813f 77f9 743f 08c3 603f
00000150: bc8c 863f 9d64 7b3f cbcf 8b3f c660 733f
00000160: ae79 843f e7cb 7f3f 4b3d 803f 04da 843f
00000170: 021b 763f 8381 7b3f e2ec 733f 57d6 893f
00000180: d84e 843f 1766 833f 3386 753f a033 7c3f
00000190: 7dab 813f 36e5 783f 3b6d 833f 8490 863f
000001a0: 2549 963f 8795 7a3f e141 6c3f 61b2 7a3f
000001b0: cf99 863f 253e 773f 6358 563f dc69 843f
000001c0: 1e27 853f 9e8e 853f 45d9 7d3f bbeb 7d3f
000001d0: 602b 853f b948 723f 8c38 613f e860 833f
000001e0: 296b 713f 4688 793f 1c85 873f 217c 713f
000001f0: a714 743f efb5 873f 813f 743f cd45 703f
1.0210139 0.95786905 0.98384446 1.0800033 1.0621628 0.9157481 1.0833484 0.88547343
0.97778046 0.8881904 0.9853883 1.0957599 1.0722929 1.0009654 0.9077308 1.0890354
0.978391 0.9327277 1.0879748 0.96183753 0.97483665 1.0179927 1.0635611 0.9333698
1.0166284 1.0495328 0.8689168 0.9624825 0.94244766 0.99063134 0.90300447 0.9658079
0.9592161 0.9681104 0.9068567 1.0803609 1.00607 1.0807422 0.94191784 1.0014368
0.9665276 1.1277051 1.031533 0.9923094 0.98817515 1.0892553 0.99946415 1.0450089
0.9175807 1.054796 1.1007935 0.8325936 0.99879473 1.0906414 0.9382771 0.95303446
0.9574444 0.9646309 0.89673626 1.0363156 1.0227281 0.9914721 0.8732829 1.0361466
0.9143619 1.0418596 1.0100527 1.0914155 0.93073803 0.9627456 1.0360888 1.0280348
1.0608051 0.9699038 0.9890559 1.0722251 1.0416483 0.91803086 0.97618085 1.0026411
1.0159897 1.0120538 0.95693153 0.87797594 1.0511699 0.982004 1.0922788 0.9506954
1.0349634 0.99920505 1.0018705 1.0379033 0.9613496 0.98244494 0.9528333 1.0768536
1.0336561 1.026553 0.95907897 0.98516273 1.0130459 0.9722475 1.026771 1.0512853
1.1741072 0.9788441 0.92288023 0.97928435 1.0515689 0.965792 0.8372862 1.0344806
1.0402563 1.0434148 0.9915965 0.9918782 1.0403862 0.94642216 0.8797691 1.0263948
0.9430414 0.9747356 1.0587497 0.9433003 0.9534401 1.0602397 0.954094 0.9385651

policy_network.1.bias f4 [128]
00000000: 5ea7 543b fc27 523d c845 c93c 9ea1 ca3b
00000010: 3cfe 0e3d 570c 123d d6a2 323b f709 5ebb
00000020: 6798 c1bc c90b 54bc 950b ed3c af32 603d
00000030: ff52 bf3c e340 1d3b 3966 24bd 3f30 4b3c
00000040: 4df4 033d 6414 d4bb ac0d 023b 8c3d 6bbc
00000050: 655a 2f3d 091a ec3c c738 29bc a404 533d
00000060: 3fef a0bc 3953 d3bb fa3e e63c 9993 353c
00000070: 1ae9 1cbd 39db d13c 0ee5 8d3b 8048 cfbc
00000080: fc92 10bb 774a a83c 2e1e 9b3c 0634 813c
00000090: 698c b63c 8fdd bbbc 96be 74bc 7d6e be3b
000000a0: 355a 1b3c 9a12 253c 9f68 b93c 4a25 dc3c
000000b0: 6484 e63a fb4e 423c b153 ce3c 8cc7 e03b
000000c0: 4361 5b3c defc 10bc 1e15 f13c efbf c43c
000000d0: 14c8 bdbc f5fe 263c 5737 49bc a85a dabb
000000e0: ba31 c83b 2e39 00bb 3475 c3ba f273 8f3a
000000f0: 59cc 123c e6fa 81bc a111 58bc 52b3 6a3c
00000100: 11af 12bd 7b87 1cbc e468 4db9 29ac 0fbc
00000110: 2946 123c 4063 79bc 9999 cfbc 8607 c7bc
00000120: d2e1 efbb 9911 c03c 63e1 92bc d59f 933c
00000130: b0dc 24bc 172b 65b9 a139 e9bc 5d18 3f3d
00000140: 3e7c 293b 815e a8bc 4e3d 92ba f0c7 cf3a
00000150: 52cc a4bc 8de0 b53b 9de1 803d 8dbf 283c
00000160: a281 84bc 14bc 4abd fc74 af3b 05e7 6bbc
00000170: 6745 e4bb 1451 98bc ca07 0ebd 1595 74bc
00000180: 2dbd ff3c 839b ad3c ed7b c0bb 96c4 37bc
00000190: 1a2f 22bc 0347 b83c 3962 883c 70f0 92bc
000001a0: 52ea 0abd 3dfa 953b 9aa6 9b3c d9c8 223c
000001b0: 5017 263d ac7c 583a 588e 27bc 6d41 1e3c
000001c0: 8bde a6bc 4ce5 c93c 3685 b3bc 8e4e 333c
000001d0: 524e 973c ff89 1ebd e659 2cbb 2002 a73b
000001e0: c83a 0bbd 2b48 55bb cd99 8fbb bd12 0bbd
000001f0: 8570 21bd 7ee4 64bc f88d a3bc 704d 2a38
0.0032448391 0.051307663 0.024569407 0.006183817 0.034910426 0.0356563 0.0027257702 -0.0033880451
-0.023632241 -0.012942263 0.028936187 0.054735836 0.023355005 0.0023994974 -0.04013655 0.0124016395
0.032215405 -0.0064721573 0.0019844575 -0.014357936 0.042810816 0.028821008 -0.010328478 0.051518098
-0.019645331 -0.00644913 0.028106201 0.011082553 -0.03830824 0.025617229 0.004330284 -0.025303125
-0.0022060266 0.02054332 0.01893529 0.015771877 0.02228375 -0.022932796 -0.014938017 0.005811511
0.009481956 0.010075236 0.022632895 0.02687325 0.0017587063 0.011859651 0.025186392 0.0068597253
0.013389888 -0.008849351 0.029429015 0.024017302 -0.023166694 0.010192622 -0.01228126 -0.006663639
0.0061094435 -0.0019565332 -0.0014912249 0.0010944589 0.008959853 -0.015866708 -0.013187797 0.01432498
-0.035811488 -0.009553785 -0.00019589398 -0.0087690735 0.00892786 -0.015221417 -0.025341796 -0.02429558
-0.007320621 0.023445891 -0.017929738 0.01802055 -0.010062382 -0.00021855194 -0.028469862 0.046654094
0.0025861408 -0.020552875 -0.0011157186 0.0015852433 -0.020116959 0.00555045 0.06293032 0.0102995755
-0.016175095 -0.04949577 0.005354522 -0.014398341 -0.006966281 -0.018593349 -0.034675397 -0.014928122
0.031218136 0.021192318 -0.005874148 -0.011216303 -0.009898925 0.022494799 0.016648399 -0.017936915
-0.03391487 0.00457695 0.01900034 0.009935581 0.040549576 0.00082583237 -0.0102268085 0.009659153
-0.020369789 0.02464547 -0.021914106 0.010944022 0.018469963 -0.038705822 -0.00262987 0.005096689
-0.033991605 -0.0032544236 -0.004382348 -0.033953417 -0.039413948 -0.013970492 -0.019965157 4.0603278e-05

policy_network.1.running_mean f4 [128]
00000000: eb9c 8cbf 1ee9 1bbf 4303 6dbe 4cbe 0ebf
00000010: 449d 2b3e bc1e 9dbe d418 693e 1731 f9be
00000020: 8755 44bf 5df0 733f a581 133e a02e 153f
00000030: ac53 a93f 3384 ba3e fce3 2e3f bd21 a53a
00000040: f9ff 20bf dda9 4cbf 5ebe a7bf b40f 0b3f
00000050: 8e53 863e 4701 353e abe9 80bd 1089 bebe
00000060: 715e fbbe 5431 a33f 19d3 013f 2b27 72bf
00000070: 8d8c 8d3f 150b e13e 6d9d 783f 9bb1 203f
00000080: c547 763f b7de b3be 819a 52bf 27b0 113e
00000090: 691a 9a3f 9a41 e8bd 0a09 803f fa18 13bd
000000a0: 4ebd abbf 1df0 e23c 11e4 79bf de4c 4abf
000000b0: 3319 19bf d945 133f 14da 94be 30f3 a03a
000000c0: fab7 a13f fcd4 31be 841b 2abf 076a 20bf
000000d0: e526 8b3f b3b4 4c3f 35c8 003f 1bbd c13d
000000e0: aa0a 26bf 5d63 e03e 2be5 973f 837e 613e
000000f0: 6386 5bbe 576f 5bbf 8d5f 293f 41c4 ae3e
00000100: 01c0 463f 7893 0fbf c87f 1d3e aa15 b2bc
00000110: 6f72 19bf 352f 013e c9f0 54be 268f 21bf
00000120: 6d27 0dbc 7f5b 9a3e 3ddd 083f c8b1 7ebe
00000130: d4a2 ddbe aa86 893f d7d2 873e 8931 8a3e
00000140: a45f e23c 6b7d 8f3b 7ce9 0a3f 5f78 0e3f
00000150: 6302 983e 81ec dfbd e7a1 5d3e 3b92 963f
00000160: b35a 91be 72dd 1d3f 68b2 5a3d 3b23 9cbf
00000170: 47c2 523f 0f88 933f 7b53 c53e 1f22 06bc
00000180: ad57 d53d 5776 1a3e 328d 223f 21b3 1dbe
00000190: 58dd 723f 2971 3c3f b513 563f cacd 8e3e
000001a0: ebba 22be b204 86bf 4d2a 6c3f 1e2c 583f
000001b0: 5ae2 86bd 29f1 26bf 40cc 643f 608a 8cbf
000001c0: 08fc 913f 3168 f9bd 063a 433f a96e 883f
000001d0: df35 c23d 23d3 65bf 837e 5a3f 49ec 47bf
000001e0: 8e71 66be bd0f a63e cfe5 7b3e 1d06 063f
000001f0: 88da 473f 3e21 44bf 2e26 8a3f 3c3f 73be
-1.0985388 -0.60902584 -0.23145775 -0.5575912 0.16759211 -0.3068751 0.22763377 -0.48670265
-0.76693004 0.9528864 0.14404924 0.5827427 1.322866 0.36428985 0.68316627 0.0012598556
-0.62890583 -0.7994669 -1.310497 0.54320836 0.26235622 0.17676269 -0.06294569 -0.37213945
-0.4909549 1.2749429 0.50712734 -0.94591016 1.1058518 0.43953767 0.9711521 0.62771004
0.9620326 -0.35130855 -0.82267004 0.14227353 1.203931 -0.113406375 1.0002759 -0.03591249
-1.3417146 0.027702386 -0.97613627 -0.7902354 -0.59804076 0.57528454 -0.2907263 0.0012279507
1.263427 -0.17366403 -0.66448236 -0.62661785 1.0871245 0.79963225 0.5030549 0.09459897
-0.6486002 0.43825808 1.1866812 0.22020917 -0.21437983 -0.85716766 0.66161424 0.34134105
0.77636725 -0.56084394 0.15380776 -0.021738846 -0.59940237 0.12615664 -0.20794977 -0.6310905
-0.008615357 0.3014793 0.5346258 -0.24872506 -0.4328829 1.0744221 0.26528046 0.26990917
0.027633496 0.0043789647 0.5426252 0.5565242 0.2968932 -0.109337814 0.21643792 1.1763376
-0.2838951 0.61666024 0.053392798 -1.2198251 0.82327694 1.1525897 0.38540253 -0.008186846
0.104171135 0.15084206 0.63496697 -0.15400364 0.94868994 0.7361017 0.8362382 0.2789138
-0.15891616 -1.0470183 0.92252046 0.8444232 -0.06586142 -0.6521173 0.8937416 -1.0979729
1.1405039 -0.12178076 0.7626041 1.0658771 0.09482931 -0.89775294 0.8534929 -0.7809492
-0.22504255 0.32433882 0.24599384 0.5235308 0.7806783 -0.76613224 1.0792902 -0.23754591

policy_network.1.running_var f4 [128]
00000000: 4282 3f3d 50db 4d3c 3e61 273c 6cd1 093c
00000010: c04c aa3b 9b98 cd3b ab7e 8f3b 340b 8a3c
00000020: 3844 c23c 1414 e83c 14b4 ae3b 7f77 013c
00000030: 5174 763d f2c3 9f3b ae04 7c3c 71af 0c3c
00000040: a53b 5d3c db06 e03c b96e 3b3d ece0 483c
00000050: 8d94 863b 3f08 143b caeb e73b 1213 633b
00000060: 3bb8 233c 1b91 3d3d cd93 2e3c cdc4 043d
00000070: dc09 453d a26b fc3b 57f2 d33c c027 0e3d
00000080: 5545 cf3c c983 f53a 60d3 993c 8fc4 243b
00000090: a9de 613d 06c0 853b 0fb1 213d cbcd cf3b
000000a0: 7121 893d 7aa1 073c 6108 d83c 40e0 903c
000000b0: 86a5 603c eb5e 5f3c beca 373b 60a1 913b
000000c0: d3fb 473d 0569 683b cb8f 423c 3b09 513c
000000d0: dc65 d33c a762 f63c 3fb1 823c 1798 283b
000000e0: 0405 623c b5ff 013c 3b98 303d 7155 743b
000000f0: 9426 c63b 8e06 e53c 9a5f 8b3c 57b0 d03b
00000100: 367c d73c 5163 b83c 6f34 b03b de75 a03b
00000110: e68c 903c 3cc9 283b 7fa4 3d3b 6778 9d3c
00000120: 0fed 863b d8ff 993b 4d14 713c 724e 713b
00000130: e5fa 7e3c 2dd9 373d 412e 013c 2d6b 8f3b
00000140: fc99 673b f22f d93b 617f e63c 13b5 7d3c
00000150: 04de b53b b3b9 333b b934 1d3c a442 323d
00000160: 8a6e d13b fae7 873c 9ea3 7b3b 361c 423d
00000170: 70b2 9e3c 3c1e fb3c 0db3 b33b 9ecf 883b
00000180: e7c7 d13b fc8b cc3b 8f78 993c 9f28 153b
00000190: e65d 1d3d aaff 833c bab2 b93c 8157 d03b
000001a0: 4e4d 1c3c a305 413d 0550 023d 6acf e93c
000001b0: bd2a 8b3b 98d7 6d3c 7d19 023d d5f4 503d
000001c0: 8ee3 363d 11be 9e3b b5eb 933c 807f 2d3d
000001d0: 9409 c73b fccf bc3c add2 073d 4871 783c
000001e0: 9724 783b 8ef2 303c 895a 3a3c c539 7b3c
000001f0: dbb6 883c 5887 8f3c f51d 493d 9115 4d3b
0.046755083 0.012564495 0.010216055 0.0084117465 0.0051971376 0.0062742955 0.0043791137 0.016851045
0.02371417 0.028329886 0.0053315256 0.007902025 0.06016952 0.0048756534 0.015381975 0.00858675
0.01350299 0.027347019 0.04575989 0.012260657 0.004107064 0.0022587923 0.007077669 0.0034648818
0.009992654 0.04628096 0.010655356 0.032414246 0.048105106 0.0077032605 0.025872393 0.034705877
0.025301615 0.0018731292 0.01877755 0.0025141572 0.055143986 0.004081729 0.039475497 0.006341671
0.066958316 0.008278245 0.026371183 0.017685056 0.013711339 0.01363347 0.0028044428 0.004444286
0.048824143 0.0035462987 0.011875103 0.012758548 0.025805406 0.030076338 0.015953658 0.0025725418
0.013795141 0.0079345 0.04311393 0.0037282372 0.0060470793 0.027957227 0.01701336 0.0063686776
0.026304346 0.022508295 0.0053773443 0.0048968634 0.01764531 0.002575471 0.0028937159 0.019222451
0.004117615 0.0046996884 0.014714313 0.0036820439 0.015562748 0.04488485 0.007884563 0.00437679
0.0035339585 0.00662803 0.02813691 0.015485066 0.005550148 0.0027423918 0.00959509 0.043520585
0.006391351 0.016590107 0.0038397084 0.047390185 0.019372195 0.030654065 0.005483991 0.0041751405
0.006402004 0.0062422734 0.018734245 0.0022759808 0.038419627 0.016113121 0.022668231 0.0063580875
0.009539915 0.047124516 0.031814594 0.028541286 0.004247038 0.014516734 0.03176259 0.05101474
0.044650607 0.004844435 0.01805673 0.04235792 0.00607414 0.023048393 0.0331599 0.015163727
0.0037863606 0.010800017 0.011374124 0.015333598 0.016688755 0.017520592 0.049100835 0.0031293372

policy_network.2.weight f4 [256, 128]
00000000: 4e5b c33d 33de 4dbc c7f9 97bd c595 bd3d
00000010: 3b78 b038 81e6 253c c80f 833c 101e 283d
00000020: fef2 223d 2d3a b3bd 9c61 9e3d ef59 debd
00000030: fdf2 b0bd 6e2b 553d c558 8cbc 7a4d cabd
00000040: fec7 c3bc b8c5 763d b006 1d3d 1ef3 62bd
00000050: fbdd 62bd ad46 32bc 3b2c b43d 85a9 f3bc
00000060: 1911 f03d 2022 0bbe 77ae 14bd 5a9e 9b3b
00000070: 5978 6f3b 2ec3 41bd 906c 06bd 592b dfbc
00000080: b37a d6bd 1b4e aebd 869a 673d 70b1 45bd
00000090: 2932 f4bc dc29 943c 5718 a7bd e113 b83d
000000a0: 3017 103e 645e 06be 20d9 013e f131 f23d
000000b0: ea72 d43d 3d54 0ebe 9ec7 7abd 0853 5dbd
000000c0: ed65 09be e7dc a43d aa10 3f3e f9e4 39bc
000000d0: 9b01 0fbd f18f 7ebd 0e8f c3bd e93e 95bc
000000e0: a3c2 9a3c 0212 ffbd e583 133d 4624 cfbd
000000f0: 2946 27bd 83fd 213e 8e97 65bd 9991 a5bd
00000100: 77a7 84bc 6f44 c33c e9aa 89bd 537c 343c
00000110: 103e 9cbd 22ea 8c3c 2b77 e6bc d53e bdbd
00000120: becb 913c 8fd8 eb3c 4662 943c 945f f43b
00000130: 9a90 543d bf44 0dbd 7aa1 6cbd 87c3 6a3c
00000140: b154 50bd 9a07 88bd 5f91 b4bc 985b 0fbc
00000150: e358 00bd 1fb1 9d3d d8d5 523c 5031 bdbd
00000160: 702f 8f3d d649 3ebc 0b8a 1abd fa19 243e
00000170: 6fbb 643c 1fdd 80bd 7f27 92bb c4eb ba3d
00000180: d955 98bd 339b 16bd 10e9 8dbd d289 bc3d
00000190: afbd 3cbe 4368 f8bd 7e1b b7bc 3781 0fbe
000001a0: 0a3c 823d bb9f dfbc 76cd d53a 65e6 a8bd
000001b0: 2a3b b7bd 4161 453d e3c4 abbd 3d79 ccbb
000001c0: 2b09 27bd 67dc bf39 1795 98bd 8e9b 7cbd
000001d0: ca1c 8bbd 7ec4 13bd ddbd 9dbd c6bf 8f3d
000001e0: dfd3 1e3d 8e2e 523d c288 683d 46f4 dd3c
000001f0: 37f3 d0bd 4a75 0a3e 20be 2bbd 6f5b 2ebd
00000200: 7d7b 09bd df48 3cbd d0da 3bba b78d bbbd
00000210: e7e0 843d e746 a0bc 697a 1a3d c160 5cbd
00000220: b6a7 2abe 69e7 61bd e511 f63c 1f0b c63d
00000230: 0d3a ab3d 13cd b03d 9c77 cebb 69ea 173d
00000240: 5bb2 99bd 80f1 453d 65b6 afbd c6d1 af3d
00000250: fe67 043d ddd0 733d 725d a8bd 1a23 433d
00000260: 0229 a4bd 886d 5dbd b52d 943d 199f c9bc
00000270: f4a2 85bc 086b f6bc 07a9 b03d 0007 c33b
00000280: d98c a03d d6f5 033e a4f4 6fbd 5ea9 b7bc
00000290: cb09 733d 8da3 3dbd 863d 213e bc62 bebd
000002a0: f500 8abd 264d a33d c265 9bbd 0a41 b9bd
000002b0: 6b4b d1bb 5287 143d b651 d9bd c2f1 473d
000002c0: b8f4 4bbc 1f85 783c a942 aa3a eb1e ccbd
000002d0: 293b 153d 0179 993d 220d f83d f209 d4bd
000002e0: 1843 e0bd 002b 52bd 73a0 16bd 9ef8 89bd
000002f0: 8ea8 31bd ba32 06bd 9b04 e7bc e92d 1a3e
00000300: e4e8 ca3d fb74 44bc 65fa 42bd 0db1 223c
00000310: 5fc2 b53d ccbd b23d 83d5 15bd e4c7 1abc
00000320: daab c13d b865 0f3e 9a0d 40bc 4eb8 c43c
00000330: e7cb e4bc e222 4e3c 3875 efbc 99e0 423d
00000340: 218a 97bd 93f6 183d 1398 ce3c 8a42 9bbc
00000350: 95c6 c73d 491f ba3b ccff edbc 0051 c9bd
00000360: 3064 c2bd 0417 0d3d 317a 8fbd d21a f4ba
00000370: 03c4 6d3d 701c 1f3e 1b00 fc3d ef89 433b
00000380: ac32 2d3d b0fe 4fbc d9e0 9cbc 261b 3d3d
00000390: 1ae1 003e de20 05bd 06e7 2abd 62cd 55bc
000003a0: 4f51 37bd c5dc aebc 5b87 cb3c 2393 b43d
000003b0: 0899 a7bd f982 c8bb 7343 61bd 0959 b2bd
000003c0: 3a92 9e3d 7f37 5cbb 3ff6 693c 7f23 39bd
000003d0: 3895 edbc ec28 41be fee3 82bc 912b 53bc
000003e0: d2e3 2dbc 7c8f 1e3d f2de d43c 1f12 e73d
000003f0: c28c 073d 5511 733d 5112 c93d bf3f 183d
0.09538899 -0.012565183 -0.07420688 0.09257082 8.414729e-05 0.010125757 0.015998736 0.041044295
0.039782517 -0.087513305 0.07733461 -0.10856997 -0.08640096 0.05204337 -0.017132172 -0.09878059
-0.023899075 0.060247153 0.038336456 -0.055407636 -0.05538748 -0.010881108 0.08797499 -0.02974392
0.11722011 -0.13587236 -0.036299195 0.0047491016 0.0036540239 -0.04730528 -0.032818377 -0.02724235
-0.10472622 -0.08510991 0.05654385 -0.04826492 -0.029809074 0.018086366 -0.08158939 0.089881666
0.14071345 -0.13121945 0.12680483 0.11825932 0.103734806 -0.13899322 -0.061225526 -0.054034263
-0.13417788 0.08049946 0.186587 -0.011346095 -0.03491364 -0.062148992 -0.0954877 -0.018218474
0.018891638 -0.124546066 0.036014456 -0.101143405 -0.040838394 0.15819363 -0.056052737 -0.08084411
-0.016193135 0.023836343 -0.06722052 0.011015969 -0.07629025 0.017201487 -0.028132996 -0.092405
0.017797347 0.028789787 0.018113267 0.007457683 0.051895715 -0.03448939 -0.057771184 0.014328844
-0.050862018 -0.06642075 -0.022041975 -0.008749865 -0.03133477 0.07699799 0.012868367 -0.09237921
0.0699147 -0.011614284 -0.037729304 0.16025534 0.013960703 -0.062921755 -0.0044602747 0.09127
-0.07438249 -0.036769103 -0.06929219 0.09205975 -0.18431734 -0.12129261 -0.022351976 -0.14014135
0.06359108 -0.027297845 0.0016311842 -0.08247069 -0.089468315 0.04818845 -0.083871625 -0.0062400387
-0.040780228 0.0003659457 -0.07450312 -0.061671786 -0.067926005 -0.03607606 -0.07702229 0.07019
0.038776275 0.05131393 0.056771047 0.027094018 -0.102026395 0.13521305 -0.041929364 -0.042567667
-0.033565033 -0.045967933 -0.00071660895 -0.09157889 0.06488209 -0.019565059 0.037714396 -0.05380321
-0.16665539 -0.05515233 0.03003783 0.0967009 0.08360682 0.08632865 -0.0063008796 0.037088785
-0.07504722 0.048326015 -0.08579711 0.08584933 0.032325737 0.05952536 -0.08220948 0.047640897
-0.08015634 -0.054059535 0.072352804 -0.024611996 -0.016313054 -0.030080333 0.086259894 0.005951762
0.078393646 0.12886748 -0.058582917 -0.022419628 0.05933551 -0.046298552 0.15746126 -0.09296176
-0.06738464 0.07973699 -0.07587768 -0.09045608 -0.0063871644 0.036261864 -0.10611288 0.048814543
-0.012448482 0.015168457 0.0012989837 -0.09966835 0.036433373 0.07493783 0.1211188 -0.103534594
-0.10950297 -0.05131054 -0.03677411 -0.06736873 -0.043373637 -0.03276322 -0.028200438 0.15056576
0.099077016 -0.011990781 -0.047602076 0.0099299075 0.08874964 0.08727607 -0.036580574 -0.009447072
0.09456606 0.14003646 -0.011721993 0.024013665 -0.02792926 0.012581559 -0.029230699 0.047577474
-0.07399393 0.037344526 0.025218999 -0.018952627 0.097546734 0.005679999 -0.029052638 -0.09829903
-0.094917655 0.034445778 -0.07005728 -0.0018623716 0.05804826 0.15538192 0.123047076 0.0029836854
0.042284653 -0.012695 -0.019150184 0.04616847 0.1258587 -0.032502048 -0.041724227 -0.013049455
-0.044755276 -0.021345505 0.024844816 0.088171266 -0.08183485 -0.006119129 -0.054995965 -0.08708388
0.07742734 -0.0033602414 0.014279901 -0.045199867 -0.029001817 -0.18863267 -0.015977856 -0.012888805
-0.010613399 0.038711056 0.025985215 0.11282753 0.03309322 0.0593427 0.09817947 0.037170168

policy_network.2.bias f4 [256]
00000000: 5f0c 1ebd 9c04 d0bc 4db9 663d 9a03 55bc
00000010: 4de2 aabd 99bc 90bc b35d 12bd 2f42 a03d
00000020: f32b d63d c0ac 85bd fd08 aa3d 75fb 33bd
00000030: cee4 85bb d80b 7c3d 0ae5 74bd feb7 aebd
00000040: ffef 273c 3b71 b6bc ed72 c2bc bd18 103c
00000050: 09d3 96bd 1637 9abc 4e8b 483c 0249 723d
00000060: 6e8c 3eba eabb cf3b b20f 043d 0b9c 223d
00000070: b111 f73b 4fc0 a63d 9ff5 8039 c0e8 973d
00000080: acc6 7d3d cdfd cb3c 0c87 aabc dc2d 44bd
00000090: 7743 063d f62c 43bd 9738 383d 31dc 98bb
000000a0: 3125 dd3c d168 403d 2b7d 92bd aa54 da3c
000000b0: 8be6 813d 9e7a acbd 1b9f cc3c 9d88 59bd
000000c0: 4cc5 d5bc ae9c 59bd 938c 1c3c ae23 013d
000000d0: 97db 6cbd d1bd 40bc 6919 b2ba cb64 9ebd
000000e0: a512 e4bc 91c3 30bd 3569 c3bd e280 50bc
000000f0: dfe1 a93d 0bd9 953d 3b52 cc3c 50d3 10bd
00000100: 0614 7fbd d8c4 043d 4e09 923d 7f30 0d3a
00000110: ab66 19bd 2d46 5ebc 099e a13d 7353 6cbd
00000120: ee37 5b3c fa87 4dbc bc8e 78bd 6d11 c1bd
00000130: 1722 473d 58ad 8b3b bb91 4ebc 0e5d 60bd
00000140: 7067 3bbd 0189 e93c eac7 86bd b503 9ebd
00000150: 4e93 7dbd 9e20 d0bb ffd4 eb3c ca46 89bd
00000160: 57fd 94bd 1ff2 00bd 4416 9dbd 43ee 253d
00000170: d689 793d 1a4e ccbc bbf3 28bd 77ca f63c
00000180: 540f 483d 0080 943c 7b26 263d 9615 d7bc
00000190: 0863 b6bd 1ed8 273d 2860 3c3d 044a 04bd
000001a0: 9c0b cbbb 9258 1abd e24c 813d de27 1dbd
000001b0: 5cf2 443c 6768 cd3b 9384 963d d3a5 b23d
000001c0: 2ccf 2d3d d4db 18bd 51c8 53bc 9645 03bd
000001d0: 2850 2ebd 5da6 30bd f6c2 96bd 7ea5 a8bc
000001e0: 6c28 113d dd26 ffbc 8bdc 08bd f1c9 a33d
000001f0: 1d68 54bd dbe4 9c3d f9f3 d7bb e849 763d
00000200: ed6b 4d3d f851 993c 32ba 2fbd 7985 523c
00000210: b260 9fbc 509a ce3c c04a 9e3d dc24 243c
00000220: e79b 0839 9a55 e3bc e8fe 9a3d 6a5d b13d
00000230: f965 473d 9c7b 95bd 7130 8b3d 3869 b5bd
00000240: 085c 11bd 7d67 a1bc a507 bfbd 4524 6e3d
00000250: b140 033c 6197 12bd e908 3ebb ffbc 9cbc
00000260: 462c c4bc 4097 cbbc 59a4 1a3c 21e0 8abd
00000270: 9ef9 b03c f02e dbbc 0d49 703d 8ff9 90bb
00000280: 45bc 793d 3053 423d 079b 81bd 484b 92bd
00000290: 4612 673d 3f4b 8a3c 0809 a73d 73ff 3c3d
000002a0: 69f9 c5bc 2a40 9fbd 50cc d43c 3e66 93bc
000002b0: 0f7e 31bd 3063 543c 880f d13c 26d4 b43d
000002c0: 4427 f5bc 5533 963c d45a be3c 20c4 e0bc
000002d0: 60c1 32bd e7af bbbd b5c5 6a3d 81f4 febc
000002e0: b9e2 773c 03f7 44bd 6ba8 c13c 5063 49bd
000002f0: b351 abbb 1de3 cbbc b1a8 4d3d 50ee b0bc
00000300: 4fe9 a53c e370 5abd 6d64 0d3c 6a7f 12be
00000310: a5ad 44bd 012c 03bd a2a0 54bd 1969 823d
00000320: 04f2 543c 8266 9d3d 9525 6d3d 544d 733d
00000330: 750d dcbc 48b8 eebc d89d a73c fa13 083d
00000340: 649a 7abd b77a 2b3d 0ee2 9bbc 1260 4cbd
00000350: 57ec 6cbd 39e5 ad3b 937e 183d 75ff c2bd
00000360: 4f8a 3b3d 15ee 14bd 412d 95bd eb26 d8bb
00000370: 19c6 69bd 357c 8ebd fbcf 763d 7d99 9b3c
00000380: f8b9 bd3d 7cf5 2ebd ec17 b8bd 6ef6 5ebd
00000390: 547c 95bd 29a2 a2bd bacd 643d ba36 1bbc
000003a0: 42a7 2fb8 2c87 22bd 712c cdbb 579a d03c
000003b0: ad4a 923d 9f99 7d3d f7c6 6bbd 733c 4fbc
000003c0: 9eba a13d 546e 673c 0769 683d d92a ea3c
000003d0: 0d49 933d cf32 ccbc e968 ed3b 2e3d 6e3d
000003e0: 5515 55bc 4f2a 743c 5636 36bd 2a32 8f3c
000003f0: 1ca9 9e39 7eef 28bd 34ca 09bd 1d17 6bbd
-0.038586017 -0.025392823 0.05632906 -0.013001347 -0.08343945 -0.017668055 -0.03573389 0.078251235
0.104576014 -0.0652709 0.08302496 -0.04394098 -0.0040861135 0.061534733 -0.05978874 -0.085311875
0.010250091 -0.02227079 -0.023736442 0.008794961 -0.073644705 -0.018825095 0.012240244 0.059151657
-0.00072688505 0.00633954 0.03224153 0.039699595 0.007539951 0.08142149 0.00024597064 0.074174404
0.061957046 0.024901295 -0.020816348 -0.047895297 0.032779183 -0.0476503 0.044975843 -0.0046649207
0.026995273 0.04697496 -0.0715278 0.0266517 0.06342801 -0.08421825 0.024978211 -0.0531088
-0.026095055 -0.053127937 0.009555 0.031528167 -0.057826605 -0.011764006 -0.0013587895 -0.077340685
-0.027840922 -0.043155257 -0.09541551 -0.012726041 0.082950346 0.07316788 0.024941554 -0.035357773
-0.062274955 0.032414287 0.07130681 0.00053859496 -0.037451427 -0.013566536 0.07891471 -0.05769677
0.013380034 -0.012544626 -0.060682997 -0.09427152 0.048616495 0.0042626075 -0.012607987 -0.054776244
-0.045752943 0.028507711 -0.06581099 -0.07715551 -0.06190806 -0.0063515445 0.028788088 -0.06702955
-0.07274883 -0.031480905 -0.076702625 0.040510427 0.060922466 -0.024939585 -0.041248064 0.03012584
0.048842743 0.018127441 0.04056404 -0.02625541 -0.089056075 0.04097759 0.04599014 -0.03229715
-0.0061964523 -0.037682123 0.06313492 -0.0383681 0.012020674 0.0062685492 0.07349505 0.08723035
0.042433903 -0.03731902 -0.012926177 -0.032048784 -0.04255691 -0.043127406 -0.073614046 -0.020586725
0.03543894 -0.031146461 -0.03341345 0.07997502 -0.051857103 0.07660838 -0.006590363 0.060129076
0.050151754 0.018715844 -0.04290218 0.012849205 -0.019455288 0.025220066 0.07729101 0.010018554
0.00013028049 -0.027750779 0.07568151 0.086603954 0.048681233 -0.07298967 0.06796349 -0.088579595
-0.03548816 -0.019702667 -0.0932763 0.058140058 0.008011029 -0.035788897 -0.002899701 -0.01913309
-0.023946892 -0.024852395 0.009438598 -0.067810304 0.021603402 -0.02675578 0.058663417 -0.004424281
0.060970563 0.047442615 -0.06328397 -0.07143265 0.05641391 0.016881583 0.081560194 0.046142053
-0.02416678 -0.0777591 0.02597633 -0.017993089 -0.04333311 0.012963101 0.025520101 0.088295266
-0.02992595 0.018335024 0.02323667 -0.02743727 -0.043641448 -0.0916441 0.057317454 -0.031122448
0.0151297385 -0.04808713 0.023639878 -0.049166977 -0.005228245 -0.02488857 0.050209705 -0.021598011
0.020252852 -0.053330313 0.0086299 -0.14306417 -0.048017163 -0.032024387 -0.051911004 0.06367702
0.012997154 0.076855674 0.05789717 0.059399918 -0.026861886 -0.029140607 0.020461008 0.033222176
-0.061182395 0.041865077 -0.01902869 -0.049896307 -0.05784258 0.0053068665 0.037230086 -0.09521381
0.0457862 -0.036359865 -0.07284022 -0.0065964363 -0.057073686 -0.06957284 0.06025694 0.018994087
0.09263986 -0.04271458 -0.08988938 -0.054434232 -0.07299104 -0.07941086 0.05586026 -0.009473497
-4.1879022e-05 -0.03967969 -0.0062614013 0.02546422 0.071431495 0.061914083 -0.057562795 -0.01264869
0.078969225 0.014125425 0.056740787 0.028584884 0.07191668 -0.024926571 0.0072451723 0.058163814
-0.013005574 0.014902665 -0.044485413 0.017479975 0.00030262105 -0.041244023 -0.0336401 -0.05739509

policy_network.3.weight f4 [256]
00000000: 29c9 703f 8021 663f a0e5 6e3f 1af2 4c3f
00000010: 5c6c 4a3f 15c2 563f 0b19 3b3f 566e 573f
00000020: 1891 643f 5ff9 5a3f 3384 5c3f 68be 683f
00000030: 3765 483f b0f7 513f bf5f 623f f87c 353f
00000040: 9a48 5f3f 2d7a 5a3f 0c6e 5e3f 63b5 673f
00000050: a97c 613f b303 2a3f da4f 653f cd52 583f
00000060: dee2 4f3f 6233 553f a2d5 593f 1511 433f
00000070: 99c7 3f3f 05e8 623f 2863 643f 8b08 613f
00000080: 2e02 783f 1737 5f3f eaf1 633f cb51 573f
00000090: 780d 613f 02ff 433f 933f 753f b9cd 483f
000000a0: cd26 5d3f 568d 613f 3a7e 693f 6beb 503f
000000b0: 13a7 2d3f 8e50 643f 8aba 5c3f 42f9 5e3f
000000c0: 1069 533f 5c98 5a3f 947c 573f 7973 723f
000000d0: 9b89 4e3f c665 443f 39ec 723f e898 4a3f
000000e0: d26b 5f3f 0eb4 6a3f 326c 493f c376 5f3f
000000f0: dc55 5d3f ad0f 683f 10ff 5d3f 649b 4b3f
00000100: 9022 493f 026e 5c3f 44ae 523f 2f44 713f
00000110: 0ec0 623f 4ed0 4c3f 788c 573f ee08 553f
00000120: fef8 5f3f 04af 533f 6b44 4b3f bb4b 5e3f
00000130: 3e09 603f 5b14 4a3f 2471 4d3f c27a 7c3f
00000140: f731 423f b5d5 6c3f 6ddf 5b3f 2f99 373f
00000150: 2901 6d3f b111 4e3f 91e3 5a3f bb63 593f
00000160: 3c9b 4b3f 236e 2c3f e08f 4f3f d8d9 693f
00000170: dec0 723f 2eaa 4a3f 9eab 6d3f 8ae6 663f
00000180: b8c2 543f 4fe1 623f ca65 7b3f 8dc0 693f
00000190: 254f 8a3f aaf9 543f 91f0 543f 50e8 6b3f
000001a0: 1e88 4e3f d286 633f 8bdf 623f 7284 623f
000001b0: aea7 633f 4784 773f 05b6 673f 9772 633f
000001c0: 6235 5b3f 7860 613f 2c87 353f c489 5f3f
000001d0: d83b 493f e20b 553f d903 623f 8c46 763f
000001e0: 939c 683f c81b 513f bee7 583f 52fc 6b3f
000001f0: 2a42 533f 16f9 593f 892d 713f 8d94 3e3f
00000200: 0783 4a3f 2415 483f 0f89 693f b43c 603f
00000210: 8bf0 573f 8233 6b3f 605d 4f3f ae74 533f
00000220: c4fb 7a3f 0535 673f d620 633f 53d2 773f
00000230: 913d 6a3f cae4 563f 316e 493f 1e9c 5e3f
00000240: 7032 5c3f af26 533f 03ec 2d3f 26ed 663f
00000250: f7c0 5c3f fb34 683f aaa1 6c3f 7a7f 643f
00000260: 1af1 613f cb18 1d3f b65b 3c3f 44f2 5d3f
00000270: ce47 7b3f 861c 4f3f fbbb 493f 2065 763f
00000280: 89df 443f 5264 6e3f e063 453f 3f41 553f
00000290: 4bef 473f 381e 4a3f 3116 3e3f 2220 4c3f
000002a0: ed5f 5b3f e360 423f e848 3a3f 0d3b 5a3f
000002b0: 3cf2 5b3f 7768 633f 91bc 533f d023 633f
000002c0: 027f 663f 8878 5c3f b9e4 603f f670 553f
000002d0: d397 723f 984a 763f 5be6 393f 4b0a 573f
000002e0: 6224 813f 742a 5e3f f0fc 6a3f d675 473f
000002f0: 6e39 433f 133b 593f f716 5d3f 7932 653f
00000300: 1077 5e3f 74f4 3d3f 2fff 323f 8fdc 583f
00000310: 1cdd 3e3f 0c64 643f 13ae 5c3f f1cc 4d3f
00000320: 335f 5c3f 950c 5b3f 6a9b 4d3f f7e8 763f
00000330: 7ab2 3f3f c54f 2d3f 393b 593f f8cc 5f3f
00000340: af7c 603f 69fc 4e3f c699 703f b624 753f
00000350: bf2f 4c3f a25f 503f 0353 543f 6139 5e3f
00000360: 4b17 4d3f 5831 4e3f b7f5 7c3f 50f7 5c3f
00000370: 485c 5e3f 21a0 533f 8ec3 7b3f 38dd 783f
00000380: b68c 663f 8875 603f a3ed 593f 0bbf 713f
00000390: 5973 573f 9315 223f 3656 663f dab1 583f
000003a0: d2ed 5a3f 77cd 513f 560d 453f 4b56 753f
000003b0: d56b 563f 9ced 673f 8085 753f 6395 613f
000003c0: 9629 5d3f 4fbe 4b3f d1f2 603f 9b66 633f
000003d0: 3dfb 783f 592b 623f c1c9 4b3f ddab 693f
000003e0: 85e0 683f f5eb 673f 552e 693f ca64 6f3f
000003f0: c49e 6c3f 9a56 6a3f c99c 453f d931 683f
0.94056946 0.89894867 0.9331913 0.8005692 0.79071593 0.83889896 0.7308509 0.84152734
0.89283895 0.8553676 0.8613922 0.90915537 0.7827944 0.82018566 0.88427347 0.7089381
0.87220156 0.85342675 0.8688667 0.9051115 0.8808084 0.66411895 0.8957497 0.84501344
0.81205547 0.8328153 0.850916 0.7619794 0.74913937 0.88635284 0.892138 0.8790366
0.96878326 0.87193435 0.89041007 0.8410918 0.87911177 0.76560986 0.9580013 0.7843891
0.8638733 0.88106287 0.9120823 0.8160922 0.6783306 0.89185417 0.86222136 0.8709909
0.8258219 0.8538873 0.84174466 0.9470745 0.8067872 0.76717794 0.948917 0.79139566
0.87273896 0.9168099 0.7868072 0.8729059 0.86459136 0.9064892 0.8671732 0.7953398
0.78568363 0.8610536 0.8229716 0.94244665 0.885743 0.8000535 0.84198713 0.8321675
0.87489307 0.8268893 0.7940127 0.86834306 0.875141 0.7893731 0.80250764 0.98624814
0.7585749 0.9251359 0.85887796 0.71718115 0.92579895 0.80495745 0.8550349 0.849178
0.79533744 0.67355555 0.8107891 0.9134803 0.9482554 0.79165924 0.9283999 0.90195525
0.8310962 0.88625044 0.9820219 0.91309434 1.0805403 0.8319346 0.83179575 0.92151356
0.8067645 0.88877594 0.8862235 0.88483346 0.88927734 0.96686214 0.90512115 0.88846725
0.8562833 0.88037825 0.7090938 0.8731959 0.7860694 0.83221257 0.8828712 0.96201396
0.90863913 0.81683016 0.8472861 0.92181885 0.82522833 0.851457 0.94210106 0.7444542
0.7910618 0.7815726 0.9122476 0.87592626 0.84351414 0.9187547 0.81001854 0.82599914
0.98040414 0.90315276 0.8872198 0.96805304 0.9150019 0.83942854 0.78683764 0.86956966
0.8601446 0.824809 0.6793825 0.9020561 0.8623194 0.9070584 0.9243418 0.89257014
0.88258517 0.61365956 0.7357744 0.86697793 0.9815644 0.809029 0.7880246 0.96248055
0.7690359 0.93121827 0.7710552 0.8330268 0.7809951 0.7895236 0.7425261 0.7973653
0.85693246 0.7592909 0.72767496 0.85246354 0.85916495 0.88831276 0.82709605 0.8872652
0.9003755 0.86121416 0.87849003 0.8337549 0.94762915 0.9620757 0.7261712 0.8400008
1.0089228 0.8678353 0.917922 0.7791418 0.76259506 0.84855765 0.86363167 0.8953014
0.86900425 0.7420113 0.6992063 0.84711546 0.74556136 0.8921516 0.86203116 0.8039084
0.8608276 0.85566074 0.8031527 0.96449226 0.7488171 0.67699844 0.8485599 0.8742213
0.8769025 0.808539 0.9398464 0.9575914 0.79760355 0.81395924 0.82939166 0.86806303
0.8011367 0.8054404 0.9881243 0.8631487 0.8685956 0.8266621 0.9834527 0.97212553
0.9005846 0.8767934 0.8512823 0.94432133 0.8416038 0.6331417 0.899753 0.8464638
0.85519135 0.8195414 0.76973474 0.958348 0.8375829 0.9059694 0.9590683 0.8811857
0.8639158 0.7958726 0.8787051 0.8882844 0.9725836 0.88347393 0.7960473 0.9127787
0.9096759 0.90594417 0.9108632 0.93513167 0.9242976 0.91538393 0.7719236 0.9070106

policy_network.3.bias f4 [256]
00000000: 455b 993e 641a 26be b5a9 0ebf 2719 85be
00000010: 5c74 b6bd 5eb4 38be 7b92 2bbe 6147 343e
00000020: 4253 03bf 9071 b43e da31 d2be 92e6 993e
00000030: 3f81 003f b4b8 babe 02ec 88be dc1d fc3e
00000040: 4bb2 9fbd 5394 773d 082b 873e a88c 8abe
00000050: 405b 1d3e 1b89 033f 4553 313e a612 68be
00000060: 36af b83d b0f1 723d 7533 c03e 0e45 923e
00000070: 4acc 1abe df38 7abe bb5e ba3e a530 703e
00000080: e89f dc3e ba72 20be 1dd6 22bf af4e 0a3e
00000090: 5ae1 a33e cfd0 593e a1f2 1abe 7612 94bd
000000a0: cec9 c93e 97d2 eebd 6886 6ebd 442d f53e
000000b0: 1ad3 013f 11e4 c73e d454 b8be 2454 493e
000000c0: c2d4 503e dfde 09bf e8d6 ae3e 5872 ebbd
000000d0: 80b4 543e 4c8f 03be c458 a23e b4f6 9cbe
000000e0: deee 163f faec 5e3e 5ff7 f13e 989a 04bf
000000f0: 7475 653d 7864 73be f45b 503e 7d09 1c3f
00000100: 863f ccbd f5bd 893e 3ea3 0fbf fe56 0e3f
00000110: c691 a53e 2f0b 223e 94d7 ca3e 8dce 143f
00000120: 49be 1e3e fa5d cebe c501 5dbe 37fa a5be
00000130: 167c efbd 38b4 0d3f abc2 20bd 1f60 873e
00000140: 4c00 f33e 7c85 c3be a1e0 f73e f427 883e
00000150: 15c2 bf3e b382 c8bd 8aa1 1cbf a3c1 4f3e
00000160: 42a2 1b3e c6f3 ddbe 8e12 d7be b426 ea3e
00000170: 220f 7dbe 0710 acbe d050 c7be 8881 d1be
00000180: 78fa 203f 700c 543e 711b 9d3e ed98 f83e
00000190: c184 8bbe a19c 533e 7092 eabe d188 8e3e
000001a0: 1fcc 74be 08ec 7abe 5afa 72be 1485 05be
000001b0: 02e4 86be c561 8c3e 2588 97be f6bd 373e
000001c0: ab56 143e d7fb a0be b8b8 f3be 0682 5c3d
000001d0: ca69 073f d3bc 16bf 9b2c dc3e 642b 81be
000001e0: c74a 923e a3e9 0f3f 7272 ccbe db85 a83d
000001f0: 5b19 f53e 08cf d23d 0349 0ebf d47b 9dbe
00000200: 204c 8fbe 7aae bfbb b707 9fbe c7ca 64bd
00000210: b0c1 063d 0332 d0be 66c1 8fbe 2f4d 5b3e
00000220: 06f0 b33e 9afc d83e 47ae 0abf ac0d 533e
00000230: 88bf fb3e 3c41 143d 3675 84be 254d 183f
00000240: 0d95 0a3e b238 ee3e 4657 ec3e c013 9b3e
00000250: 53b5 78be f95b 043f fddd fdbe b565 ad3e
00000260: 96a7 663e fedc eebe 9da4 12bb 9e62 823e
00000270: 135b ebbe f693 0f3f caab c7be a807 793e
00000280: 92f7 cf3e f74d a8bd 1d71 213e b42b 4fbe
00000290: 1a9a f23e 45f9 0c3f 5717 6fbd c997 8e3e
000002a0: 37c8 22be ffe0 013f 00b9 013f d7f6 bd3e
000002b0: a799 27be 00e5 c4be 44f3 1abe ff26 203d
000002c0: 5772 b2bd 3298 983e 27ac c1be 8c5a 2e3d
000002d0: 55cb debe ce00 d93e 6ef5 9ebe e39f babe
000002e0: 79c7 dabe 9e92 e73c 1b47 023f fefc b6be
000002f0: 1e63 4b3d 9eb5 1dbf e878 b63e 21ed 88be
00000300: 1b7f 30be 04f0 143f 4b67 7b3e b9a8 e33e
00000310: 0ba5 36bd 433a 24be cc3f a23e ec4c 9d3c
00000320: 8d8c 37be 612c 94be 9f14 e13e 6d28 5bbe
00000330: 7468 6cbe 41b2 97be 3fe9 bf3c e99d ec3e
00000340: f8e9 123f 85a8 69be c244 f23e 8c0c e23e
00000350: 1eb8 75be 145a 42be e4e3 24be 6db5 ea3e
00000360: 1876 a7bd 8921 533e 41a5 e33e 37c0 b33d
00000370: d953 0e3f 772d a13e 7bab 86be 7f58 883c
00000380: 8f1d 0bbf 9b15 923e 837d 87bd 8111 893e
00000390: 77de 07bd dcdc f63e 540a 42be dc08 113f
000003a0: d457 5b3e 1935 b43e 10da cfbe c27d 7e3e
000003b0: 1826 093f 7d8e c93e 11a9 0ebe 99d7 893d
000003c0: 6341 213e 32fb 243d 1e34 94be d68e fbbe
000003d0: 3569 36be a69f dfbe 9746 82be 4553 b93e
000003e0: cac0 ed3e b68f 5c3e 7d5c b9be 52af a53e
000003f0: c50f e43e 2ef7 c83e 99ae 57bc 36f8 6a3e
0.29952446 -0.16221005 -0.557277 -0.25995752 -0.089089125 -0.18037555 -0.16755097 0.17605354
-0.51298916 0.3524289 -0.4105366 0.30058724 0.50197214 -0.36469042 -0.2674256 0.4924153
-0.077976786 0.060444187 0.26400018 -0.27060437 0.1536684 0.5138108 0.17316921 -0.22663364
0.09017794 0.059312522 0.3753926 0.2856831 -0.15116993 -0.24435757 0.364004 0.23456056
0.4309075 -0.15668765 -0.6360796 0.13506578 0.32007867 0.2127106 -0.15131618 -0.07230084
0.39411777 -0.116612606 -0.05823365 0.47886097 0.5071274 0.39041188 -0.3600222 0.19661003
0.2039366 -0.538557 0.34148335 -0.11496419 0.2077198 -0.12847632 0.31708348 -0.3065697
0.5895823 0.21770087 0.47259042 -0.5179839 0.056020215 -0.23768795 0.20347577 0.6095198
-0.09973054 0.26902738 -0.5610846 0.5560149 0.3233778 0.15824579 0.39617598 0.5812767
0.15502276 -0.40306073 -0.21582706 -0.3241746 -0.116935894 0.55353117 -0.03924815 0.26440522
0.47461164 -0.38187778 0.48413566 0.26592982 0.3745276 -0.09790554 -0.6118399 0.2028871
0.15198615 -0.43350047 -0.42006344 0.45732653 -0.24712804 -0.33605978 -0.38928843 -0.40919137
0.62882185 0.2070787 0.30685 0.48554173 -0.2724972 0.20665218 -0.45814848 0.27838758
-0.23905991 -0.24504101 -0.23728314 -0.13039047 -0.2634583 0.27418342 -0.29596058 0.17943558
0.14486186 -0.3144214 -0.47601867 0.053834938 0.52895796 -0.5888187 0.4300278 -0.25228417
0.28572676 0.56215876 -0.39931065 0.08228656 0.47870907 0.10293394 -0.5558016 -0.30758536
-0.27987766 -0.0058496566 -0.31060573 -0.055857446 0.03289956 -0.40663156 -0.2807724 0.21416162
0.3514406 0.4238022 -0.54172176 0.20610684 0.49169564 0.036195025 -0.25870675 0.59492713
0.13533421 0.4652763 0.46160334 0.30288506 -0.2428792 0.5170284 -0.49583426 0.3386666
0.22524866 -0.4665298 -0.002237595 0.25465864 -0.45967922 0.56085145 -0.38998252 0.24319327
0.4061857 -0.082179956 0.15765806 -0.20231515 0.47383195 0.55067855 -0.058371868 0.27850178
-0.15896688 0.5073394 0.5067291 0.37102386 -0.16367207 -0.38455963 -0.15131861 0.03909969
-0.08713215 0.29803616 -0.37826654 0.04256682 -0.43514505 0.42383426 -0.31046623 -0.3645011
-0.4273031 0.028268155 0.5088975 -0.35739893 0.049655072 -0.6160525 0.3563912 -0.26743415
-0.17235987 0.58178735 0.24551122 0.44464663 -0.04459099 -0.1603785 0.31689298 0.019201718
-0.1792471 -0.28940108 0.43961045 -0.2140214 -0.2308672 -0.29628184 0.02342665 0.46214226
0.5738826 -0.22818191 0.47318083 0.44150198 -0.23996016 -0.18979675 -0.16102558 0.45841542
-0.081768215 0.20618261 0.44462016 0.087768964 0.5559669 0.3148 -0.26302704 0.01664376
-0.5434198 0.2853211 -0.06615736 0.26771167 -0.033171143 0.48215377 -0.18949252 0.56654143
0.21420223 0.3519676 -0.40596056 0.2485266 0.5357375 0.39366522 -0.13931681 0.06730575
0.157476 0.04027862 -0.28946012 -0.49132413 -0.17813571 -0.4367649 -0.2544448 0.36196342
0.4643615 0.21539196 -0.36203375 0.3236032 0.4454328 0.39251083 -0.013164186 0.22946247
